src/detection/AI2/model/model.tflite (tflite, 215516 bytes, 47 tensors)

conv2d_1/bias f4 [32]
00000000: 3fc2 86be fbd5 1a3e c892 3ebe 221e d43d
00000010: eee4 dabd 4cc4 96be aea2 1fbe 47a9 78be
00000020: af26 163d b059 5dbe 4ce8 8b3d a882 85bc
00000030: 4b09 75be 5340 61be 894e 533e 4e67 85be
00000040: 82e3 86be 8276 74bc 57f0 82be d84c 85be
00000050: 51c8 52be 6d58 dc3c 72aa 82be ffa5 4fbe
00000060: ff41 523d 7c5e 57be 83ee 39bd 126d 833e
00000070: 6358 8fbd 8bde c2bc 2559 53be fb8b 513e
-0.26320073 0.1512069 -0.1861068 0.1035731 -0.10688196 -0.29446638 -0.15589401 -0.24283324
0.036657985 -0.21616244 0.068314165 -0.016297653 -0.23929326 -0.21997194 0.20635428 -0.26055378
-0.2634545 -0.014920833 -0.2557399 -0.2603519 -0.20584227 0.026897633 -0.25520664 -0.20278166
0.05133247 -0.21032137 -0.045393478 0.25669152 -0.0699928 -0.023787757 -0.20639475 0.20463555

conv2d/bias f4 [32]
00000000: 7a9c e7bb 3578 553c b58f 7bbd 9398 323d
00000010: 46c0 c0bd 3077 d4bc 540c 63bc 5ae2 29bd
00000020: da97 cfbc 803b 55bc d101 40bd 57be bbbc
00000030: 5863 3bbd 80aa 41bd d856 a7bc da16 febc
00000040: f8bb f53c 6f31 6ebd 0396 57bc 1cef c8bb
00000050: bfff e63c 100c 92bc 007b d3bd a2bd f0bc
00000060: 1894 883c bf52 1abe 1a46 f8ba 4f0b 0d3d
00000070: ce98 debc 277b 993c b671 5dbc ff97 17bd
-0.007068214 0.013029148 -0.061416347 0.043602537 -0.09411673 -0.02593574 -0.01385792 -0.04147563
-0.025340963 -0.013014674 -0.046876732 -0.02291791 -0.04574904 -0.047281742 -0.020427153 -0.031016756
0.029996857 -0.058152612 -0.013158324 -0.0061320197 0.028198121 -0.017828017 -0.10326195 -0.029387299
0.01667218 -0.15070628 -0.001894179 0.034434613 -0.027172472 0.018735481 -0.01351588 -0.03701019

sequential/model/bn_Conv1/FusedBatchNormV3 f4 [24]
00000000: 596d 58bf 2883 7040 8678 6e40 8d3d 5e40
00000010: 44dc 07bf e8bc 3f40 4c7a ecc0 1886 533e
00000020: b007 7440 3073 a740 7498 c5bd 0875 8cc0
00000030: f775 4940 f06b a1bf 13bc 7240 c974 6cc0
00000040: 393e 1940 17fc 78bf b38d 5b40 615e 3a40
00000050: 1ce7 f1c0 cbd0 21bf 31c2 3240 90ed 3740
-0.8454185 3.7580051 3.7261062 3.4725068 -0.53070474 2.995905 -7.389929 0.20656621
3.8129692 5.232811 -0.09648219 -4.389286 3.147825 -1.2611065 3.7927291 -3.694628
2.3944228 -0.9725966 3.4305236 2.9120104 -7.5594616 -0.6320922 2.7931025 2.8738747

sequential/model/expanded_conv_depthwise_BN/FusedBatchNormV3 f4 [24]
00000000: 90be 88bf cfd1 3c40 d0fe 90be 6ec3 fc3f
00000010: 91d3 e6be 545c 9a3e adad 9cbf 00bb 653b
00000020: 3dd8 1d40 d023 ae40 5c86 9fbe 7c47 a9be
00000030: 88b1 ed3e f46a 903d e38f 6440 08c2 7abe
00000040: cecd 0e3f a21d 70be c42c 8b40 7c68 7840
00000050: 968d 7b40 8394 b7be 90c4 d93e db2c 2240
-1.0683155 2.9503057 -0.28319407 1.974714 -0.45083287 0.30148566 -1.2240502 0.0035054088
2.4663231 5.4418716 -0.31157196 -0.3306235 0.46424508 0.0705165 3.5712821 -0.2448808
0.55782783 -0.23448804 4.3492146 3.8813772 3.9305167 -0.35855493 0.42532778 2.5339878

sequential/model/block_1_expand_BN/FusedBatchNormV3 f4 [96]
00000000: f324 99be 98dd 8dbd 11ec 1240 5a59 913c
00000010: 2d75 633f 357d 3340 0138 2cbe e333 ecbd
00000020: 2f6f b03f e9be 1440 6b39 c63f 1c67 8abe
00000030: 9b11 1dbc 769d 7f3d 4af5 543f f1d0 b9bd
00000040: 07cc 213f e33c fe3f afe6 593e 402d 253f
00000050: 2b7c aebf 036b d33f 5c82 d0bd ef10 f13f
00000060: 29d5 ff3e da39 1040 7c20 0240 a72f 1040
00000070: bd7f 2c40 f266 6640 1247 e63f d59c 1abe
00000080: 9431 5d40 b703 4cbe 1372 ccbd c007 033e
00000090: 406c 9a3d 9153 3340 844b 2640 3f9c f83e
000000a0: 01ea 3f40 db77 323d 927c 5d3e 39bd 923f
000000b0: 74d4 1040 3d93 b13f 628f 753f 2c5b bc3f
000000c0: 791d 113c 446a 83bd e0f7 53bd da7b 953d
000000d0: f834 563e 201e 2e3d 8ab5 ba3e b09d 61bf
000000e0: 2a2c cdbd fec5 5540 f586 3ebe eaad 15be
000000f0: 9f11 4a40 e70e 023e 7494 84be f2ce ef3f
00000100: e73b c73d 33bf 2840 d251 aa3e 9ffe 443d
00000110: 658d 5540 79f1 1840 57fb bebd 8f37 d23f
00000120: cf8d 27bf d002 2b40 a1ff 4fbd af14 2b40
00000130: bc24 2d40 a270 d73c 83c3 703f 153d 6940
00000140: 6fd6 7f40 8e15 94bb f53a 4abd 1c0b bc3f
00000150: c06f 0abf c2e1 d13c 548b 233f 28f1 5a40
00000160: e5f8 1740 bd88 b83f f04b 2640 3677 d53e
00000170: 5e47 80bc 97d6 143e d2d4 efbe f634 123e
-0.29911003 -0.06927031 2.2956583 0.017742801 0.8885067 2.804517 -0.16818239 -0.11533334
1.378393 2.3241522 1.5486273 -0.2703179 -0.009586717 0.062406026 0.8318678 -0.090730555
0.63201946 1.9862331 0.21279405 0.6452217 -1.3631643 1.6517032 -0.10181114 1.8833293
0.49967316 2.253531 2.0332327 2.2529085 2.6952965 3.6000333 1.7990439 -0.15098889
3.456151 -0.19923292 -0.099826954 0.12795925 0.07540178 2.8019755 2.598359 0.48556706
2.9986575 0.043571334 0.21629551 1.1463996 2.262967 1.3873059 0.9592191 1.4715323
0.0088571245 -0.06416753 -0.051750064 0.072990134 0.20918643 0.0425092 0.36466628 -0.8813124
-0.10018189 3.3402095 -0.1860617 -0.14617124 3.1573255 0.12700997 -0.2589451 1.873503
0.09728222 2.6366699 0.3326555 0.048094388 3.336755 2.3897383 -0.09325283 1.6423205
-0.6545076 2.6720467 -0.050780896 2.6731374 2.705367 0.026298825 0.9404833 3.6443532
3.997463 -0.004519171 -0.049372632 1.469089 -0.54076767 0.025620345 0.6388447 3.420969
2.3745663 1.4416729 2.5983849 0.41692513 -0.01565903 0.14534985 -0.46842057 0.14278015

sequential/model/block_1_depthwise_BN/FusedBatchNormV3 f4 [96]
00000000: 243b 4640 4975 ad40 6d32 a9bd ed88 be40
00000010: 58de 9b40 c44b 64bc 2a9a 4240 00e5 c83d
00000020: 10c3 bc3e e5c4 3fbd 3203 953e 1770 bd3f
00000030: aac8 b840 bc1d 663e 0dca d2bd bd05 b13e
00000040: 33d6 18be 7fed e03d f92f c53f 4955 99be
00000050: 6a17 14c0 7533 b23d 3ac4 9940 ac1d 0140
00000060: 3da1 5abd e4c8 7540 b264 a6c0 6a63 343e
00000070: b9a3 d73e 6425 a9bf 3569 9e3e f09e 713d
00000080: d7c5 2b40 eaa8 1b40 a308 d93f 00d0 14bc
00000090: 5043 863e f3fa cf3e f310 11be 222a c53f
000000a0: 3002 403b a248 be40 c7fd 84bd 4b1f 45be
000000b0: c827 cabd 8931 f93d 2685 1a3f 018e e3bd
000000c0: 009f 893d bcfb da3f 2075 793d 8b08 be40
000000d0: 7f78 dd3f 38e5 bd3d 21a6 1a3f d46c b840
000000e0: 1098 893d 88d0 ec3c 0c35 c63f 472f 203f
000000f0: 7646 1bbe c0f6 e5bc aab2 843f 108b d8bf
00000100: 6277 b040 f024 263f 508f afbd 30fc 793d
00000110: 0866 ca3d a45f b3bc f970 0f40 6071 06bd
00000120: 9a86 bc40 6cee a7c0 8856 1c3d cbd9 f9be
00000130: 244d 0c3e 1c4c 113e f4fd ea3f 0377 a03c
00000140: 21d1 d340 200e 7f3e 208c 313e cbdb 84bd
00000150: b027 cb3f 900d 483d 6ab8 9e3f 2e1b a140
00000160: 10f9 57bf b04a a63f 8e1d 6a40 2444 da3f
00000170: 5824 ba3d 30d9 1d3d 9088 433f d00b 8e40
3.0973597 5.420567 -0.08261571 5.9542146 4.8708916 -0.01393408 3.0406594 0.09809303
0.3686757 -0.046818633 0.29104 1.4799832 5.774495 0.2247228 -0.102924444 0.3457469
-0.1492546 0.10982799 1.5405265 -0.2994788 -2.313929 0.08701221 4.8052034 2.017436
-0.053376425 3.8403864 -5.199792 0.17616048 0.42117098 -1.3214536 0.30939642 0.058989465
2.6839502 2.4321847 1.6955761 -0.009082794 0.2622323 0.40621147 -0.14166622 1.5403483
0.002929818 5.9463663 -0.06493717 -0.19250219 -0.09870869 0.12167651 0.6035942 -0.111110695
0.0671978 1.7108073 0.060902715 5.938543 1.7302397 0.09272236 0.6040974 5.7632847
0.06718457 0.02890803 1.5484939 0.6257214 -0.15163597 -0.028071761 1.0367024 -1.6917439
5.514573 0.6490011 -0.085722566 0.06103152 0.09882742 -0.021896191 2.2412703 -0.032822967
5.891431 -5.247854 0.03816846 -0.48798975 0.13701302 0.1418919 1.835875 0.019588
6.6192784 0.24907732 0.1733861 -0.06487235 1.5871487 0.04884106 1.2400029 5.034568
-0.84364414 1.2991543 3.6580539 1.7052045 0.09088963 0.038537204 0.7638025 4.438942

sequential/model/block_2_expand_BN/FusedBatchNormV3 f4 [144]
00000000: 6b9c ee3f 8096 c6be 1bce 29c0 018d ef3f
00000010: 1e77 973f ac2c 7140 f179 50bf 2fb0 93bf
00000020: bb92 013f 6ac5 e63f bb49 0140 cff3 ca3f
00000030: d80c 983f 2943 4640 5c1e 2b40 cf8c 3d3f
00000040: c3e9 c33f 0b70 08c0 7eda 0540 c870 d43f
00000050: f7cf c63f 8e0e ae3f 3398 0840 437a e13f
00000060: a1c7 9640 af93 3040 4096 fd3f becd babf
00000070: 3180 353f 68b0 753f 399d 043f 347b 1840
00000080: 075f a93e 5fde e83f 15ed 4c40 0eee 91bf
00000090: 1033 e33f ad07 793f 0ae9 76be 22ce 1140
000000a0: ebf3 673f 3084 f53f 76f4 74be 81bb 3940
000000b0: 777c efbe b32d e93f 5ea0 933f f043 b93f
000000c0: 9262 c6bf fded 563f f8ee 2ec0 6ef0 733f
000000d0: 4dda d33f f5da 663f edfd 773f 082d d63f
000000e0: 46c7 943f 1f5a ee3f 25ae e03e 1067 993f
000000f0: a182 0040 096a 353f 1e0a ab3f 1602 76be
00000100: 6758 973f 0694 c13e 0229 983f 914e 0e3f
00000110: f097 713f e86d 4440 5903 80bf 7489 3740
00000120: 1b9f 1d40 ad95 0540 2d2a ca3f 21dd 37bf
00000130: 0f11 723f bfeb 043f 29d8 4a40 8b29 463f
00000140: 55e2 3ebe 0c07 a03e 4962 eabe c565 b73f
00000150: ea49 a23f 95c3 bf3f 1afc 0040 284d e13f
00000160: f7aa d53f 8bee 2240 a755 2bc0 c2cc 193f
00000170: 56f9 903f 1ecd d2be 20f4 ca3f 924d 6e40
00000180: 7192 02c0 8399 933f 26a8 40be 12f8 1840
00000190: 46b1 2240 ccce 383f b6db d0be aa53 683f
000001a0: 6279 ff3f 8bb0 f03f e0ae 04c0 b46e 7c40
000001b0: 5bf1 063f 3957 1540 1cf4 9640 e4c7 0440
000001c0: d9eb bc3f c7f6 2f40 dcad d63f e2cd 1240
000001d0: 8514 0340 7c48 4140 e530 f03f 013f d1be
000001e0: e64e dc3f ee3c 3bbd f2d9 ca3f f2cb a33f
000001f0: cd52 a83e 168a 2bbf 563f 9f3f 9a0a cf3f
00000200: 1684 0740 0fa0 b23e a113 39bf e61f 553e
00000210: 70f1 843d 9795 f33f 36d6 85bf e255 4640
00000220: a963 96bf b400 fa3e f0b9 ad40 65c7 9940
00000230: ad38 123f 9c4e 12bf b793 043e 22de 3640
1.8641485 -0.38786697 -2.6532047 1.8714906 1.1833227 3.7683516 -0.8143607 -1.1538142
0.5061452 1.8028996 2.0201252 1.5855654 1.187892 3.0978491 2.673728 0.7404298
1.5305713 -2.1318386 2.0914607 1.6596918 1.5532216 1.3598192 2.1342895 1.7615436
4.711869 2.759014 1.9811478 -1.4594038 0.7089873 0.959723 0.518024 2.3825197
0.33080313 1.8192862 3.2019703 -1.1400774 1.7749958 0.9727734 -0.24112335 2.2782063
0.90606564 1.9180965 -0.2392138 2.9020693 -0.46774647 1.8217071 1.1533315 1.4473858
-1.5498831 0.8395689 -2.7333355 0.9528874 1.6550995 0.9017785 0.96871835 1.6732492
1.1623313 1.8621253 0.43882862 1.1984577 2.007973 0.7086492 1.3362463 -0.24024233
1.1823853 0.37808245 1.1887515 0.5558863 0.94372463 3.0692081 -1.0001022 2.8677645
2.462836 2.0872605 1.5794121 -0.7182179 0.9455728 0.5192222 3.1694434 0.7740714
-0.18641026 0.31255376 -0.4577811 1.4327933 1.2678807 1.4981562 2.015387 1.7601671
1.6692799 2.5458095 -2.6771028 0.6007806 1.1326091 -0.41172117 1.5855751 3.7234845
-2.040188 1.1531223 -0.18814144 2.390141 2.54207 0.72190547 -0.40792626 0.9075266
1.9958918 1.8803877 -2.0731735 3.9442568 0.5271203 2.3334486 4.7172985 2.0747004
1.4759475 2.749437 1.6771808 2.293816 2.0481274 3.020049 1.8764921 -0.4086838
1.7211578 -0.045712404 1.5847762 1.2796614 0.32875672 -0.6700758 1.2441204 1.617511
2.117437 0.3488774 -0.72295576 0.2081295 0.06491363 1.9030026 -1.0455997 3.0989919
-1.1749164 0.4882866 5.4289474 4.80559 0.5711773 -0.571512 0.12946974 2.857308

sequential/model/block_2_depthwise_BN/FusedBatchNormV3 f4 [144]
00000000: 81d2 a83d fcae 803d a55a dfbe 7e3a 70be
00000010: b4df 4b40 0f56 3640 1506 0340 d290 c23f
00000020: a680 8cbf 6cb8 fc3c e5b9 7640 2c84 ca3e
00000030: 88ca de3d 2c21 513e ee10 e6bf c2b9 89be
00000040: bdd4 70bd f096 23c0 2577 20be 1d9c 993f
00000050: fa62 133d d77c 633e cfcc b7bd c358 8bbf
00000060: 0c60 2340 3bc8 7ec0 e09f 953b 3428 91be
00000070: 06c6 4bc0 31ee 6740 7d18 4740 5a17 bc3d
00000080: 6895 2d40 fe51 b43f a17c 89c1 e080 a940
00000090: a78a 123e baab 483d f6bb d83f e98b ba3d
000000a0: ff03 10bd 6748 0fbe 26db a73f dde5 1a3e
000000b0: 2424 a940 510f aabf c6b7 233e 13cc bfbf
000000c0: 8ac4 233f 8644 ce3f 6111 e73f 19ad 3140
000000d0: e0f6 063b 34f7 0640 93d6 3440 b880 15bd
000000e0: 80e3 c2ba 8859 abc0 e157 3a40 5c63 28bf
000000f0: 487d a5bd a2aa a83f 6c67 38c0 1003 59bf
00000100: 7e2c 373d 6cdb 6940 8caf 84be b0f0 81bf
00000110: a45e b8bc b639 a3be a0b2 1e3c 2878 3c3f
00000120: 1116 d0bf 70fb 193d 2c73 8cbe c637 90be
00000130: aaf6 e9be 0e5d e4bd daa7 9a3f 06c7 d9be
00000140: 406d 14bb 5d79 4640 3f8f d33e 0323 6cbd
00000150: 122e 5b3f ec93 efbc 740f f63e 8ebd d03c
00000160: 9888 a3bd 0049 5f3e c1d6 1a40 03ed 773f
00000170: 7ecc 5fbb 407e ff3e cc02 3240 5860 07c1
00000180: 5737 14c0 dcb1 4d3d 0066 a8bf 1e4d 35bf
00000190: 14ea f4be 8582 6d40 0e4f adbf b3d9 5f3d
000001a0: be7e a640 aaf6 7f3d d710 1c40 9dfc 7740
000001b0: c070 883c 11de 2b3f 0fc8 9e40 ec96 d83f
000001c0: 4c24 8d3f 4830 83bf 83dd 5d40 1f66 dbbe
000001d0: 1475 1fbf a12f 5a3f e92b c4be d452 4e3d
000001e0: eaf9 513f 98fb bb3f 40e2 a53c 9e93 06be
000001f0: dc98 b43f 5c25 4140 b67e cf3e cc9f 99be
00000200: 28cc f43e 2fec bebf 2910 1540 3ab1 0b40
00000210: 08ba 3440 44ea 16bd bce8 323f 128a a53e
00000220: f856 42bd 9194 c03f 34ea f9be c4ac 5740
00000230: 0eb9 55c0 25e1 95ba 4f35 8340 7052 6cbe
0.082432754 0.062833756 -0.43623844 -0.23459813 3.1855288 2.8490026 2.0472462 1.5200446
-1.097676 0.030849658 3.855096 0.39553964 0.108784735 0.2042281 -1.7973917 -0.26899534
-0.058796633 -2.5560875 -0.1567045 1.2000767 0.035983063 0.22215591 -0.08974611 -1.0886463
2.5527372 -3.980971 0.0045661777 -0.28350985 -3.1839614 3.623913 3.1108696 0.091841415
2.712244 1.4087522 -17.185854 5.296982 0.14310704 0.048991896 1.6932361 0.09108717
-0.03516006 -0.13992463 1.3113754 0.15126748 5.2856617 -1.3285924 0.15988073 -1.4984154
0.6397177 1.6114662 1.8052179 2.77619 0.0020593926 2.108838 2.8255966 -0.03649971
-0.0014868826 -5.354679 2.9116137 -0.6577661 -0.08080536 1.3177073 -2.8813124 -0.847703
0.044720165 3.6540174 -0.25915182 -1.0151577 -0.022506066 -0.31879967 0.009686142 0.73620844
-1.6256734 0.037593305 -0.2743162 -0.28167552 -0.45696002 -0.11150561 1.2082474 -0.42534655
-0.0022648126 3.1011574 0.41320226 -0.057650577 0.8561717 -0.02924534 0.48058665 0.025481012
-0.079850376 0.21805191 2.4193575 0.96846026 -0.0034148986 0.4990101 2.7814207 -8.461021
-2.3158777 0.050218448 -1.3156128 -0.70820796 -0.47834837 3.7110913 -1.353975 0.054650974
5.2029715 0.062491097 2.4385278 3.8747933 0.016655326 0.6713572 4.961921 1.6921058
1.1026702 -1.0249109 3.466645 -0.4285135 -0.6228802 0.85228926 -0.3831475 0.05037196
0.82021964 1.4686155 0.020249486 -0.13142249 1.4109149 3.0179052 0.4052636 -0.30004728
0.4781201 -1.4915828 2.3291113 2.182692 2.8238544 -0.036844507 0.69886374 0.32331902
-0.04744622 1.5045339 -0.48811495 3.3699198 -3.3394198 -0.0011434896 4.1002574 -0.23078322

sequential/model/block_3_expand_BN/FusedBatchNormV3 f4 [144]
00000000: f85b dd3d 64d1 a040 e4ff 6d3f 73b3 ee3e
00000010: e1b2 f63e 553e 9bbf 0eb8 643f 7a54 80bf
00000020: b9ec f4bf a99a 0340 d91f afbf 7f12 0540
00000030: a662 f2bd 64b4 4abf 1cf1 e13f 84f6 d13f
00000040: 19d1 bbbe c06e e33f 3f7a 1540 5bbc 9f3e
00000050: 06e2 c43f 4bf4 4040 2b13 87bf 5f75 f63f
00000060: 384f 2cbf e635 0a40 2f6c 51be 876c edbd
00000070: c900 0340 e6fb 1540 ca5a 0840 e5f1 c33f
00000080: 3981 45c0 3f77 99bf 4a77 953f 31c7 19c0
00000090: 2157 843f 5957 123f 08d8 0bbf 1b30 5f40
000000a0: b62f aabe ada5 b3bf d514 663f c2e5 993f
000000b0: 72d7 e63f f6a5 8f3e 89ca 2cbf 4f8f be3f
000000c0: 8cbe 843e fa3e 253d b5d3 49bf 2b81 72be
000000d0: 201e c43d 55de 4b40 a450 b6bf 88f1 943f
000000e0: 08f3 f640 fd8e 0b40 ab57 7cbf 93d4 c3be
000000f0: 5d6f 50bf 5699 c03f 596b b43f 7912 a0be
00000100: a516 1540 b94a 5bbf 9722 f93e 2513 aebe
00000110: 6665 193d 6cea e63f b595 c13c 6870 9abf
00000120: ca17 36bf ede3 54bf c284 cb3f d9ba 0840
00000130: ccb3 a7bf e42b ac3f d1a6 873f 8d72 be3f
00000140: e309 df3f 8c37 103f 17ce 913f 3f7c c5bf
00000150: 43f8 3cbe 3afc b83d 0a8a da3f 9081 1cc0
00000160: 0760 03bc f790 7dbe d5ac e93f f319 243f
00000170: 73e2 813f e41d 0e40 3707 05be 9e70 b03f
00000180: 236a c7be 8710 74be 241a 733f 3c4b 873e
00000190: 81e7 f3bf c7e7 a83d 8099 c1bd 7d1c e3bf
000001a0: 73dd 4dbf 946c a7bd b64e 203d 7b1a fe3f
000001b0: 5cc2 0040 6d71 9b40 3e76 b23e dfd0 b8bd
000001c0: 8442 1240 09f4 c0bf 54e2 0f3e 9c6c 48be
000001d0: d960 e13d e926 54bf 75bf da3e 9ffa b63f
000001e0: 1586 8fbf b23e f33f b69e 8abf aeb1 59bd
000001f0: ef42 a6be 303f 1d40 730d 09c0 b523 c5be
00000200: 0069 5f3f 482c 3940 e418 c03f 6889 103e
00000210: cd06 2f3e 0959 813f e30f 053f 55c0 173f
00000220: b584 893f 519d 1bbf 0634 1abe 6661 b6be
00000230: c84c eebe 64ae 963e bd63 82be f639 f63f
0.10808557 5.0255604 0.92968583 0.46621284 0.4818335 -1.2128397 0.89343345 -1.002578
-1.9134742 2.0563147 -1.3681594 2.079254 -0.11835222 -0.79181504 1.7651706 1.6403356
-0.36682966 1.7768173 2.3355863 0.3119839 1.5381477 3.0149105 -1.0552725 1.9254569
-0.6730838 2.1595397 -0.20451425 -0.115929656 2.046923 2.3434997 2.1305413 1.5308195
-3.0860121 -1.1989516 1.1677029 -2.4027827 1.033909 0.5716453 -0.5462651 3.4873111
-0.33239526 -1.4034935 0.8987554 1.2023242 1.8034499 0.28056306 -0.67496544 1.4887484
0.25926626 0.040343262 -0.78838664 -0.23682086 0.095760584 3.185445 -1.424336 1.163621
7.717167 2.1806023 -0.9857127 -0.3824812 -0.81419927 1.5046794 1.409526 -0.31264094
2.329507 -0.8566089 0.48659202 -0.3399898 0.037450217 1.804029 0.023630956 -1.2065554
-0.7113005 -0.8316029 1.589989 2.1364043 -1.3101745 1.3450894 1.0597783 1.4878708
1.7424892 0.5633476 1.1391019 -1.5428542 -0.1845408 0.090324834 1.7073376 -2.4454079
-0.0080185 -0.24762331 1.8255869 0.64102095 1.0147232 2.2205744 -0.12991033 1.3784368
-0.38948163 -0.2383443 0.9496176 0.26424587 -1.9055024 0.08247333 -0.09453106 -1.7743069
-0.8041603 -0.081750065 0.039137565 1.9851831 2.0118628 4.857596 0.34855837 -0.09024214
2.2853098 -1.5074474 0.14051181 -0.19572681 0.110048 -0.8287187 0.42724195 1.4295233
-1.1212794 1.9003508 -1.0829685 -0.053147964 -0.3247294 2.4569817 -2.1414459 -0.38503805
0.8726959 2.8933277 1.5007596 0.14114916 0.17092438 1.0105296 0.51977366 0.5927785
1.0743624 -0.6078692 -0.15058908 -0.35621184 -0.46542954 0.29429924 -0.2546672 1.9236438

sequential/model/block_3_depthwise_BN/FusedBatchNormV3 f4 [144]
00000000: f85e bf3f ac24 9740 3c78 af3f dd37 0b40
00000010: 1037 f53d 006f 85bd e831 693e 58e2 08bd
00000020: c8ae 0e3f b839 053e fc52 c13d 049d 31bd
00000030: fcd6 0ebe 913a 3c3f e1f1 cf3f 0493 9c3d
00000040: 3ece b840 dcb3 2e40 a13d 9dbf ad46 a8bd
00000050: 85ef f73e 4f2c ddbe c084 c2bc 78d7 b5bf
00000060: ecfc 4c3f 149c d6be 008c ae3a e061 523d
00000070: a007 dbbe dc83 3840 fa21 1c40 ec60 0a40
00000080: 0095 f03b 0060 6b39 50cb 77bc 207e 02bc
00000090: 006d 703d a99d e63f 000c 7dbb bddf 2c40
000000a0: 2e44 cf3f 9ebf a8be ecc3 0ebf 00cc d53c
000000b0: 2956 1abf 3b5b 1540 b638 cf3f 63d8 1abe
000000c0: ac10 a940 1022 d73f 8c2a 0bbe 7968 b83f
000000d0: b8e0 aabd 96c0 1340 e09a 18bc 3ccf d23f
000000e0: 5bcc ea40 733b ef3f 721c 4e3f a4e9 233f
000000f0: 2e5d 2fbf 4a4f 44bf 8ec6 d63f 8030 0c40
00000100: 1e41 67bf 204f a0bc e00b a940 1eb4 f83f
00000110: b04a 2b3d ca46 0e40 f4b9 0d40 c496 2e3f
00000120: 00f4 2a3d 0762 1240 1e4f 2040 606b 563c
00000130: 301d 883d 60ff b93e 50d7 37bd cf30 2040
00000140: 85f1 bc3f d583 1040 32ba 44bd 00aa 8ebb
00000150: 6dfa 1340 0085 e6bb 0083 a5bd 802f 703b
00000160: 590b 0240 119c b740 f4e0 013f c62c e33f
00000170: 8a4c a93f 26f4 2dbf 80bd f0bb 7044 e83d
00000180: 0027 153b 80d2 953c fc53 41bf 0c3e 403e
00000190: 28ed f63d ecb2 b040 78a9 2a3e 60c4 80bb
000001a0: c8cf b33f d057 243d 989e 1dbe 233c 70be
000001b0: ecba e240 52c5 cd40 a886 d9bd 02ca 88b9
000001c0: fa1e 0241 e0a4 b4ba 3ccc 5fbe 0221 873f
000001d0: 00a0 ee3c c8de 6f3d b254 b03f b065 d1be
000001e0: 5a66 1f3f 4308 0440 a0d8 1b3d 0099 f039
000001f0: 40b7 8f3d 8454 f73f 00c8 fdba c683 10be
00000200: 48d5 0440 f8f2 5040 5cdf 6fbf e02f 043e
00000210: f092 89bd 80d4 483c 005c e33c 2496 8d3e
00000220: 30cb f4bb 646f 163e b4e0 6bbf 8087 393c
00000230: 303d 56bd 46a4 ec3f 0060 883c 20dc 27bf
1.4950857 4.7232265 1.3708568 2.1752846 0.11973393 -0.06515312 0.22772944 -0.033418983
0.55735445 0.13010299 0.09439656 -0.043362632 -0.13949198 0.73526865 1.624569 0.076452285
5.775176 2.7297277 -1.2284433 -0.08216605 0.48424926 -0.43197867 -0.02374494 -1.4206381
0.8007343 -0.41915953 0.001331687 0.051362872 -0.42779255 2.883048 2.4395738 2.1621656
0.007341981 0.00022447109 -0.015124157 -0.007964641 0.0586977 1.8016864 -0.003861189 2.701156
1.6192682 -0.32958692 -0.55767703 0.026098251 -0.6028772 2.3336933 1.6189182 -0.15121607
5.283285 1.680727 -0.13590449 1.4406883 -0.08343643 2.3086295 -0.009314269 1.6469493
7.3374457 1.8690017 0.80512154 0.6402838 -0.68501556 -0.76683486 1.6779344 2.1904602
-0.90333736 -0.01956898 5.2826996 1.9429967 0.041819274 2.2230706 2.2144747 0.681988
0.041736603 2.287233 2.504829 0.013087124 0.06646192 0.36327648 -0.044883072 2.502979
1.4761206 2.2580464 -0.048029132 -0.0043537617 2.3121598 -0.007034898 -0.08081627 0.0036649406
2.0319426 5.737801 0.50733876 1.7748039 1.3226483 -0.67950666 -0.007346809 0.113411784
0.0022758842 0.01828885 -0.75518775 0.18773669 0.12056953 5.521841 0.1666621 -0.0039296597
1.4047785 0.040122807 -0.1539253 -0.2346044 7.0853176 6.430337 -0.10621387 -0.0002609045
8.132563 -0.0013782047 -0.21855253 1.0556948 0.029129028 0.05856207 1.3775847 -0.40897894
0.6226555 2.0630043 0.038048387 0.0004589036 0.07017374 1.9322667 -0.0019361973 -0.14112768
2.0755177 3.2648296 -0.93700194 0.12908888 -0.06717479 0.012257695 0.02775383 0.2765361
-0.007470511 0.1469093 -0.92139745 0.01132381 -0.052304447 1.8487632 0.016647339 -0.6557026

sequential/model/block_4_expand_BN/FusedBatchNormV3 f4 [144]
00000000: b01a a73f e86e e63f ee56 f83f 348f a53f
00000010: 1077 64bf 8e13 f43e a676 023f 13f0 953f
00000020: 308c ba3f 1cb4 353e 6a5b be3f 1745 3940
00000030: 62cb 723f 555a 0b40 d2a0 d73e c4e5 903f
00000040: c26d 65be 8586 0c40 edd2 823f 8445 9b3e
00000050: 7977 cf3e 6de0 10bf e234 f03f c663 dc3f
00000060: a403 00bf ec00 5f40 f7f5 9e3f 28d8 ba3f
00000070: e897 933f 4465 2d3f c83d d23f 29d0 fbbe
00000080: 5c5d 82bf 951e f53f 99be 4dbd 4fce 1740
00000090: 4a47 f33f a35d 88be ae34 96be 8d21 0740
000000a0: a4ba 8d3f 5c19 d73f ed05 d23f b562 c13e
000000b0: 5049 1140 9807 393f 4218 5dbc a2cb c1be
000000c0: b576 a73f 3b83 aebf 9de5 23bf 666d 0840
000000d0: daeb db3f 0fb3 ed3e 70db af3f ec7f d43e
000000e0: 4de4 c93e 125e da3f d45a a33f 5702 98bf
000000f0: a43d 0a40 519e b83f da5c 43bf 6c0c c5be
00000100: 7f43 ef3f 97d0 da3f 8906 6a3e 287a 3840
00000110: 514a 4f3f 2618 be3f 29e5 0cbf 102f da3f
00000120: 5cf8 b23f ea49 c33f a139 5a3d cf33 1c40
00000130: d8df 833f 1347 f23d 04ca 803f 4b33 7e3f
00000140: b0c5 693f 85ad 1740 4c06 1f40 4c22 913f
00000150: d916 c43f 1b60 753f ec7e fc3f 36c2 d23f
00000160: b813 a83f b892 0ebf c0bc 3040 edd9 c43f
00000170: e01b c93f 9320 9dbf 5ce6 ae3e 015d e63f
00000180: 6cae e13f 8e05 ee3d cf25 7c3f bbac a63f
00000190: c221 ca3f 9fa0 f33f 3fd0 313f e8dd dbbe
000001a0: a2e7 153f 55e4 ae3f 9379 73bf b55e 1140
000001b0: d5b5 2840 e62d 0b40 0f36 a83f 8ca1 aa3f
000001c0: ae64 91bf d2c2 ab3f aeca a53e 6185 c53f
000001d0: e4e6 8c3f 2c93 933f e1d2 0dbd af3e 95bd
000001e0: d543 bf3f a4e1 2f40 8c4e 513f 8ba6 3abf
000001f0: fc8f 243e 6949 9b3f 6e86 1d3f 928e 703f
00000200: b7f6 ae3f afe0 fd3f 3650 9e3f 8439 0040
00000210: 0a51 973f 042b 0e3f cb3c 8a3f 1574 9f3f
00000220: 506d d33f 1de0 b83f 7b9f 2d3e 758f 0040
00000230: 5c8d 0f3f 0549 c03e 23bb bb3f 4b1b b73f
1.3055019 1.8002596 1.9401529 1.2934327 -0.89244175 0.4767117 0.50962293 1.171389
1.4574032 0.17744488 1.4871647 2.894842 0.9484159 2.1773884 0.42114884 1.1320119
-0.2240515 2.1957104 1.022062 0.30326474 0.40520838 -0.56592447 1.8766139 1.7217948
-0.50005555 3.4844313 1.2418813 1.4597216 1.1530733 0.67732644 1.6425104 -0.4918225
-1.0184741 1.9149958 -0.050230596 2.371967 1.9006131 -0.2663394 -0.29337066 2.1114228
1.1072583 1.6804614 1.6408058 0.3777062 2.2700996 0.7227721 -0.013494553 -0.37850672
1.3083102 -1.3633798 -0.6402224 2.1316772 1.7181351 0.46425673 1.3738842 0.41503847
0.39431992 1.7059958 1.2762094 -1.1875714 2.1600122 1.4423314 -0.76313555 -0.3848604
1.8692473 1.7094907 0.22854055 2.8824558 0.8097277 1.485112 -0.5503717 1.7045612
1.3982043 1.5256932 0.053277615 2.4406621 1.0302687 0.118299626 1.006165 0.99297017
0.9131727 2.3699658 2.4847593 1.1338592 1.5319473 0.9584977 1.9726233 1.6465518
1.3131018 -0.55692625 2.7615204 1.5379006 1.5711632 -1.2275566 0.34160125 1.7997133
1.7631354 0.11622153 0.9849519 1.3021463 1.5791552 1.9033393 0.69458383 -0.4294274
0.5855657 1.3663431 -0.9510738 2.2714055 2.6360981 2.1746764 1.3141497 1.333055
-1.135885 1.341883 0.32381195 1.5431329 1.1007962 1.1529288 -0.034624938 -0.072873466
1.4942576 2.748147 0.8176048 -0.72910374 0.1607055 1.2131778 0.6153325 0.93967545
1.3669041 1.9834193 1.2368228 2.0035105 1.1821606 0.55534387 1.0799803 1.24573
1.6517735 1.4443394 0.16955368 2.008756 0.5607507 0.3755571 1.4666485 1.4305204

sequential/model/block_4_depthwise_BN/FusedBatchNormV3 f4 [144]
00000000: 9ecd 2540 8d27 e53d 82e9 10bf b0b5 f83d
00000010: 466a f23f 3007 873b 99d2 3e40 d808 e4be
00000020: a0d5 8dbb f0c6 2cbf 0072 31be b658 c9c0
00000030: 0798 b33f 5c4e 853f 7a1f 883e 0074 3fbb
00000040: 8b70 bebf 8c94 2340 280d 933f 364b 18bf
00000050: 00d2 e03b ad6d 5540 3070 0540 405b 36bf
00000060: defc f33f 512b 4941 003b 283b 4060 87bb
00000070: ceb2 0bbf 283b 4dc0 cca1 12be 9636 6e3f
00000080: ea09 843f 51c7 c73f 98d9 b0be 209f f9bc
00000090: 0858 31be 62a4 50c0 7f21 4c40 ac3e 803d
000000a0: e4f0 5640 0b47 c4bf 26ee 06bf 3865 8c3f
000000b0: 5282 c83d 00b4 e339 e142 efbf 5284 45c0
000000c0: b830 3abd b406 453f f849 c3bf 8853 0cbf
000000d0: 2cf1 32bd 847c 35be a0d2 cebc 7cbc 4bbf
000000e0: 1ac3 4ebf 1826 49be aedf 0ebe b60b 9ebf
000000f0: aa45 16be 6c95 df3e 6c99 3640 f752 fdbe
00000100: 2037 8dbd a0b8 11bd 1d19 823f 2666 7540
00000110: 0054 0dba 3254 283d 1053 a63f 4ab0 3b3f
00000120: 9959 c9be 804e e23b 00f1 2040 c65f 173e
00000130: b880 97bd 4a29 5cc0 aee2 f1bd b411 a0bf
00000140: 1078 553d 383e 083e 6c07 16bf fd26 71c0
00000150: 29c2 bb3e 9a5d 49be 903f d13b f0fe 4abd
00000160: df95 0dbd b463 2ac0 4db0 4240 1c21 7c40
00000170: 3aea 7abd 6042 b9bf 344b 483f d60a 24bf
00000180: 3380 ba3d cea6 2140 6810 67bd 95cc a03e
00000190: a09a 27bb b099 96bc 3300 9e3e 3d40 7bbe
000001a0: 8016 18bd 6a37 e5be a425 923f 9082 903b
000001b0: f943 e33d 158b abbd 74e2 9b3e d7d8 1fbf
000001c0: 0e4a 96bf 58b1 b4bd 01e2 7f3f a3d0 2b3e
000001d0: 6404 83bd 909c ad3b 92e3 5fbf a87b 733f
000001e0: 48c1 acbd 641d 2740 b97a 823f abbd 91bd
000001f0: 48f3 6240 08cc c6bd bad5 cabf 94db 5cc0
00000200: 2e06 913f 80a4 0d40 7140 6fc0 ac67 84bf
00000210: 6a30 a73d 3657 5e3f f420 47bd a677 e03c
00000220: 7657 d6bd 53cd 6940 4656 a5bf 7de0 c4be
00000230: d475 0a3f c782 0ec0 6416 b6be 0018 b0b8
2.5906749 0.11189184 -0.56606305 0.12144029 1.8938682 0.00412073 2.9816039 -0.44537997
-0.0043284446 -0.67491055 -0.17328644 -6.292079 1.403077 1.0414538 0.26586515 -0.0029213428
-1.4878095 2.5559416 1.148839 -0.5948976 0.0068609715 3.334819 2.0849724 -0.71232986
1.9061544 12.573075 0.0025669932 -0.004131347 -0.5456971 -3.2067356 -0.14319533 0.9305204
1.0315526 1.5607702 -0.3454101 -0.030471385 -0.17318738 -3.2600331 3.1895444 0.06261954
3.3584528 -1.533418 -0.52707136 1.096839 0.097904816 0.00043430924 -1.8692285 -3.0862012
-0.045456618 0.76963353 -1.5256948 -0.5481496 -0.04368703 -0.1772328 -0.025246918 -0.7958448
-0.8076645 -0.19643438 -0.13952515 -1.2347324 -0.14675012 0.43668687 2.8531141 -0.4947736
-0.0689528 -0.035576463 1.0163914 3.8343596 -0.000539124 0.04109592 1.2994099 0.7331587
-0.3932617 0.0069063306 2.5147095 0.14782628 -0.07397598 -3.44002 -0.11810814 -1.2505403
0.052116454 0.13304985 -0.58605075 -3.7680047 0.3667157 -0.19664612 0.006385751 -0.049559534
-0.034566756 -2.6623354 3.0420105 3.9395208 -0.061258532 -1.4473381 0.7823975 -0.64079034
0.09106483 2.525806 -0.05641213 0.31406084 -0.0025574341 -0.01838383 0.30859527 -0.24536224
-0.037130833 -0.4476884 1.1417737 0.0044100955 0.11096949 -0.08376137 0.30446208 -0.62440246
-1.174135 -0.08822888 0.9995423 0.16778807 -0.06397322 0.0052982047 -0.8745662 0.9511056
-0.08435303 2.6111689 1.0193702 -0.071162544 3.5460987 -0.097068846 -1.5846474 -3.450902
1.1330011 2.2131653 -3.7383082 -1.0344138 0.08163531 0.86851823 -0.04861541 0.027400803
-0.104659006 3.653157 -1.2916954 -0.3845252 0.5408604 -2.226732 -0.35563958 -8.396804e-05

sequential/model/block_5_expand_BN/FusedBatchNormV3 f4 [144]
00000000: 59a9 a53f 1bc6 84bf 3fae ef3e 5034 c83f
00000010: 6a09 f63e c46a e8bd 7898 cd3f 665f ffbc
00000020: c165 b0be fd34 c33e 984b 07bf d46d 9b3f
00000030: b815 a23f 7070 a73f 3865 55bf da8b 653f
00000040: 1976 a83f a4a7 8d3f f0e7 0040 251d b93f
00000050: a1b2 c53f e4ad 7e3f 40c6 c83f d7a2 333f
00000060: 9eb1 07bf f2c9 843e 40f1 12be 2d2c a73f
00000070: 27f7 a83f 07db d43f bdf9 bd3f 80fe f9be
00000080: 52ce 633f 7a2b 42bf 0993 82bf df07 673d
00000090: 76f0 483f bc1a 693f 8038 9ebe e9d7 fa3f
000000a0: bf99 c83f 2735 d63f dcb0 833f ed9c a13f
000000b0: a4b8 5ebf cbaf d43c 3fb6 083f ee4a 2d3f
000000c0: 9298 eb3f 8dc4 b23f d488 ba3f 7fdf a73f
000000d0: fbbc 7e3f 7e2c af3f 15d0 663f a602 36bf
000000e0: e8e9 53bf 093b 533f 8e15 1740 9f61 ce3f
000000f0: 03b1 eb3f 47e4 4cbf 723b a73f 49ef c93f
00000100: fb91 ae3f aaec b23f e0d0 9f3f be10 9c3f
00000110: 0c92 953f 274a 5e3f 51d2 d63f b11a 693e
00000120: 9831 d53f 6d3e b73f dee5 5d3e af29 ddbf
00000130: 5ccb 623f 9914 e43f f6ee b83f 6bf0 703f
00000140: caca 2e3f 6a0d b7bf 56e1 523f d4ed 92bf
00000150: a6dc 21bf cd41 96be 9d02 d43f bd2e d2bd
00000160: 2f1e 2840 d97e ca3f d1cb 53bf 1161 ca3f
00000170: f1c0 78bf a5b9 1a40 80d4 ab3f c314 e13f
00000180: e0d1 1240 dbdf 013f 11eb 34bf e30d c63f
00000190: 3d1a ce3f 03bc bb3f 0763 5ebf f44b 8b3f
000001a0: e24e b03f 1e63 b23f fa6a 873e 3301 fb3f
000001b0: c210 9a3f 621f cabe 726c cc3e fd71 24be
000001c0: 55d8 893f 704c 0b40 72e3 4dbe c3f9 8fbe
000001d0: c78a ab3d 8dbf ca3f cf9e 2040 0649 bf3f
000001e0: 7c46 fc3e 57bb 803f c2f5 953f 15c7 d53f
000001f0: e9ec a83f ad42 2b3f 4059 52bf 01fc 36be
00000200: 2352 7bbf 59b5 f23e 3b19 9d3f 645c bf3f
00000210: 8756 643f e4ca 773f d483 bb3f d1ee 7e3f
00000220: a140 72be dd5d 2240 44f1 f23f 9156 17bf
00000230: 9dcd 4d3f db6f e2be 8985 753f 4328 6dbf
1.2942306 -1.0372957 0.46812627 1.5640965 0.48054057 -0.11348489 1.6062155 -0.03117342
-0.34452632 0.38126364 -0.5284972 1.2142892 1.2662878 1.3081188 -0.8335757 0.8966652
1.316104 1.1066785 2.0141563 1.4462019 1.5445138 0.99484086 1.5685501 0.7017035
-0.530054 0.25935322 -0.14349842 1.3060356 1.3200425 1.6629342 1.4841839 -0.4882698
0.88986695 -0.7584759 -1.0201122 0.05640399 0.78491914 0.9105642 -0.3090248 1.959714
1.567192 1.6734971 1.0288348 1.2626015 -0.8700049 0.02596273 0.53403085 0.6769246
1.8405936 1.3966233 1.4573007 1.311508 0.9950711 1.3685453 0.9016126 -0.7109779
-0.8277879 0.82511955 2.3606906 1.6123542 1.8413395 -0.80035824 1.3065016 1.5776149
1.36383 1.3978474 1.2485619 1.2192609 1.1685195 0.868319 1.6782933 0.22764088
1.665576 1.4315926 0.21669719 -1.7278346 0.8859155 1.7818786 1.4447925 0.9411685
0.6827818 -1.4300969 0.82375085 -1.1478829 -0.6322731 -0.29347077 1.6563298 -0.10262821
2.6268423 1.5819961 -0.82732874 1.5810872 -0.97169405 2.4175808 1.3424225 1.7584461
2.2940598 0.507322 -0.7067118 1.5472988 1.6101757 1.4666752 -0.86869854 1.0882554
1.3774073 1.3936498 0.26448804 1.9609741 1.2036364 -0.39477068 0.39926487 -0.16059108
1.0769144 2.1765404 -0.20106295 -0.2812024 0.08376079 1.5839707 2.509693 1.494416
0.49272525 1.0057172 1.1715624 1.670138 1.3197299 0.66898614 -0.82167435 -0.1786957
-0.98172206 0.47403982 1.2273325 1.495007 0.8919453 0.9679396 1.4649606 0.99583155
-0.23657466 2.536979 1.8979878 -0.59116465 0.80391866 -0.44225964 0.95906883 -0.9263956

sequential/model/block_5_depthwise_BN/FusedBatchNormV3 f4 [144]
00000000: b67b f5be 4338 01c0 99c4 05be 7a18 3ebe
00000010: 8ce0 b23f 0927 0b40 63f1 82bf 00bb 3740
00000020: c093 b1bb cbdb 3ebf f048 d0bd b926 e3be
00000030: daaf 4b40 522a ed3f 76de 6fbe 935a 1abe
00000040: 3efa 91be 5124 803f 540c 79bf 3081 30be
00000050: d2f1 25bd 4028 92be 55dc 5bbe f03b f7bc
00000060: ab41 3abf 3e6e c23f b602 66bf 1ee4 ddbf
00000070: 3784 39bf 0f0b 863f 53cf 93be 80f0 0abf
00000080: e125 df3f eacf 33bf 516c 1240 7e71 2bbf
00000090: 1097 8dbd 1854 57bf aa1e 02bf 0cbf cf3e
000000a0: 6aaa febe 76bf ac3f 588d d2bf 3167 0ebf
000000b0: 7d09 eebf 5601 043e 6dfa 743f b9ab e0bd
000000c0: f1a1 6440 1670 0340 ee3b 803f 492d b6bd
000000d0: b4d6 35bf f05a f03f 765c a53f 6664 5c3f
000000e0: 0098 6fba 2bfe 8fbf 9d1b 2e40 26d0 0b40
000000f0: 9b57 f1bd 22d5 eabf 3b9f 4bc0 48e6 72bf
00000100: 5430 69be 10b0 9d3c c0be 95bf 811d eb3d
00000110: c9d6 283e 80db 953c 1cbe 7f3e dd38 6a40
00000120: faf6 29bf 2a95 2ebe f8e9 973f 11ba 7fbf
00000130: 12f1 75bf fc9a cfbf d5b4 b3be 008d 1640
00000140: 0084 88bc 4035 c2bf d5c4 b93f ce9d cfbf
00000150: b8d5 6240 0014 3b3a 9779 81c0 0b70 883f
00000160: d9fa 6940 d526 09bf b090 4740 adc8 5bbe
00000170: 62e0 41c0 a456 583f 2f5c eebf 5cca 0e40
00000180: 8afc 4fc0 6380 9f3f 4491 87bf d4ee 99be
00000190: a09d 383d 30b1 febc 0c72 b9bf 1e3d 5ec0
000001a0: 12c8 c93f 23af 07bc 0637 683f ddc5 d23d
000001b0: 80c4 003c ceea b9bf 4474 28be 2b27 a2bf
000001c0: f3b4 c8be 8bf0 7040 a11f 3540 e058 10bd
000001d0: 107f 8abf d204 85be 6921 9abf b6ac 913e
000001e0: e040 9b3b 9277 b43f 628b 93bc f8e8 1cbe
000001f0: 06ec 93be 73fe 923f 9507 35c0 6787 8dbf
00000200: 388f 2fc0 78a2 c1bf 222e c3bf 3bb8 5840
00000210: 5f9d a43f 6800 3abe 544b 9c3d 38ee e83e
00000220: a43f 4e3f 84e9 0abf e0e9 df3d ba37 50be
00000230: 00e3 1d3a d89a 6840 5183 f63f 2812 2240
-0.47945946 -2.019059 -0.13063277 -0.18564025 1.3974776 2.1742575 -1.0229915 2.8707886
-0.0054192245 -0.7455413 -0.10170162 -0.4436548 3.1826081 1.852854 -0.23424706 -0.15073614
-0.28511232 1.0011083 -0.97284436 -0.17236781 -0.04051382 -0.28546333 -0.21470769 -0.030179948
-0.7275645 1.5189893 -0.89847887 -1.7335241 -0.7246737 1.0472125 -0.28869113 -0.54273224
1.7433435 -0.70239127 2.287861 -0.6697005 -0.069135785 -0.8411269 -0.5082804 0.40575445
-0.4973939 1.3495929 -1.6449385 -0.5562621 -1.8596646 0.12891135 0.9569462 -0.109702535
3.572384 2.0537162 1.0018289 -0.08895356 -0.71030736 1.8777752 1.2918842 0.86090696
-0.0009139776 -1.1249441 2.7204354 2.1845794 -0.117842875 -1.8346293 -3.1815937 -0.9488263
-0.22772342 0.019248992 -1.1698837 0.11480237 0.16488184 0.018293142 0.24974865 3.6597207
-0.6639248 -0.17049089 1.1868277 -0.9989329 -0.9607097 -1.6219172 -0.350989 2.352356
-0.016664505 -1.5172501 1.4513193 -1.6220033 3.5442944 0.0007136464 -4.0460925 1.0659193
3.6559355 -0.5357488 3.118206 -0.2146327 -3.0293202 0.84507203 -1.8621882 2.231101
-3.2497888 1.2461056 -1.0591207 -0.30065024 0.045072198 -0.031090349 -1.4487929 -3.4724803
1.5764182 -0.008281502 0.9070896 0.10291646 0.007859349 -1.4524782 -0.16450602 -1.2668203
-0.39200553 3.7646816 2.8300555 -0.035241008 -1.0820026 -0.2598024 -1.2041446 0.2845208
0.0047379583 1.409899 -0.018010799 -0.15323246 -0.2889101 1.1483902 -2.8285878 -1.1056947
-2.7431164 -1.5127707 -1.5248454 3.3862445 1.2860526 -0.18164217 0.07631555 0.45494246
0.8056586 -0.54262567 0.1093328 -0.20333758 0.00060229003 3.634451 1.9258825 2.5323582

sequential/model/block_6_expand_BN/FusedBatchNormV3 f4 [144]
00000000: 7c30 32bf cab0 a43f 15a2 a73f 4195 b23f
00000010: 7cdf 7bbf 3f0b a83f ad37 bdbe bcee edbe
00000020: 63ed 703e 2e18 cc3e b70a 79bf 6e0f e83f
00000030: bc56 1f3e 6814 b93e fd9a 97bf 9d03 a43f
00000040: 8e68 f73f e64e 0dbf d664 d23d 4fe2 da3e
00000050: 786a bc3f 74f0 643d c475 59bf 1923 f33f
00000060: a7c2 633f 0eeb 84bf f6a8 d93f c03f 373f
00000070: eb05 f1be 1a7a 21bf d4f0 bc3f 2059 47bf
00000080: 2b73 a1bf c282 33bf c9d5 4dbf ebf6 913d
00000090: b735 3b3f 0e63 9d3f fa57 b3bf 7f1d ab3c
000000a0: 77cd 023f 5017 333e d1ae 053f 32d2 02bf
000000b0: fd7b 163f 2302 a13f 51c6 a33f ac45 a8bf
000000c0: 16d3 12be 87a7 ea3f f2a9 40bf 5a70 84bd
000000d0: 61f3 90be 6535 e5bf aeb8 c63e 70ae d03e
000000e0: f18d 8bbe 21d0 cc3f b0f0 003f ca58 0040
000000f0: 32d4 883e a2a6 6f3f 1980 d83f fe29 a2be
00000100: f4ed 9f3f ca5c 893f 33da 33bf 2fc2 ff3d
00000110: 2d51 003f b9ac ba3f 876a 8c3f 95f7 873f
00000120: 1123 4b3f c46e d23f 269c e9be 8b83 7bbf
00000130: 86ee 4bbf 1d0e eabe 45ad 5e3f 1724 26be
00000140: 69dd aa3f 037f fc3f 4896 1d40 bd42 753e
00000150: 5e57 653f 8f40 2340 8103 e83e f8dd 55bf
00000160: a05c c93f e3b1 c23f b003 ce3d 421a 6b3f
00000170: 5177 983f 1bc5 6cbf c567 7dbf 201c a93f
00000180: da1b 0ec0 1ac1 98bf 4cb3 1940 40cd 6d3f
00000190: 6a1a 9d3f b089 1fbf c4db 7bbd 0f33 9d3f
000001a0: a942 81be 672a 0bbe 3ae8 d83f 4034 cb3f
000001b0: 03e2 3bbf 24c5 ed3f 88e4 25bf cf7b cc3f
000001c0: 70b0 0240 6812 0d40 adc7 163f 4cc6 2bbf
000001d0: a265 8e3f 9ee7 7b3f 601b 4c3d ffee ed3f
000001e0: 56ca 21bf d6ab 63bf f301 d1bf b576 a63d
000001f0: 7f98 31bf 707f 763f 2cdc d7be 624d a03f
00000200: 1e45 21be 1298 81be a4bb fb3f 8d93 8e3d
00000210: 6a06 ab3f 2fad 403f ecb8 87bd 0b92 833e
00000220: 7ee5 ee3e 0c6d 12bf 7ae1 9b3e bf53 41bf
00000230: 86b7 75bd 4985 a03f 750a 99bf f8c0 0dbf
-0.6960523 1.2866452 1.3096339 1.3951799 -0.98387885 1.3128432 -0.3695654 -0.46471202
0.23528056 0.39862198 -0.97281975 1.8129709 0.1556043 0.3614838 -1.1844174 1.2813603
1.9328783 -0.55198514 0.10273139 0.42750785 1.4719992 0.055893376 -0.8494532 1.8995086
0.8896889 -1.0384233 1.7004688 0.7158165 -0.47074828 -0.6307694 1.4760995 -0.7787037
-1.2613271 -0.70121396 -0.80404335 0.07127174 0.7312884 1.2295854 -1.4011223 0.020888088
0.51094764 0.17489362 0.52219874 -0.5110198 0.5878294 1.2578777 1.2794896 -1.3146262
-0.14338335 1.8332375 -0.75259316 -0.06466742 -0.28310683 -1.790692 0.38812774 0.40758085
-0.2725673 1.6001016 0.5036726 2.0054193 0.26724392 0.93613636 1.6914092 -0.31672662
1.2494493 1.0731442 -0.7025482 0.124882095 0.50123864 1.4583961 1.097001 1.0622431
0.7935038 1.6440053 -0.45626944 -0.98247594 -0.7966083 -0.45713893 0.8698314 -0.16224705
1.3348819 1.9726261 2.4622974 0.2395124 0.89586437 2.5508153 0.45315173 -0.8354182
1.5731392 1.5210537 0.10059297 0.9183694 1.1911412 -0.9248826 -0.98986465 1.3211708
-2.22045 -1.193393 2.4015684 0.9289131 1.2273686 -0.6231947 -0.06148888 1.2281207
-0.2524617 -0.13590394 1.694587 1.587532 -0.7339174 1.8575788 -0.64801836 1.5975283
2.042019 2.2042484 0.5889843 -0.6709945 1.1124766 0.98400295 0.049830794 1.8588561
-0.63199365 -0.88934076 -1.632872 0.0812811 -0.69373316 0.96288204 -0.42160165 1.2523615
-0.15749022 -0.25311333 1.9666638 0.06961737 1.3361332 0.7526426 -0.06627068 0.2569736
0.46659464 -0.5719764 0.30445462 -0.7551841 -0.059989475 1.2540675 -1.1956316 -0.5537257

sequential/batch_normalization/FusedBatchNormV3 f4 [32]
00000000: 2b64 4f40 558a fb3f 3e5b 8a3f 825b 3440
00000010: d5a1 0040 5554 f741 fcbd 9640 bf85 963f
00000020: 1271 733f 354d 4f40 9a79 873f e3f2 ea41
00000030: 26b8 f43f 1209 6c40 0197 aa3f 9c7b 813f
00000040: 063d 733f 42c4 f241 4e94 f941 8c79 de3f
00000050: 71ce 5d3f 9d2e fe41 24bf 9d3f 30a2 f341
00000060: 0752 6d3f ad9d 763f 5001 9b3f a7ba 1b3f
00000070: 4ad6 903f f571 6a3f 2836 4540 c7aa c640
3.2404888 1.965159 1.0809095 2.8180852 2.0098774 30.916178 4.7106915 1.1759566
0.95094407 3.2390873 1.0583985 29.368597 1.9118698 3.6880536 1.3327333 1.0115848
0.9501499 30.345829 31.197414 1.7380843 0.8664313 31.77276 1.2323956 30.454193
0.9270329 0.96334344 1.2109776 0.60831684 1.1315396 0.91580135 3.0814304 6.208347

sequential/batch_normalization/FusedBatchNormV31 f4 [32]
00000000: 159e a7be a9e1 4bbe e244 b6be 0040 abb9
00000010: 22de 0fbf 44bd 8dbe d239 02bf b923 edbf
00000020: c4d1 8dbf 20fa 15bf 1016 c1bf 91d1 58be
00000030: 5a2e 38bf b06a e0be 7a10 3abf 1d32 3fbf
00000040: a050 f6bf 6c2e 87be 4a21 ac3e cc23 bcbe
00000050: ba10 53bf 1d29 b8be 2587 02c0 b47c 31be
00000060: e685 7ac0 4f62 c3bf 29cf 8cbe a44e f8bf
00000070: cbcf 32bf d206 94bf 6959 71be 46fc d6be
-0.32737795 -0.19910301 -0.35599428 -0.00032663345 -0.5619832 -0.2768346 -0.50869477 -1.8526527
-1.107964 -0.58584785 -1.5084858 -0.21173693 -0.71945727 -0.43831396 -0.7268139 -0.7468584
-1.9243355 -0.26402605 0.33619148 -0.3674606 -0.824474 -0.35968867 -2.0394986 -0.17332727
-3.9144225 -1.5264376 -0.275018 -1.9398999 -0.69848317 -1.1564581 -0.23569264 -0.41989344

sequential/batch_normalization_1/FusedBatchNormV3 f4 [32]
00000000: 3026 9a40 8f59 0f40 7cd9 6b40 b8b7 7e3f
00000010: 704d e33f 6fb8 1240 6610 9140 1585 4941
00000020: 9cc3 e43f 7530 6f40 2057 e03f 367d 4740
00000030: 7341 6440 2b91 7240 3641 d73f 4167 7c40
00000040: ce25 a040 0ba4 5540 57a6 d640 a8c5 4c40
00000050: 86bf 9d40 0a52 5640 ad63 c440 9764 d940
00000060: 89d6 8040 5287 1d40 8e30 a540 ff92 e23f
00000070: 8155 8d40 689a 1840 82a6 4e40 5e22 eb3f
4.8171616 2.2398412 3.6851492 0.9949908 1.7758007 2.292507 4.533252 12.594991
1.7872195 3.7373326 1.7526588 3.1170173 3.5664947 3.7901103 1.6816776 3.943802
5.004615 3.3381374 6.707805 3.199564 4.9296293 3.3487573 6.1371675 6.793529
4.0261884 2.4613843 5.162177 1.770111 4.4166875 2.3844242 3.2289128 1.8369863

sequential/batch_normalization_1/FusedBatchNormV31 f4 [32]
00000000: 5768 34bf 18a6 1dbf be9a 28bf 7024 c9bd
00000010: 8869 5bbf a480 30bf 4289 47bf 8fe7 32bf
00000020: a0ef e9be c71d 2fbf da60 1abf 3867 2dbe
00000030: 760b 78bf 289c 2ebf ddc0 86bf c8dc 45bf
00000040: c7e6 21bf 52e0 07bf dcb4 63bf d926 3fbf
00000050: b9c4 63bf 372e 82be cc01 41bf a183 37bf
00000060: 0037 14be 8de3 82bf 4835 cd3d a0e9 9bbf
00000070: 209e 713d 507a 47bd eab7 38bf a1d3 1fbf
-0.7047171 -0.61581564 -0.6586112 -0.09821403 -0.857079 -0.6894629 -0.77943814 -0.6988458
-0.45690632 -0.6840481 -0.60304034 -0.16933906 -0.9689249 -0.68207026 -1.0527607 -0.7729001
-0.63242763 -0.5307666 -0.88947845 -0.7466865 -0.8897205 -0.25425884 -0.75393367 -0.71685225
-0.14474106 -1.0225693 0.10019928 -1.2180672 0.05898869 -0.04870063 -0.7215563 -0.62432295

sequential/model/Conv1/Conv2D f4 [24, 3, 3, 3]
00000000: 51f8 b71e 56b5 0f1f fb11 1a1f b925 3e9e
00000010: c09e b31d a6a3 781e 9e3f 859e f1e0 169c
00000020: 895a c51d b43c a59c 0e56 3b1e bb54 551e
00000030: ad1a 3b1d 5fdc af1e 21c2 031f 01ec c79d
00000040: 1326 d11d db3b b41e f778 b81d 1cce c01e
00000050: 9991 db1e 8aea b11e b732 0f1f 5eb9 201f
00000060: 295f dd1d 1188 301e 2b34 8d1e 41ee 913e
00000070: 1659 0c3f 5a52 213e 2655 c23d 3a2f 613e
00000080: 4ac4 493d 5a73 c439 b9f6 5e3d 0e71 94ba
00000090: 5a6d 5a3e f9c9 a63e 4c4b d43d 381b 49bd
000000a0: 0ee7 0abe 2b7d ab3c 585b 9f3c f452 9f3b
000000b0: cbe7 87bc d3c9 a43c a06d f83c 8d0c b63b
000000c0: 3476 233d 07d6 a43d 482e d63b c044 95bc
000000d0: 26b6 0dbb 05af 1b3c a617 5d3d 19b6 753c
000000e0: f829 83bd 57ee 163e 5ccd f7bb cd0d 0cbe
000000f0: 8315 813e 6d08 a9bb 6a85 91be ec1f b93d
00000100: b24e 063c cd1f dabd 1f5b 703e 4e85 f0bc
00000110: c5f9 67be 62fa a23d 6e45 8c3a ef47 b9bd
00000120: 4a80 103e 360a b7bb cf0f 1ebe e594 303e
00000130: 5eea 28bc 11d0 19be b583 5bbd fa1d 55ba
00000140: d456 703d 84b9 99bd 949c c43b c001 8c3d
00000150: 7c80 a4be 04bc 523d 8a51 903e b7c8 7abe
00000160: 9317 403c b280 753e 288d acbd 5af2 a63c
00000170: b9e7 8a3d f588 d5be 24b6 ab3d 7d88 b53e
00000180: d6ae 8abe c4ca c73c 1ff4 843e 91aa afbc
00000190: c32c 80bb c64a df3c 1ab5 d5bd d304 b93c
000001a0: 370c ae3d 02b3 f5bc f2a0 59bc 5b8f 453d
000001b0: 3dac 7aa0 317b 86a0 5dbc 40a0 83b7 80a0
000001c0: 5989 96a0 4e60 70a0 a798 38a0 b5f4 7aa0
000001d0: ece6 5ba0 1e1e 49a0 136f 73a0 24ef 46a0
000001e0: a856 ff9e 465c bd9f 172a 9b9f 0e5a 86a0
000001f0: fa37 86a0 1444 5aa0 1f3f 62a0 f329 4ea0
00000200: 454a 0ca0 a69f 859f b7e1 859f 3763 089e
00000210: 0b66 33a0 9955 1aa0 f315 359f 42d6 b2be
00000220: cb51 10bf 4597 1abe fed0 ddbc d116 2ebe
00000230: a55b 27bd 97ac 14bd a2a6 0abd 9acc fdbc
00000240: 5c3b 2e40 2660 9440 d3b1 d23f 721f 79bd
00000250: c515 d4bd cf8b b43c b588 183e 9b69 863e
00000260: 2df9 dd3d d045 02c0 28c6 58c0 8759 a6bf
00000270: 524c dfbd 88fe 29be dca3 12be e573 34be
00000280: 1892 a7be 9a0d 99bd 087f 26bf 81e7 8f3d
00000290: ea97 e43e 1886 09c0 056b 88bf 168d 40be
000002a0: c5c5 21bf b7fe 1b3e 69ae b53e 02f3 8bbe
000002b0: df7c 2b3e a82f 5a3d 8206 2cc0 970d 7abf
000002c0: e613 42bf 5d4a c3be 1198 503e 90f4 223d
000002d0: 9559 7bbe c2f3 383e d658 a53c 0bc9 81be
000002e0: 93f9 853e e5eb 0fbd 6140 dcbe ab99 fd3e
000002f0: 9016 a8bd cdc6 9f3f 6f95 0140 4603 453f
00000300: 3a30 1dbd 6711 e8bd ae5c a4bd ea2b a13d
00000310: f7c7 253e 308c ca3b 820e 9ebf 1bd1 0dc0
00000320: 89c7 24bf 00f0 3a3c 7233 d93d 82b0 4f3d
00000330: 941b bebd 74d4 bcbd 7e08 8bbd 94d5 eb3c
00000340: c384 2a3e 48ec 00bd 33cb 43bc 17e9 51bc
00000350: 98b6 29bd 51ee ca3c 244f 01bc 5927 123d
00000360: a2e1 e53e da46 4d3f fe4c 703e adac e73d
00000370: 9e05 3e3e a4bf d93d 3f55 80bb 7df2 90bd
00000380: 4689 323c 0195 353e f75b 293e c2a1 843d
00000390: 1640 f03b e751 b1bd 1a23 62bc 0ea6 1ebd
000003a0: defc 69bd 2a35 65bc a60c 9d3c b3ef 623d
000003b0: b8a1 493c 8d2e 80bd f215 99bd 011a b1bc
000003c0: 11c2 08bc 92cc 013d 41f2 3739 011b c13f
000003d0: d526 1f40 7d18 1a3f b8f1 11bd 62e6 10be
000003e0: 5f94 1a3d 3af3 2dbc d3d7 05bd 10f2 dd3c
000003f0: df57 b4bf 5a93 11c0 2d63 2dbf d339 d2bb
1.947858e-20 3.0431425e-20 3.262564e-20 -1.0066317e-20 4.754505e-21 1.3162852e-20 -1.4108234e-20 -4.9921567e-22
5.2239077e-21 -1.0934475e-21 9.917493e-21 1.1293648e-20 2.4763035e-21 1.8619989e-20 2.790091e-20 -5.2918884e-21
5.5361207e-21 1.9082997e-20 4.882947e-21 2.0414036e-20 2.3247745e-20 1.8837607e-20 3.0323378e-20 3.403465e-20
5.8596606e-21 9.3455e-21 1.4950532e-20 0.28502086 0.54823434 0.15754071 0.09488897 0.21990672
0.04925946 0.00037469977 0.05443451 -0.0011325197 0.21330777 0.32575968 0.10365924 -0.049098223
-0.13564703 0.020933708 0.019452736 0.0048621837 -0.01659002 0.020115769 0.03032571 0.0055556954
0.03990765 0.08048635 0.006536279 -0.01822126 -0.0021623462 0.009502177 0.05397763 0.014997029
-0.06404489 0.14739357 -0.0075623225 -0.1367714 0.25211725 -0.005158475 -0.284221 0.09039292
0.008197473 -0.10650597 0.2347226 -0.02936044 -0.22653873 0.07957913 0.0010701844 -0.09046923
0.14111438 -0.005585934 -0.15435718 0.17244299 -0.010309784 -0.15020777 -0.053592402 -0.0008129772
0.058676556 -0.075060874 0.006000111 0.06836271 -0.32129276 0.051448837 0.2818721 -0.24490629
0.0117243705 0.23974875 -0.08425361 0.020379234 0.06782479 -0.41706052 0.0838435 0.35455695
-0.27086514 0.024388678 0.259675 -0.021443637 -0.003911586 0.027257334 -0.10434933 0.022585308
0.084984235 -0.029992584 -0.013283001 0.048232418 -2.1232813e-19 -2.2782004e-19 -1.6325357e-19 -2.1805481e-19
-2.5501877e-19 -2.0360655e-19 -1.5635915e-19 -2.125679e-19 -1.8626427e-19 -1.7035327e-19 -2.0619652e-19 -1.6850377e-19
-2.7035015e-20 -8.019727e-20 -6.5714685e-20 -2.2760076e-19 -2.2737525e-19 -1.8487843e-19 -1.916383e-19 -1.7462759e-19
-1.1883035e-19 -5.659181e-20 -5.6701105e-20 -7.220297e-21 -1.5195653e-19 -1.3072629e-19 -3.8346397e-20 -0.3492909
-0.56374806 -0.15096767 -0.027077194 -0.17000891 -0.040858883 -0.036297407 -0.03385032 -0.03098135
2.722373 4.636737 1.6460518 -0.060821004 -0.10355715 0.022039322 0.148959 0.26252446
0.10838542 -2.035511 -3.3870945 -1.2996072 -0.10903229 -0.16601002 -0.1432032 -0.17622335
-0.32728648 -0.074732974 -0.65037584 0.07026578 0.4464715 -2.1488094 -1.065766 -0.1880382
-0.631924 0.15233885 0.35484627 -0.27333838 0.16746853 0.053268105 -2.6878972 -0.97676986
-0.7581161 -0.38142672 0.20370509 0.039784014 -0.24545892 0.18061736 0.020183962 -0.25348696
0.26166973 -0.035137076 -0.43017867 0.49531302 -0.082074285 1.2482544 2.0247457 0.7695812
-0.03837607 -0.11331444 -0.0802549 0.07869704 0.16189562 0.0061812624 -1.2348177 -2.2158878
-0.64366966 0.0114097595 0.106055155 0.05070544 -0.09282604 -0.0922021 -0.06788729 0.028788365
0.16652207 -0.031475335 -0.011950302 -0.012811921 -0.0414339 0.024771841 -0.007892404 0.035682056
0.44898707 0.80186236 0.2346687 0.11312232 0.1855683 0.10632256 -0.003916412 -0.07077501
0.010896986 0.17732622 0.16538988 0.06476165 0.0073318584 -0.086582 -0.013802314 -0.03873258
-0.05712592 -0.013989726 0.01917107 0.055404376 0.012306623 -0.06258879 -0.07474889 -0.021618845
-0.00834705 0.031689234 0.00017542487 1.5086366 2.486745 0.60193616 -0.03563091 -0.14150384
0.037739154 -0.010617072 -0.03267653 0.027092963 -1.4089316 -2.2746186 -0.67729455 -0.0064155846
