src/detection/AI4_softmax/model/model_quant.tflite (tflite, 59136 bytes, 21 tensors)

sequential/model/Conv1/Conv2D i1 [16, 3, 3, 1]
000000 a9 91 e1 42 da 10 1f 7f 13 6a a1 f5 81 68 17 0e
       -87 -111 -31 66 -38 16 31 127 19 106 -95 -11 -127 104 23 14
000010 ff f3 e8 fd d0 24 5f 7f f3 a1 b0 79 7f 3b 03 eb
       -1 -13 -24 -3 -48 36 95 127 -13 -95 -80 121 127 59 3 -21
000020 f2 9c 82 d5 1e cb 01 18 81 04 0b a8 f8 c3 22 fe
       -14 -100 -126 -43 30 -53 1 24 -127 4 11 -88 -8 -61 34 -2
000030 81 2a 03 a9 1e 00 ef 4f 7f cc 37 f0 db cc a7 2e
       -127 42 3 -87 30 0 -17 79 127 -52 55 -16 -37 -52 -89 46
000040 1f ed 7f 42 f0 1d ff e0 eb e1 34 c9 a8 7f e5 c2
       31 -19 127 66 -16 29 -1 -32 -21 -31 52 -55 -88 127 -27 -62
000050 60 e8 32 f2 ee 7f f0 f7 5b f6 19 57 0c db 81 e2
       96 -24 50 -14 -18 127 -16 -9 91 -10 25 87 12 -37 -127 -30
000060 0c 28 11 07 ed 09 41 a3 23 ab 7f d2 d7 31 f6 81
       12 40 17 7 -19 9 65 -93 35 -85 127 -46 -41 49 -10 -127
000070 72 06 b2 4f 05 55 19 f1 7e 6b f5 5a 7f 2d e2 e5
       114 6 -78 79 5 85 25 -15 126 107 -11 90 127 45 -30 -27
000080 30 2d 63 81 f0 ba 52 ab e5 15 83 81 11 ea b3 f6
       48 45 99 -127 -16 -70 82 -85 -27 21 -125 -127 17 -22 -77 -10

sequential/model/expanded_conv_depthwise_BN/FusedBatchNormV3;sequential/model/expanded_conv_depthwise/depthwise;sequential/model/block_5_project/Conv2D i1 [1, 3, 3, 16]
000000 02 fa 07 06 eb 0c 06 10 f8 f5 02 f4 fe f8 00 ff
       2 -6 7 6 -21 12 6 16 -8 -11 2 -12 -2 -8 0 -1
000010 07 f8 03 05 0c ff 09 e5 f6 09 fe 55 f7 14 01 ff
       7 -8 3 5 12 -1 9 -27 -10 9 -2 85 -9 20 1 -1
000020 03 fa fe 05 00 f3 fb 0a 00 02 ff f4 ff fa fb fe
       3 -6 -2 5 0 -13 -5 10 0 2 -1 -12 -1 -6 -5 -2
000030 0c f4 01 02 7f e9 81 ea 7f 7f 01 f7 6a e7 fd ec
       12 -12 1 2 127 -23 -127 -22 127 127 1 -9 106 -25 -3 -20
000040 81 7f 7f fe a7 a6 ee 99 10 96 7f 7f 7f 7f 7f 7f
       -127 127 127 -2 -89 -90 -18 -103 16 -106 127 127 127 127 127 127
000050 15 fc fb 00 f5 7f 02 f5 fc f4 fd f8 07 fb f1 f7
       21 -4 -5 0 -11 127 2 -11 -4 -12 -3 -8 7 -5 -15 -9
000060 00 fb fd f4 ed 10 35 07 f5 f8 00 ff f9 00 fa f4
       0 -5 -3 -12 -19 16 53 7 -11 -8 0 -1 -7 0 -6 -12
000070 15 f0 f8 81 06 f0 f4 7f f8 01 04 f0 f6 c6 f6 db
       21 -16 -8 -127 6 -16 -12 127 -8 1 4 -16 -10 -58 -10 -37
000080 02 fb f9 fd 00 fc ff fd ff 02 fe fe ff fa f7 f3
       2 -5 -7 -3 0 -4 -1 -3 -1 2 -2 -2 -1 -6 -9 -13

sequential/model/expanded_conv_project/Conv2D i1 [8, 1, 1, 16]
000000 f4 f1 ed bd e7 de 14 ed 26 0a de f9 6e 7f ea 95
       -12 -15 -19 -67 -25 -34 20 -19 38 10 -34 -7 110 127 -22 -107
000010 7f c3 d6 0d d2 48 bb d1 da 51 e0 cc fa 03 bf ee
       127 -61 -42 13 -46 72 -69 -47 -38 81 -32 -52 -6 3 -65 -18
000020 de a1 2b 27 31 c8 af e9 1e a4 1d 81 2e e9 b5 18
       -34 -95 43 39 49 -56 -81 -23 30 -92 29 -127 46 -23 -75 24
000030 23 0c 10 10 f3 45 ce ef 7f 2c 07 13 03 f2 08 19
       35 12 16 16 -13 69 -50 -17 127 44 7 19 3 -14 8 25
000040 a6 db ea 81 fa 26 31 88 22 ed d7 db 89 21 db eb
       -90 -37 -22 -127 -6 38 49 -120 34 -19 -41 -37 -119 33 -37 -21
000050 56 36 41 ea 32 d3 81 8a f2 b7 44 34 c8 34 3e d3
       86 54 65 -22 50 -45 -127 -118 -14 -73 68 52 -56 52 62 -45
000060 64 27 84 b8 17 b9 05 a9 d8 12 81 5c 5b a6 08 44
       100 39 -124 -72 23 -71 5 -87 -40 18 -127 92 91 -90 8 68
000070 81 fc 62 e2 bf 03 fc c1 cb 40 57 de 3e e8 1d 1f
       -127 -4 98 -30 -65 3 -4 -63 -53 64 87 -34 62 -24 29 31

sequential/model/block_1_expand/Conv2D i1 [48, 1, 1, 8]
000000 d6 1e 02 f1 ad dd 81 24 58 bf c8 c6 7f b6 64 10
       -42 30 2 -15 -83 -35 -127 36 88 -65 -56 -58 127 -74 100 16
000010 9c 7a d3 81 35 e9 e4 28 2f 13 51 09 5a 71 7f ef
       -100 122 -45 -127 53 -23 -28 40 47 19 81 9 90 113 127 -17
000020 bb 81 46 0b cb 92 05 df 7f e8 43 41 b9 f5 00 e6
       -69 -127 70 11 -53 -110 5 -33 127 -24 67 65 -71 -11 0 -26
000030 17 22 7f e5 2b df d6 1f 1f 06 81 db d6 5f 5f b2
       23 34 127 -27 43 -33 -42 31 31 6 -127 -37 -42 95 95 -78
000040 fe 7f df 04 40 75 37 39 00 7f c5 66 06 81 2f 77
       -2 127 -33 4 64 117 55 57 0 127 -59 102 6 -127 47 119
000050 04 81 fe e3 b3 88 c8 af 81 ae 6b 31 f7 bd 68 3e
       4 -127 -2 -29 -77 -120 -56 -81 -127 -82 107 49 -9 -67 104 62
000060 e4 2a 81 54 20 c7 b9 65 58 81 5a 4e 06 1e 21 c3
       -28 42 -127 84 32 -57 -71 101 88 -127 90 78 6 30 33 -61
000070 e1 55 de 81 e1 8f db c9 2b 6e 20 ef 27 c0 64 81
       -31 85 -34 -127 -31 -113 -37 -55 43 110 32 -17 39 -64 100 -127
000080 96 81 c9 64 cc 23 f4 51 ea 94 81 52 c6 49 ca 46
       -106 -127 -55 100 -52 35 -12 81 -22 -108 -127 82 -58 73 -54 70
000090 a3 b4 d9 63 f2 44 f9 7f 37 87 64 81 0d bf 21 e0
       -93 -76 -39 99 -14 68 -7 127 55 -121 100 -127 13 -65 33 -32
0000a0 ff 4c 1f 09 30 7f 4d f1 1d 72 30 de 29 bc 5e 81
       -1 76 31 9 48 127 77 -15 29 114 48 -34 41 -68 94 -127
0000b0 1b 0c 5f 11 fa 7f 1e dc a2 bb 23 bf 55 5b cb 81
       27 12 95 17 -6 127 30 -36 -94 -69 35 -65 85 91 -53 -127
0000c0 a1 a9 1d a8 6e 67 d1 81 7f 0b c5 f3 0f 1f c1 f6
       -95 -87 29 -88 110 103 -47 -127 127 11 -59 -13 15 31 -63 -10
0000d0 81 db 81 e5 c9 de 15 f9 52 23 fc be 81 e1 5b 59
       -127 -37 -127 -27 -55 -34 21 -7 82 35 -4 -66 -127 -31 91 89
0000e0 81 ab 04 2c b5 96 02 04 7e 69 28 81 1e 17 c6 9c
       -127 -85 4 44 -75 -106 2 4 126 105 40 -127 30 23 -58 -100
0000f0 ad ba 27 c0 4a 57 ce 81 34 2f 00 7f 0a b3 09 08
       -83 -70 39 -64 74 87 -50 -127 52 47 0 127 10 -77 9 8

sequential/model/block_1_depthwise_BN/FusedBatchNormV3;sequential/model/block_1_depthwise/depthwise;sequential/model/block_3_depthwise/depthwise i1 [1, 3, 3, 48]
000000 d5 b1 f5 f0 7f c5 3f cb ad b0 f1 d2 64 23 4c 82
       -43 -79 -11 -16 127 -59 63 -53 -83 -80 -15 -46 100 35 76 -126
000010 3b e6 02 d7 a2 62 04 14 f6 50 34 df 54 b6 17 d4
       59 -26 2 -41 -94 98 4 20 -10 80 52 -33 84 -74 23 -44
000020 a4 ad 2d 49 15 59 65 ba 81 f1 23 4b 2e 81 5c 53
       -92 -83 45 73 21 89 101 -70 -127 -15 35 75 46 -127 92 83
000030 c0 93 b4 37 ad 74 3c c0 be 2d 4f 97 7f 5d 7c b7
       -64 -109 -76 55 -83 116 60 -64 -66 45 79 -105 127 93 124 -73
000040 a9 ac 22 d1 b2 40 c4 6b b3 68 55 83 62 cb 01 81
       -87 -84 34 -47 -78 64 -60 107 -77 104 85 -125 98 -53 1 -127
000050 cc ab 4a 7f 64 7f 7f c8 81 c3 48 5e 53 6c 5e 46
       -52 -85 74 127 100 127 127 -56 -127 -61 72 94 83 108 94 70
000060 00 c3 c5 59 d1 e0 15 f9 58 15 31 b8 12 3b d8 fe
       0 -61 -59 89 -47 -32 21 -7 88 21 49 -72 18 59 -40 -2
000070 ac ed 21 e7 e3 03 c2 f9 bc 38 16 a2 1e 36 79 b6
       -84 -19 33 -25 -29 3 -62 -7 -68 56 22 -94 30 54 121 -74
000080 07 0d f1 35 46 52 2f fd eb 5d 40 17 22 22 13 8c
       7 13 -15 53 70 82 47 -3 -21 93 64 23 34 34 19 -116
000090 88 aa f3 b2 b3 ae 5f 99 81 81 58 b2 4e 2d 84 b2
       -120 -86 -13 -78 -77 -82 95 -103 -127 -127 88 -78 78 45 -124 -78
0000a0 7f 81 c1 b5 a5 63 d6 0e f8 62 66 d2 99 b0 08 d5
       127 -127 -63 -75 -91 99 -42 14 -8 98 102 -46 -103 -80 8 -43
0000b0 a2 81 81 43 26 62 04 a4 42 f2 42 76 4a 6d 7a 81
       -94 -127 -127 67 38 98 4 -92 66 -14 66 118 74 109 122 -127
0000c0 81 81 81 94 e4 7f 7f 81 52 45 7f 81 6a 7f 4d 81
       -127 -127 -127 -108 -28 127 127 -127 82 69 127 -127 106 127 77 -127
0000d0 3c a3 81 81 81 7f 81 7f 81 7f 7f 81 81 7f f2 86
       60 -93 -127 -127 -127 127 -127 127 -127 127 127 -127 -127 127 -14 -122
0000e0 81 94 31 7f 7f 7f fb 81 69 9e 7f 7f 7f 01 7f 64
       -127 -108 49 127 127 127 -5 -127 105 -98 127 127 127 1 127 100
0000f0 ca bd 83 7f 45 cf 2d e6 38 18 0f c5 07 40 4f ce
       -54 -67 -125 127 69 -49 45 -26 56 24 15 -59 7 64 79 -50

sequential/model/block_1_project/Conv2D i1 [8, 1, 1, 48]
000000 d4 fc 21 09 dd f1 08 05 d3 f9 bf c9 e7 c0 f5 e0
       -44 -4 33 9 -35 -15 8 5 -45 -7 -65 -55 -25 -64 -11 -32
000010 2d d9 24 2b ef 1e dc 0f 02 d9 36 f4 fa eb 10 0d
       45 -39 36 43 -17 30 -36 15 2 -39 54 -12 -6 -21 16 13
000020 52 22 24 81 13 fe f0 e0 03 ef 2c 30 23 05 19 05
       82 34 36 -127 19 -2 -16 -32 3 -17 44 48 35 5 25 5
000030 fd 24 3d df f2 2d cd e4 fe 18 f5 a4 09 55 f0 37
       -3 36 61 -33 -14 45 -51 -28 -2 24 -11 -92 9 85 -16 55
000040 eb 19 e4 c7 0d b1 ea 18 ba eb fe 8f e5 f1 1e cc
       -21 25 -28 -57 13 -79 -22 24 -70 -21 -2 -113 -27 -15 30 -52
000050 32 4f d5 ff 7f dc fa 33 de 27 af dc 6f ed db e2
       50 79 -43 -1 127 -36 -6 51 -34 39 -81 -36 111 -19 -37 -30
000060 fc e6 c0 0c fb 2f 1a 04 f6 2b ff 1b 40 a4 15 c1
       -4 -26 -64 12 -5 47 26 4 -10 43 -1 27 64 -92 21 -63
000070 24 a8 14 1e e8 34 fc 1c ed 37 e7 ba 12 06 15 b8
       36 -88 20 30 -24 52 -4 28 -19 55 -25 -70 18 6 21 -72
000080 d6 ab 27 dd 6b 13 ee c6 fe 1d 52 1b 7f 13 12 19
       -42 -85 39 -35 107 19 -18 -58 -2 29 82 27 127 19 18 25
000090 f9 1d bf 26 0a da bc 9d 08 e8 de 00 03 17 24 4a
       -7 29 -65 38 10 -38 -68 -99 8 -24 -34 0 3 23 36 74
0000a0 f8 11 dc 1c 06 9f 1f c5 ba f4 7f f5 d5 00 bd 13
       -8 17 -36 28 6 -97 31 -59 -70 -12 127 -11 -43 0 -67 19
0000b0 fc af 08 f0 ea d5 e6 67 cf da 01 0f 23 02 d8 28
       -4 -81 8 -16 -22 -43 -26 103 -49 -38 1 15 35 2 -40 40
0000c0 e7 cd f8 09 1f e1 f2 f7 1d e3 3e b1 05 1e 08 0a
       -25 -51 -8 9 31 -31 -14 -9 29 -29 62 -79 5 30 8 10
0000d0 ee e7 0a f2 fb cd 03 ec 10 f6 2a 2f 22 16 f1 19
       -18 -25 10 -14 -5 -51 3 -20 16 -10 42 47 34 22 -15 25
0000e0 f6 02 03 ff bb 55 24 ea 1b ec ec e8 b2 0e 7f 0b
       -10 2 3 -1 -69 85 36 -22 27 -20 -20 -24 -78 14 127 11
0000f0 2b ec 00 12 1b d8 23 81 1b e5 f5 76 b3 43 18 bd
       43 -20 0 18 27 -40 35 -127 27 -27 -11 118 -77 67 24 -67

sequential/model/block_2_expand/Conv2D i1 [48, 1, 1, 8]
000000 40 7f b0 b0 13 54 09 49 3a ac 33 81 c0 54 ae d1
       64 127 -80 -80 19 84 9 73 58 -84 51 -127 -64 84 -82 -47
000010 e5 7f 74 33 6d 03 30 0d 6b 2a 97 3b ec 9b 81 d4
       -27 127 116 51 109 3 48 13 107 42 -105 59 -20 -101 -127 -44
000020 cc 2f 16 ac dd 6e 7f 3f 16 53 81 b4 33 54 1b e4
       -52 47 22 -84 -35 110 127 63 22 83 -127 -76 51 84 27 -28
000030 f5 7f 33 2b 4b 05 03 b0 7f e7 e5 23 1c 06 6f 0c
       -11 127 51 43 75 5 3 -80 127 -25 -27 35 28 6 111 12
000040 38 7f 3f 59 6b 4e 5d b0 29 7f 82 a9 11 57 f5 41
       56 127 63 89 107 78 93 -80 41 127 -126 -87 17 87 -11 65
000050 bf d6 1b cf fa e3 d2 7f 10 98 81 ee 14 f6 26 f2
       -65 -42 27 -49 -6 -29 -46 127 16 -104 -127 -18 20 -10 38 -14
000060 f0 9c 81 e2 88 0f b9 37 f9 07 99 67 81 e5 04 ed
       -16 -100 -127 -30 -120 15 -71 55 -7 7 -103 103 -127 -27 4 -19
000070 bb d5 81 f9 29 fe f4 c5 13 9b 81 09 a2 e8 e8 ed
       -69 -43 -127 -7 41 -2 -12 -59 19 -101 -127 9 -94 -24 -24 -19
000080 7f b9 ec 44 ad 16 1e 61 e6 6c 7f e7 d3 f6 e4 ef
       127 -71 -20 68 -83 22 30 97 -26 108 127 -25 -45 -10 -28 -17
000090 0c 81 2d 4a fb bd 32 b1 7f d8 cb 27 a0 06 27 6a
       12 -127 45 74 -5 -67 50 -79 127 -40 -53 39 -96 6 39 106
0000a0 e6 81 50 49 f4 a6 fe b9 f8 ce f0 db 7f f9 2c 13
       -26 -127 80 73 -12 -90 -2 -71 -8 -50 -16 -37 127 -7 44 19
0000b0 81 19 b3 33 33 30 a1 94 a2 c7 3c fc 86 7d 7f ce
       -127 25 -77 51 51 48 -95 -108 -94 -57 60 -4 -122 125 127 -50
0000c0 e1 3c f0 dd ca 78 7f fb bf 8b 81 bf ce f6 dc ca
       -31 60 -16 -35 -54 120 127 -5 -65 -117 -127 -65 -50 -10 -36 -54
0000d0 fc 40 e4 7f 93 19 c3 f2 12 81 20 4c 11 c7 03 88
       -4 64 -28 127 -109 25 -61 -14 18 -127 32 76 17 -57 3 -120
0000e0 18 7a 3a 39 7f e9 1d b8 6b 12 d5 fa 4e 81 a9 25
       24 122 58 57 127 -23 29 -72 107 18 -43 -6 78 -127 -87 37
0000f0 19 f6 1c 81 0f eb 15 e5 2b d7 03 3b f1 23 0f 7f
       25 -10 28 -127 15 -21 21 -27 43 -41 3 59 -15 35 15 127

sequential/model/block_2_depthwise_BN/FusedBatchNormV3;sequential/model/block_2_depthwise/depthwise;sequential/model/block_3_depthwise/depthwise i1 [1, 3, 3, 48]
000000 06 cd 09 05 ee 99 da 40 e2 f9 f9 0b 2d f8 f4 04
       6 -51 9 5 -18 -103 -38 64 -30 -7 -7 11 45 -8 -12 4
000010 57 0f 16 04 03 ec be 13 fd f4 f9 e7 c1 4c ee 81
       87 15 22 4 3 -20 -66 19 -3 -12 -7 -25 -63 76 -18 -127
000020 39 f6 c5 c7 f6 d9 0c f3 f1 27 08 04 f8 43 7f e1
       57 -10 -59 -57 -10 -39 12 -13 -15 39 8 4 -8 67 127 -31
000030 81 93 e9 7f bf 4d aa 7f 24 18 07 00 33 0e fc da
       -127 -109 -23 127 -65 77 -86 127 36 24 7 0 51 14 -4 -38
000040 e4 3e 15 08 05 7f 0c 7f 7f e3 d1 2b 49 85 f7 a3
       -28 62 21 8 5 127 12 127 127 -29 -47 43 73 -123 -9 -93
000050 50 f4 d3 81 19 06 c6 d8 81 ff a4 84 28 39 37 7a
       80 -12 -45 -127 25 6 -58 -40 -127 -1 -92 -124 40 57 55 122
000060 ee f5 0b 09 e6 20 29 2f 0c e1 00 04 ed fd fb 07
       -18 -11 11 9 -26 32 41 47 12 -31 0 4 -19 -3 -5 7
000070 d1 27 b9 e9 f7 e1 7f 17 c4 03 09 fb 0b 2b 0a 12
       -47 39 -71 -23 -9 -31 127 23 -60 3 9 -5 11 43 10 18
000080 fa f4 d8 52 06 00 14 5a 1d ed 21 ea fc 23 ed f3
       -6 -12 -40 82 6 0 20 90 29 -19 33 -22 -4 35 -19 -13
000090 ef ef e3 01 1f 8d 7f a5 f5 03 18 28 7f 10 00 e1
       -17 -17 -29 1 31 -115 127 -91 -11 3 24 40 127 16 0 -31
0000a0 e9 e6 1c 29 42 c2 38 0b c0 7f b5 ed 7f 9d 31 84
       -23 -26 28 41 66 -62 56 11 -64 127 -75 -19 127 -99 49 -124
0000b0 d4 00 a9 0f 0a ba df 06 7b 7f 07 81 c2 c7 fa 58
       -44 0 -87 15 10 -70 -33 6 123 127 7 -127 -62 -57 -6 88
0000c0 54 81 7f 03 7f 42 c1 c2 22 7f 7f 81 aa 7f 7f 7f
       84 -127 127 3 127 66 -63 -62 34 127 127 -127 -86 127 127 127
0000d0 7f 7f 77 7f 7f 76 03 03 76 9f 81 7f 27 7f 7f e9
       127 127 119 127 127 118 3 3 118 -97 -127 127 39 127 127 -23
0000e0 81 7f 7f 7f 81 7f 81 81 30 27 81 db 7f 81 f9 5e
       -127 127 127 127 -127 127 -127 -127 48 39 -127 -37 127 -127 -7 94
0000f0 10 1e d7 ff cd 7f 91 59 71 b4 1f 3f dc 0a 09 c4
       16 30 -41 -1 -51 127 -111 89 113 -76 31 63 -36 10 9 -60

sequential/model/block_2_project/Conv2D i1 [8, 1, 1, 48]
000000 df d4 ee bc 08 f2 53 54 9e ac dc 0a c9 03 c5 20
       -33 -44 -18 -68 8 -14 83 84 -98 -84 -36 10 -55 3 -59 32
000010 b2 08 0e 7f 3a e4 0b 5c 44 4a 14 05 a7 c7 b3 c6
       -78 8 14 127 58 -28 11 92 68 74 20 5 -89 -57 -77 -58
000020 d2 5e 1e cc 1b e1 5a f5 1e 09 03 96 23 de e1 af
       -46 94 30 -52 27 -31 90 -11 30 9 3 -106 35 -34 -31 -81
000030 ec 36 e8 ea b8 3d eb cf dd 47 ed 10 3c 2f d0 fc
       -20 54 -24 -22 -72 61 -21 -49 -35 71 -19 16 60 47 -48 -4
000040 ec 85 4c cf 7f 04 c4 12 33 fb a8 42 25 ef 46 26
       -20 -123 76 -49 127 4 -60 18 51 -5 -88 66 37 -17 70 38
000050 dd ec ff f5 01 69 ee e0 42 2b f9 08 6b 11 df 33
       -35 -20 -1 -11 1 105 -18 -32 66 43 -7 8 107 17 -33 51
000060 e8 dd 72 06 53 d7 f3 1e e0 00 f4 31 0c d6 d1 81
       -24 -35 114 6 83 -41 -13 30 -32 0 -12 49 12 -42 -47 -127
000070 ce a1 e5 0d 9e 12 dd de cf 14 fa d1 dc 03 e4 f5
       -50 -95 -27 13 -98 18 -35 -34 -49 20 -6 -47 -36 3 -28 -11
000080 fe fc 18 f8 1b e2 cc 02 20 e0 20 d1 d5 d6 c2 cf
       -2 -4 24 -8 27 -30 -52 2 32 -32 32 -47 -43 -42 -62 -49
000090 2d 0c 3e 0d 14 df 23 46 cb e8 2b e8 bf 3c ed 2d
       45 12 62 13 20 -33 35 70 -53 -24 43 -24 -65 60 -19 45
0000a0 45 1c dd 23 96 b7 7f fc fe 01 c2 e6 cc 3e 71 c2
       69 28 -35 35 -106 -73 127 -4 -2 1 -62 -26 -52 62 113 -62
0000b0 04 90 e8 26 fa b6 ef 44 b3 c7 39 fe a0 b8 38 f5
       4 -112 -24 38 -6 -74 -17 68 -77 -57 57 -2 -96 -72 56 -11
0000c0 0f ef 46 e5 02 f4 fc f9 c9 f9 ed 08 2c bd 25 a0
       15 -17 70 -27 2 -12 -4 -7 -55 -7 -19 8 44 -67 37 -96
0000d0 28 2c f7 de 0c 23 10 0b fd 02 3a ef 18 19 81 f4
       40 44 -9 -34 12 35 16 11 -3 2 58 -17 24 25 -127 -12
0000e0 ea ed 05 10 2f fe 25 04 dd f6 c0 1d f1 a1 02 13
       -22 -19 5 16 47 -2 37 4 -35 -10 -64 29 -15 -95 2 19
0000f0 17 d1 39 20 1e 11 1a 02 b8 fa d5 1a 1d 08 0c d4
       23 -47 57 32 30 17 26 2 -72 -6 -43 26 29 8 12 -44

sequential/model/block_3_expand/Conv2D i1 [48, 1, 1, 8]
000000 44 20 7f dd 46 68 ba cd 0b ab 81 01 3b 15 24 04
       68 32 127 -35 70 104 -70 -51 11 -85 -127 1 59 21 36 4
000010 81 ef cf dd 46 16 ba ce 25 49 7f b1 f6 95 fa f0
       -127 -17 -49 -35 70 22 -70 -50 37 73 127 -79 -10 -107 -6 -16
000020 81 18 ce e6 35 09 d0 c6 98 18 c9 f6 0b 27 b0 81
       -127 24 -50 -26 53 9 -48 -58 -104 24 -55 -10 11 39 -80 -127
000030 db 81 8f 26 67 0b 07 2d c1 81 9d b0 c0 bb 15 57
       -37 -127 -113 38 103 11 7 45 -63 -127 -99 -80 -64 -69 21 87
000040 51 24 f8 f5 57 b2 81 0b d9 33 cd 58 c0 db 7f e1
       81 36 -8 -11 87 -78 -127 11 -39 51 -51 88 -64 -37 127 -31
000050 e6 7f 21 3e 7f e8 f4 37 ab db ea f6 a8 70 7f fc
       -26 127 33 62 127 -24 -12 55 -85 -37 -22 -10 -88 112 127 -4
000060 41 1d 81 21 f5 dd c5 ef 44 df c0 08 0a 81 e4 e6
       65 29 -127 33 -11 -35 -59 -17 68 -33 -64 8 10 -127 -28 -26
000070 03 b2 4d 10 7f 96 c8 12 d8 cd fe 7f 3f 57 b7 18
       3 -78 77 16 127 -106 -56 18 -40 -51 -2 127 63 87 -73 24
000080 6f 1d dd 14 4f 9a 81 ed 3c 7f 37 49 2f 3f 19 a9
       111 29 -35 20 79 -102 -127 -19 60 127 55 73 47 63 25 -87
000090 24 ea ff 01 7f 09 1f ef 0c 7f 26 0b 88 13 19 de
       36 -22 -1 1 127 9 31 -17 12 127 38 11 -120 19 25 -34
0000a0 d4 15 39 81 11 1f ee 67 e0 4c 23 81 1d 28 f3 6c
       -44 21 57 -127 17 31 -18 103 -32 76 35 -127 29 40 -13 108
0000b0 af bd 9c 0d 81 7e 71 eb 60 26 81 10 08 ce bc eb
       -81 -67 -100 13 -127 126 113 -21 96 38 -127 16 8 -50 -68 -21
0000c0 cf 2d 04 03 ee 4a 81 68 9d c9 81 07 cb ba 40 62
       -49 45 4 3 -18 74 -127 104 -99 -55 -127 7 -53 -70 64 98
0000d0 31 fb d7 d7 72 ed 7f dd 7f bf 1c 5c 04 20 ea 67
       49 -5 -41 -41 114 -19 127 -35 127 -65 28 92 4 32 -22 103
0000e0 30 43 32 eb 7f b6 3f d5 f3 f2 e9 d2 be 13 7f da
       48 67 50 -21 127 -74 63 -43 -13 -14 -23 -46 -66 19 127 -38
0000f0 27 81 c9 bc 9e ff 07 cf 0e 1a f8 f3 81 03 e8 f2
       39 -127 -55 -68 -98 -1 7 -49 14 26 -8 -13 -127 3 -24 -14

sequential/model/block_3_depthwise_BN/FusedBatchNormV3;sequential/model/block_3_depthwise/depthwise i1 [1, 3, 3, 48]
000000 9a 4c 81 71 9a 3c c6 5d aa b7 4b c2 4e a9 d4 cf
       -102 76 -127 113 -102 60 -58 93 -86 -73 75 -62 78 -87 -44 -49
000010 4b 4a 5b 91 59 81 49 a6 a8 c5 43 72 a7 b2 c1 47
       75 74 91 -111 89 -127 73 -90 -88 -59 67 114 -89 -78 -63 71
000020 54 a6 36 9f b6 81 56 d8 ee 9a 72 9c 6b 46 a3 ba
       84 -90 54 -97 -74 -127 86 -40 -18 -102 114 -100 107 70 -93 -70
000030 81 68 b1 7d b0 73 cc 68 8a 98 6e af 74 87 bc ad
       -127 104 -79 125 -80 115 -52 104 -118 -104 110 -81 116 -121 -68 -83
000040 5e 6a 7f 81 79 87 52 81 97 a5 54 7f 29 9e b1 47
       94 106 127 -127 121 -121 82 -127 -105 -91 84 127 41 -98 -79 71
000050 66 81 57 95 a5 81 6f bb 8d 63 7a a5 da 73 87 96
       102 -127 87 -107 -91 -127 111 -69 -115 99 122 -91 -38 115 -121 -106
000060 bb 3d fa 20 f1 3f e2 23 cb dc 31 dc 33 d2 e0 f2
       -69 61 -6 32 -15 63 -30 35 -53 -36 49 -36 51 -46 -32 -14
000070 28 2d 48 d2 25 be 21 cc c8 d6 1c 29 6b cf d5 18
       40 45 72 -46 37 -66 33 -52 -56 -42 28 41 107 -49 -43 24
000080 1d a1 23 e3 dd dc 23 e0 86 d9 25 d6 ba 45 dd b5
       29 -95 35 -29 -35 -36 35 -32 -122 -39 37 -42 -70 69 -35 -75
000090 99 54 c3 76 a7 68 8d 5f 92 9a 4b a8 55 9d ab a6
       -103 84 -61 118 -89 104 -115 95 -110 -102 75 -88 85 -99 -85 -90
0000a0 69 60 d5 9e 66 89 5f bb 8c a3 5f 68 81 a1 a0 4d
       105 96 -43 -98 102 -119 95 -69 -116 -93 95 104 -127 -95 -96 77
0000b0 6f 2b 5a 87 93 8e 6c c5 9b 91 6b 81 7f 4b 81 8b
       111 43 90 -121 -109 -114 108 -59 -101 -111 107 -127 127 75 -127 -117
0000c0 8a 7f 8b 7f 81 7f 81 7f 81 81 7f 81 7f 81 81 81
       -118 127 -117 127 -127 127 -127 127 -127 -127 127 -127 127 -127 -127 -127
0000d0 7f 7f cd 87 7f 86 7f 8b 81 81 7f 6b 13 81 81 7f
       127 127 -51 -121 127 -122 127 -117 -127 -127 127 107 19 -127 -127 127
0000e0 7f 35 7f 81 81 95 7f 81 81 7f 7f 8b c6 7f 87 81
       127 53 127 -127 -127 -107 127 -127 -127 127 127 -117 -58 127 -121 -127
0000f0 b3 3e b1 34 cc 22 c8 33 bc d9 30 c1 3a d3 c5 f1
       -77 62 -79 52 -52 34 -56 51 -68 -39 48 -63 58 -45 -59 -15

sequential/model/block_3_project/Conv2D i1 [16, 1, 1, 48]
000000 16 2a 10 dc 45 46 dc 36 f0 74 06 2e d8 26 f0 2a
       22 42 16 -36 69 70 -36 54 -16 116 6 46 -40 38 -16 42
000010 20 56 31 c3 b9 4c f6 34 3a 34 2a 38 d0 d0 fc 51
       32 86 49 -61 -71 76 -10 52 58 52 42 56 -48 -48 -4 81
000020 e2 10 bf 39 30 81 e0 12 09 e0 3b fd fa ca c3 f4
       -30 16 -65 57 48 -127 -32 18 9 -32 59 -3 -6 -54 -61 -12
000030 cc 04 ae d4 09 59 c3 13 f5 dd d3 1e 3a ef e2 e6
       -52 4 -82 -44 9 89 -61 19 -11 -35 -45 30 58 -17 -30 -26
000040 e3 dd f7 14 bd 2f 99 cd ce d7 35 43 e7 dd 26 da
       -29 -35 -9 20 -67 47 -103 -51 -50 -41 53 67 -25 -35 38 -38
000050 11 c8 df 35 0c c3 7f e0 e5 19 d4 f1 1e 34 1a 17
       17 -56 -33 53 12 -61 127 -32 -27 25 -44 -15 30 52 26 23
000060 00 06 38 e1 eb b0 10 1b 65 48 c0 11 73 c9 7f 52
       0 6 56 -31 -21 -80 16 27 101 72 -64 17 115 -55 127 82
000070 bc e7 e0 20 59 ab e3 9e 08 d6 28 bc 29 2d d6 0c
       -68 -25 -32 32 89 -85 -29 -98 8 -42 40 -68 41 45 -42 12
000080 27 ea 41 27 bb 07 04 df 1e 22 49 ed 16 a9 64 c7
       39 -22 65 39 -69 7 4 -33 30 34 73 -19 22 -87 100 -57
000090 21 02 e5 e8 22 74 15 f2 2b d2 1d ee d0 06 07 2d
       33 2 -27 -24 34 116 21 -14 43 -46 29 -18 -48 6 7 45
0000a0 d8 be 23 82 fa fa e3 ec d3 5c 7f 3f f7 d6 1b 2b
       -40 -66 35 -126 -6 -6 -29 -20 -45 92 127 63 -9 -42 27 43
0000b0 3e e4 61 1d cf c4 05 2a 17 13 f3 fd 19 18 f6 e1
       62 -28 97 29 -49 -60 5 42 23 19 -13 -3 25 24 -10 -31
0000c0 65 fc 0d ce 58 4f 31 06 47 ec 90 1c 28 ec 18 f4
       101 -4 13 -50 88 79 49 6 71 -20 -112 28 40 -20 24 -12
0000d0 9a 8c e9 a4 e3 1e dc e3 b2 7f 9b 72 c1 c6 15 49
       -102 -116 -23 -92 -29 30 -36 -29 -78 127 -101 114 -63 -58 21 73
0000e0 2e cf 0d e9 01 0d e3 22 d5 f3 fe 2f cd 61 e2 cf
       46 -49 13 -23 1 13 -29 34 -43 -13 -2 47 -51 97 -30 -49
0000f0 03 fa ca 06 ef 34 14 e3 42 35 24 5b 35 e9 22 01
       3 -6 -54 6 -17 52 20 -29 66 53 36 91 53 -23 34 1

sequential/model/block_4_expand/Conv2D i1 [96, 1, 1, 16]
000000 23 0e fb 2e 81 f6 63 2b 2a 41 e9 1b 12 ff 11 4f
       35 14 -5 46 -127 -10 99 43 42 65 -23 27 18 -1 17 79
000010 f6 2d 99 f7 7f 75 02 fb dc 0d c8 1f c4 50 c8 db
       -10 45 -103 -9 127 117 2 -5 -36 13 -56 31 -60 80 -56 -37
000020 dd 3a 49 fe 40 53 05 26 27 fb 27 ef 34 81 f7 09
       -35 58 73 -2 64 83 5 38 39 -5 39 -17 52 -127 -9 9
000030 7f e1 15 07 18 19 f3 10 23 1d ce ed da 30 e9 32
       127 -31 21 7 24 25 -13 16 35 29 -50 -19 -38 48 -23 50
000040 a3 e5 00 25 91 01 9f e9 f0 2c fe d0 e3 2c d2 7f
       -93 -27 0 37 -111 1 -97 -23 -16 44 -2 -48 -29 44 -46 127
000050 9a 06 22 07 7f 1e 06 0e d6 18 e9 10 c4 39 a9 de
       -102 6 34 7 127 30 6 14 -42 24 -23 16 -60 57 -87 -34
000060 81 11 e4 1d fd c3 41 16 0c e5 c7 25 09 fc d3 08
       -127 17 -28 29 -3 -61 65 22 12 -27 -57 37 9 -4 -45 8
000070 ff 62 3b a5 42 2f 7f 00 2b 01 fb 2e 4e 1e e1 01
       -1 98 59 -91 66 47 127 0 43 1 -5 46 78 30 -31 1
000080 e1 eb c1 35 d3 5b d8 b2 1c d4 50 24 7f 36 8f 03
       -31 -21 -63 53 -45 91 -40 -78 28 -44 80 36 127 54 -113 3
000090 e3 81 ef 4e d6 c7 fb 3a 2e 2b 03 45 ad 16 01 e2
       -29 -127 -17 78 -42 -57 -5 58 46 43 3 69 -83 22 1 -30
0000a0 e4 c4 a5 32 8f 74 49 a1 0d c0 31 df 30 7f a2 42
       -28 -60 -91 50 -113 116 73 -95 13 -64 49 -33 48 127 -94 66
0000b0 e0 a2 e9 1a f6 57 1e ff 08 0c 2c ad 0d 59 81 6a
       -32 -94 -23 26 -10 87 30 -1 8 12 44 -83 13 89 -127 106
0000c0 e3 96 a0 69 98 81 11 49 56 42 de 6a fc bc e0 f9
       -29 -106 -96 105 -104 -127 17 73 86 66 -34 106 -4 -68 -32 -7
0000d0 bf ec e1 fc f0 fd 1f 0c ec 7f f3 ea 22 21 11 f6
       -65 -20 -31 -4 -16 -3 31 12 -20 127 -13 -22 34 33 17 -10
0000e0 8c e1 dd d2 f4 57 f7 81 7d cd 33 ed 63 c2 a5 9b
       -116 -31 -35 -46 -12 87 -9 -127 125 -51 51 -19 99 -62 -91 -101
0000f0 f9 81 5d be bf e1 0f 3b 0a c3 a9 d6 58 de e1 dc
       -7 -127 93 -66 -65 -31 15 59 10 -61 -87 -42 88 -34 -31 -36

sequential/model/block_4_depthwise_BN/FusedBatchNormV3;sequential/model/block_4_depthwise/depthwise;sequential/model/block_6_expand/Conv2D i1 [1, 3, 3, 96]
000000 b3 ee 01 e3 63 fa 1b f3 fa 00 f8 e3 e3 0a fb de
       -77 -18 1 -29 99 -6 27 -13 -6 0 -8 -29 -29 10 -5 -34
000010 ef fe ff e3 08 18 1e 2b 00 ed de f8 17 fe 16 07
       -17 -2 -1 -29 8 24 30 43 0 -19 -34 -8 23 -2 22 7
000020 07 fd 0d e0 00 b1 c8 f1 04 f1 2a db e7 2e c3 f2
       7 -3 13 -32 0 -79 -56 -15 4 -15 42 -37 -25 46 -61 -14
000030 ee 09 f3 39 bf 01 28 f0 00 f9 02 f1 f6 f5 fb e7
       -18 9 -13 57 -65 1 40 -16 0 -7 2 -15 -10 -11 -5 -25
000040 e8 e8 d2 e2 f1 19 f4 03 1a 0d 06 01 ef f3 7f f4
       -24 -24 -46 -30 -15 25 -12 3 26 13 6 1 -17 -13 127 -12
000050 88 0e a3 f2 e4 ec 10 18 de f1 1a d5 ff 1a ea 08
       -120 14 -93 -14 -28 -20 16 24 -34 -15 26 -43 -1 26 -22 8
000060 eb 20 30 d9 dc f9 7f ce fe fc dd 0f ba 0b af 42
       -21 32 48 -39 -36 -7 127 -50 -2 -4 -35 15 -70 11 -81 66
000070 f5 40 56 d7 05 7f 6d 77 21 04 30 46 7f 18 7f e3
       -11 64 86 -41 5 127 109 119 33 4 48 70 127 24 127 -29
000080 81 eb ba e4 ea 8d 7f bf e9 81 f6 cc 38 e0 dc fa
       -127 -21 -70 -28 -22 -115 127 -65 -23 -127 -10 -52 56 -32 -36 -6
000090 2f 07 14 7f 9a 1c b7 f7 b8 fc f7 16 f1 81 85 d5
       47 7 20 127 -102 28 -73 -9 -72 -4 -9 22 -15 -127 -123 -43
0000a0 d6 ff fc a5 f9 10 c9 72 81 f9 13 e4 81 9a fe b6
       -42 -1 -4 -91 -7 16 -55 114 -127 -7 19 -28 -127 -102 -2 -74
0000b0 97 09 21 ce 7f 51 aa 1b 81 00 34 f4 0d 7d cd ad
       -105 9 33 -50 127 81 -86 27 -127 0 52 -12 13 125 -51 -83
0000c0 c9 06 f9 f0 40 ef 29 e7 e9 11 f6 01 01 09 f6 d6
       -55 6 -7 -16 64 -17 41 -25 -23 17 -10 1 1 9 -10 -42
0000d0 f0 fa f3 de 04 04 17 1f fc f8 06 f1 0a 08 12 09
       -16 -6 -13 -34 4 4 23 31 -4 -8 6 -15 10 8 18 9
0000e0 f3 fa 08 42 fc b9 d6 06 00 fd 17 e6 f4 e4 d1 e1
       -13 -6 8 66 -4 -71 -42 6 0 -3 23 -26 -12 -28 -47 -31
0000f0 f0 02 f6 1d 04 fa 1c f1 38 ef 07 e9 f6 fa ce e8
       -16 2 -10 29 4 -6 28 -15 56 -17 7 -23 -10 -6 -50 -24

sequential/model/block_4_project/Conv2D i1 [16, 1, 1, 96]
000000 16 1c 0e 0a eb b5 f1 0c ed ba 04 03 3b c8 3c 2a
       22 28 14 10 -21 -75 -15 12 -19 -70 4 3 59 -56 60 42
000010 af ea 24 13 54 17 c7 09 fc 3e 7c 3f 0b 51 38 e3
       -81 -22 36 19 84 23 -57 9 -4 62 124 63 11 81 56 -29
000020 0c 01 16 e8 18 13 f0 fd 7f 0f 17 ee f6 ff 08 d9
       12 1 22 -24 24 19 -16 -3 127 15 23 -18 -10 -1 8 -39
000030 1a d9 5d f5 c0 fb 2e 24 f4 d3 07 12 fe 1f b9 f9
       26 -39 93 -11 -64 -5 46 36 -12 -45 7 18 -2 31 -71 -7
000040 13 fd 41 1d ff ec 11 17 05 20 0a 1e 3b e5 2f 15
       19 -3 65 29 -1 -20 17 23 5 32 10 30 59 -27 47 21
000050 f4 29 20 19 ce ff ee 41 13 0a aa e5 19 0e 6a 56
       -12 41 32 25 -50 -1 -18 65 19 10 -86 -27 25 14 106 86
000060 08 21 cc ec 06 d5 5f be bb d1 c1 d4 ff d2 fe cd
       8 33 -52 -20 6 -43 95 -66 -69 -47 -63 -44 -1 -46 -2 -51
000070 db ee de f0 f3 ab 7f e2 ff 0a 00 41 cf 06 e1 12
       -37 -18 -34 -16 -13 -85 127 -30 -1 10 0 65 -49 6 -31 18
000080 e7 19 18 0f e7 32 c0 50 25 0b 06 d9 36 c9 fb 1b
       -25 25 24 15 -25 50 -64 80 37 11 6 -39 54 -55 -5 27
000090 a6 08 39 99 d9 2e 40 3a 23 14 be 12 da ff f0 e9
       -90 8 57 -103 -39 46 64 58 35 20 -66 18 -38 -1 -16 -23
0000a0 1a 14 65 04 d6 89 0d 03 11 45 ed 24 c0 db 66 d9
       26 20 101 4 -42 -119 13 3 17 69 -19 36 -64 -37 102 -39
0000b0 22 f8 2f b9 e1 c4 ef 12 e9 d3 1f f9 46 c8 d9 44
       34 -8 47 -71 -31 -60 -17 18 -23 -45 31 -7 70 -56 -39 68
0000c0 05 ec 0e fb 44 31 d0 16 c9 2a 11 e6 22 fd 10 1a
       5 -20 14 -5 68 49 -48 22 -55 42 17 -26 34 -3 16 26
0000d0 1a e4 81 f3 f1 d7 f7 1a ff f3 d3 14 df e8 f2 43
       26 -28 -127 -13 -15 -41 -9 26 -1 -13 -45 20 -33 -24 -14 67
0000e0 ea de f5 0f d6 1e ed e8 41 0f 01 2b 09 35 05 fc
       -22 -34 -11 15 -42 30 -19 -24 65 15 1 43 9 53 5 -4
0000f0 a6 09 f0 15 e8 34 07 c3 27 1b 2f 24 e1 f8 ed 34
       -90 9 -16 21 -24 52 7 -61 39 27 47 36 -31 -8 -19 52

sequential/model/block_5_expand/Conv2D i1 [96, 1, 1, 16]
000000 c5 37 02 da db bd c3 cd 44 c9 27 c6 63 81 06 87
       -59 55 2 -38 -37 -67 -61 -51 68 -55 39 -58 99 -127 6 -121
000010 92 4d 92 92 9f 16 f1 3a d8 03 56 bd 33 7f 18 3b
       -110 77 -110 -110 -97 22 -15 58 -40 3 86 -67 51 127 24 59
000020 d4 f9 b2 0a e7 ce 1f d2 a0 7c 4b 05 31 34 d8 7f
       -44 -7 -78 10 -25 -50 31 -46 -96 124 75 5 49 52 -40 127
000030 cf b2 01 d3 ab 16 be 87 fd 0d 2c b7 b9 de 81 d1
       -49 -78 1 -45 -85 22 -66 -121 -3 13 44 -73 -71 -34 -127 -47
000040 4c 03 f0 28 b7 f1 81 26 14 42 16 29 0d f7 d9 ae
       76 3 -16 40 -73 -15 -127 38 20 66 22 41 13 -9 -39 -82
000050 a1 39 ad db 39 c5 ea af 4e d1 0b d3 12 89 81 98
       -95 57 -83 -37 57 -59 -22 -81 78 -47 11 -45 18 -119 -127 -104
000060 f1 d9 e7 1a b1 4b 21 de e6 d1 7f e7 f9 05 8d 04
       -15 -39 -25 26 -79 75 33 -34 -26 -47 127 -25 -7 5 -115 4
000070 e7 62 7f a5 45 45 01 c2 2b 35 ae ef 3e 03 13 49
       -25 98 127 -91 69 69 1 -62 43 53 -82 -17 62 3 19 73
000080 c8 0b 1d 03 32 fa 6e 7f a5 df b8 b6 2b 7b b3 cd
       -56 11 29 3 50 -6 110 127 -91 -33 -72 -74 43 123 -77 -51
000090 29 34 5e 1f 88 d2 99 85 44 0f 7f 27 d6 a0 43 e9
       41 52 94 31 -120 -46 -103 -123 68 15 127 39 -42 -96 67 -23
0000a0 f1 91 0c b6 81 3f 23 1e dd ca 05 1d ed 36 93 20
       -15 -111 12 -74 -127 63 35 30 -35 -54 5 29 -19 54 -109 32
0000b0 64 ba f5 5a 83 cf 41 f7 7a 7f c0 3c 1a ba f2 7c
       100 -70 -11 90 -125 -49 65 -9 122 127 -64 60 26 -70 -14 124
0000c0 d0 c6 7f e7 3c e2 1f 26 30 e0 4c 42 e6 11 a8 14
       -48 -58 127 -25 60 -30 31 38 48 -32 76 66 -26 17 -88 20
0000d0 f9 e5 18 13 0c 07 7f 17 a3 12 f3 0d ed 5c 69 b7
       -7 -27 24 19 12 7 127 23 -93 18 -13 13 -19 92 105 -73
0000e0 7f b7 74 06 40 29 74 45 3c 49 4b 23 51 dc 2c d9
       127 -73 116 6 64 41 116 69 60 73 75 35 81 -36 44 -39
0000f0 fc 70 0f e0 2f 7f af 42 d6 ed cb f7 c7 6f ef c1
       -4 112 15 -32 47 127 -81 66 -42 -19 -53 -9 -57 111 -17 -63

sequential/model/block_5_depthwise_BN/FusedBatchNormV3;sequential/model/block_5_depthwise/depthwise;sequential/model/block_6_expand/Conv2D i1 [1, 3, 3, 96]
000000 15 76 fa 07 db 07 2b 32 27 c2 b2 36 ee f5 19 ca
       21 118 -6 7 -37 7 43 50 39 -62 -78 54 -18 -11 25 -54
000010 a3 12 0b 1f 21 41 54 58 18 f5 cd fc f1 17 15 f4
       -93 18 11 31 33 65 84 88 24 -11 -51 -4 -15 23 21 -12
000020 c5 0a d3 55 f6 2b 08 ec 19 d4 f7 23 91 dd 08 dc
       -59 10 -45 85 -10 43 8 -20 25 -44 -9 35 -111 -35 8 -36
000030 e2 bc ea f9 fc 2d e9 02 bd c4 d6 81 81 f7 a7 fc
       -30 -68 -22 -7 -4 45 -23 2 -67 -60 -42 -127 -127 -9 -89 -4
000040 e6 26 43 e8 e8 26 24 f5 e7 00 2e 01 12 d6 9d 18
       -26 38 67 -24 -24 38 36 -11 -25 0 46 1 18 -42 -99 24
000050 fb b6 3b e8 a8 cf f1 0f a3 0a be 2b 4b ef 3d 07
       -5 -74 59 -24 -88 -49 -15 15 -93 10 -66 43 75 -17 61 7
000060 d9 e3 03 49 f5 63 eb ff 33 1c 81 52 e5 ca a9 7f
       -39 -29 3 73 -11 99 -21 -1 51 28 -127 82 -27 -54 -87 127
000070 8d 44 2d 4d 7f 0b 7b 7f 22 0e 09 28 fe 7f fa 81
       -115 68 45 77 127 11 123 127 34 14 9 40 -2 127 -6 -127
000080 40 64 fe 42 3b 5c eb 81 7f f2 50 7f c9 c4 7f bb
       64 100 -2 66 59 92 -21 -127 127 -14 80 127 -55 -60 127 -69
000090 f4 81 92 de ff 7f e9 81 0b 21 85 ae ea 9b cf 56
       -12 -127 -110 -34 -1 127 -23 -127 11 33 -123 -82 -22 -101 -49 86
0000a0 e5 4f 7f de 0a 7f 7f f6 b2 12 e5 9f 2c c1 f3 7f
       -27 79 127 -34 10 127 127 -10 -78 18 -27 -97 44 -63 -13 127
0000b0 f9 c0 7f b7 9d df 4a 3d 5f 55 bf 03 7f e3 7f 29
       -7 -64 127 -73 -99 -33 74 61 95 85 -65 3 127 -29 127 41
0000c0 10 a1 01 fb f1 f9 f7 2e 1e 37 c8 07 f7 22 fb b7
       16 -95 1 -5 -15 -7 -9 46 30 55 -56 7 -9 34 -5 -73
0000d0 de 0e 09 14 16 31 47 56 1c e2 1b 2e 05 19 fa c1
       -34 14 9 20 22 49 71 86 28 -30 27 46 5 25 -6 -63
0000e0 d8 b1 ce 3d fe f5 11 f7 f8 17 eb 2f d6 f7 fd f9
       -40 -79 -50 61 -2 -11 17 -9 -8 23 -21 47 -42 -9 -3 -7
0000f0 11 b8 1b 0e fb e2 02 03 3d ad fe ca aa 20 b8 f8
       17 -72 27 14 -5 -30 2 3 61 -83 -2 -54 -86 32 -72 -8

sequential/model/block_5_project/Conv2D i1 [16, 1, 1, 96]
000000 a1 28 33 e9 b7 fc c0 02 c6 0b f5 d9 2c 2f 22 e3
       -95 40 51 -23 -73 -4 -64 2 -58 11 -11 -39 44 47 34 -29
000010 11 00 61 0c 06 cc 7f 40 20 1b fe 1d c6 94 a9 05
       17 0 97 12 6 -52 127 64 32 27 -2 29 -58 -108 -87 5
000020 db ce 17 19 01 11 f7 16 f0 f7 ad 07 b1 ed 01 50
       -37 -50 23 25 1 17 -9 22 -16 -9 -83 7 -79 -19 1 80
000030 f4 10 cf ea 00 01 16 ca a4 0d ef 49 3a 25 fe 00
       -12 16 -49 -22 0 1 22 -54 -92 13 -17 73 58 37 -2 0
000040 ec d6 ce 19 c2 c0 03 e8 03 ff b7 d2 d0 14 e0 fe
       -20 -42 -50 25 -62 -64 3 -24 3 -1 -73 -46 -48 20 -32 -2
000050 c9 3b 57 b8 14 2f 0b 2b 17 f3 fb e2 e2 e1 cd 10
       -55 59 87 -72 20 47 11 43 23 -13 -5 -30 -30 -31 -51 16
000060 24 13 21 cd c5 ee fb 12 ed 1c 35 cf 07 ee bd da
       36 19 33 -51 -59 -18 -5 18 -19 28 53 -49 7 -18 -67 -38
000070 f0 fd bb 20 f7 ba 0d 2b f7 c5 f6 d8 45 99 6e b4
       -16 -3 -69 32 -9 -70 13 43 -9 -59 -10 -40 69 -103 110 -76
000080 2f 12 e9 3a 1e 4b f3 d1 1f 0e ff ee 00 38 81 d1
       47 18 -23 58 30 75 -13 -47 31 14 -1 -18 0 56 -127 -47
000090 cb cc ee eb 24 ca dd 2f 13 fc e0 13 0f 32 ef a2
       -53 -52 -18 -21 36 -54 -35 47 19 -4 -32 19 15 50 -17 -94
0000a0 f4 f5 c5 f7 05 fa b2 f4 dd ea 0f b9 0c 14 17 b3
       -12 -11 -59 -9 5 -6 -78 -12 -35 -22 15 -71 12 20 23 -77
0000b0 e9 e8 ae e3 21 d9 ec 12 b2 fb cc 28 16 3e c8 2f
       -23 -24 -82 -29 33 -39 -20 18 -78 -5 -52 40 22 62 -56 47
0000c0 4a dc 1a 17 19 b1 45 fe fd f2 f1 fb ab dd 0f d6
       74 -36 26 23 25 -79 69 -2 -3 -14 -15 -5 -85 -35 15 -42
0000d0 9f d1 d4 32 0b d0 cf 16 00 b4 0f e9 dc 27 cc 7b
       -97 -47 -44 50 11 -48 -49 22 0 -76 15 -23 -36 39 -52 123
0000e0 c6 7f e4 10 f4 f6 f6 f3 a4 51 4d 0d c9 02 f0 f8
       -58 127 -28 16 -12 -10 -10 -13 -92 81 77 13 -55 2 -16 -8
0000f0 1e 00 e5 d2 2c f1 ec 45 27 f8 34 fb 05 24 de 0f
       30 0 -27 -46 44 -15 -20 69 39 -8 52 -5 5 36 -34 15

sequential/model/block_6_expand/Conv2D i1 [96, 1, 1, 16]
000000 f3 66 aa 21 31 e2 63 44 c5 fe 20 a5 4d 7f be 14
       -13 102 -86 33 49 -30 99 68 -59 -2 32 -91 77 127 -66 20
000010 f0 03 c2 e7 fc 36 15 81 28 cb e3 c3 f0 d7 c6 00
       -16 3 -62 -25 -4 54 21 -127 40 -53 -29 -61 -16 -41 -58 0
000020 f1 eb 21 4c 1d 31 92 7f f1 00 42 c5 ef c4 db 3b
       -15 -21 33 76 29 49 -110 127 -15 0 66 -59 -17 -60 -37 59
000030 56 99 4e f4 f7 d9 e3 7f dd 37 4d 3b fd 38 0c 0f
       86 -103 78 -12 -9 -39 -29 127 -35 55 77 59 -3 56 12 15
000040 d3 e8 fc 29 a7 08 e9 81 03 f3 1c f8 1c 2c 64 73
       -45 -24 -4 41 -89 8 -23 -127 3 -13 28 -8 28 44 100 115
000050 7f 1b e5 ec b8 19 17 4a 0f f5 38 53 73 1e b3 00
       127 27 -27 -20 -72 25 23 74 15 -11 56 83 115 30 -77 0
000060 0b d7 c5 c1 aa 00 04 c7 cb c4 e7 25 5b 32 7f fe
       11 -41 -59 -63 -86 0 4 -57 -53 -60 -25 37 91 50 127 -2
000070 c4 1c e0 af 01 c2 b6 0b a6 33 bc c4 81 d7 10 5b
       -60 28 -32 -81 1 -62 -74 11 -90 51 -68 -60 -127 -41 16 91
000080 37 2b 48 0a 37 18 48 0b 44 e1 27 01 81 e5 b6 0c
       55 43 72 10 55 24 72 11 68 -31 39 1 -127 -27 -74 12
000090 df 3f 1c d7 e8 f6 1a f5 e1 32 d6 09 2a 7f 17 18
       -33 63 28 -41 -24 -10 26 -11 -31 50 -42 9 42 127 23 24
0000a0 42 31 d5 3d db e5 3d c0 9d e1 d1 99 81 ac 02 73
       66 49 -43 61 -37 -27 61 -64 -99 -31 -47 -103 -127 -84 2 115
0000b0 2b 01 3f 05 ef df 0e 65 aa 14 e7 08 f3 f8 39 7f
       43 1 63 5 -17 -33 14 101 -86 20 -25 8 -13 -8 57 127
0000c0 c4 e4 08 fa 10 fb 7f 23 c2 15 0c fc f7 49 d5 6d
       -60 -28 8 -6 16 -5 127 35 -62 21 12 -4 -9 73 -43 109
0000d0 0a 22 16 2a 7f 24 75 6c d3 69 ac c0 3f 6f 8d e6
       10 34 22 42 127 36 117 108 -45 105 -84 -64 63 111 -115 -26
0000e0 81 75 05 ec f7 ff 48 fa d7 1a 7c fe a6 12 d4 37
       -127 117 5 -20 -9 -1 72 -6 -41 26 124 -2 -90 18 -44 55
0000f0 f8 ee 81 d6 52 da a7 e0 ee eb ed bc f4 b3 c7 2b
       -8 -18 -127 -42 82 -38 -89 -32 -18 -21 -19 -68 -12 -77 -57 43

sequential/conv2d/Conv2D i1 [32, 1, 1, 96]
000000 ca 69 c1 df 09 5f f0 50 85 38 08 e7 e6 d6 0f 40
       -54 105 -63 -33 9 95 -16 80 -123 56 8 -25 -26 -42 15 64
000010 e9 57 d3 d6 0f e9 c7 b7 1a 4a d9 74 55 0b 43 40
       -23 87 -45 -42 15 -23 -57 -73 26 74 -39 116 85 11 67 64
000020 22 22 d0 c8 26 12 c3 b6 19 58 11 b9 34 eb f5 eb
       34 34 -48 -56 38 18 -61 -74 25 88 17 -71 52 -21 -11 -21
000030 1e a4 57 4f 6b 35 dc 58 d2 fc a7 40 c8 20 ec b7
       30 -92 87 79 107 53 -36 88 -46 -4 -89 64 -56 32 -20 -73
000040 cb 59 89 fa bc 9b af ab 0c 96 9d e5 5b 26 f8 22
       -53 89 -119 -6 -68 -101 -81 -85 12 -106 -99 -27 91 38 -8 34
000050 ed 8b a4 1c 0c 9e ea a2 43 89 c1 23 a1 94 23 81
       -19 -117 -92 28 12 -98 -22 -94 67 -119 -63 35 -95 -108 35 -127
000060 42 44 e7 63 4f cf 28 02 f1 a9 f1 ec 0c c9 b4 3d
       66 68 -25 99 79 -49 40 2 -15 -87 -15 -20 12 -55 -76 61
000070 22 e6 cc 1c 26 7e b8 10 65 03 2c 0f 22 ca d2 15
       34 -26 -52 28 38 126 -72 16 101 3 44 15 34 -54 -46 21
000080 38 64 f2 17 bc 4a ba 36 23 52 b9 12 17 ed 0c 2f
       56 100 -14 23 -68 74 -70 54 35 82 -71 18 23 -19 12 47
000090 f2 6e 20 23 de ea 3d 29 02 57 4d 56 04 e9 0d ad
       -14 110 32 35 -34 -22 61 41 2 87 77 86 4 -23 13 -83
0000a0 a8 ca 4e fb 24 f6 38 c8 27 46 e2 6b a6 a3 32 35
       -88 -54 78 -5 36 -10 56 -56 39 70 -30 107 -90 -93 50 53
0000b0 42 0e 3a 11 7f fa 46 ac 31 55 6b cd 4b 33 ab 4e
       66 14 58 17 127 -6 70 -84 49 85 107 -51 75 51 -85 78
0000c0 dd f1 21 42 57 36 28 92 f5 19 e0 0b 1b f9 17 37
       -35 -15 33 66 87 54 40 -110 -11 25 -32 11 27 -7 23 55
0000d0 ac f5 d5 26 30 5c a0 0c 3c 6c 42 20 49 51 fd b4
       -84 -11 -43 38 48 92 -96 12 60 108 66 32 73 81 -3 -76
0000e0 a8 28 5e 0d 27 36 b6 30 10 17 3f 01 98 b8 48 54
       -88 40 94 13 39 54 -74 48 16 23 63 1 -104 -72 72 84
0000f0 d5 06 52 b7 5d be cc 24 e8 cb 10 c8 e3 fb 14 04
       -43 6 82 -73 93 -66 -52 36 -24 -53 16 -56 -29 -5 20 4

sequential/conv2d_1/Conv2D i1 [2, 1, 1, 32]
000000 8f 15 e0 21 3e eb 2d fc 02 52 04 a1 3a b5 73 56
       -113 21 -32 33 62 -21 45 -4 2 82 4 -95 58 -75 115 86
000010 69 26 57 52 58 c6 22 0a 7f 3c 9b 5b 70 b8 14 f9
       105 38 87 82 88 -58 34 10 127 60 -101 91 112 -72 20 -7
000020 ad 9b 9c 7f fa a3 d0 0e d6 da 74 df f5 dc ee e2
       -83 -101 -100 127 -6 -93 -48 14 -42 -38 116 -33 -11 -36 -18 -30
000030 de eb f9 b3 cb f1 be 2b 3f b6 60 52 36 2d 54 f7
       -34 -21 -7 -77 -53 -15 -66 43 63 -74 96 82 54 45 84 -9
