src/detection/AI4_softmax/model/model.tflite (tflite, 86188 bytes, 42 tensors)

conv2d/bias f4 [32]
000000 15 6f ad 3d 77 7e c3 3d 98 d6 16 bd 80 73 e0 bc
       0.08468453 0.09545606 -0.036825746 -0.027398825
000010 94 30 ae 3d 02 19 21 3e e1 6c b4 3d 3c 18 c7 bd
       0.08505359 0.15732196 0.088098295 -0.09721419
000020 3d da dd bd 6f 26 be 3d f7 e1 e4 bc 17 2d e9 bc
       -0.10832641 0.092846744 -0.02793978 -0.028463883
000030 2e d8 aa 3d a7 63 fa bc 98 61 b3 bd 8b dc e8 bc
       0.08342014 -0.030565096 -0.08758849 -0.028425476
000040 c0 c2 ba bd b1 98 b9 3d 07 d6 7e bc 15 3f a8 bd
       -0.09119177 0.09062327 -0.015553958 -0.08215157
000050 ea 2f 93 3d 03 05 d3 3d bb 12 cb 3d 8f 04 c6 3d
       0.07186873 0.1030369 0.09915682 0.09668838
000060 c3 d4 bc bd f5 ef ee bc 5b cf b8 3d ba d6 c7 3d
       -0.092202686 -0.029167155 0.09023925 0.09757753
000070 2a 95 17 3e 4a d2 d8 3d 28 57 f0 3d 01 4a 30 bd
       0.14802995 0.105869845 0.11735374 -0.043039326

sequential/model/bn_Conv1/FusedBatchNormV3 f4 [16]
000000 3b b5 1d 3f c0 1a 31 3b a6 88 2c 3e 35 11 03 be
       0.6160466 0.0027024 0.16849002 -0.12799533
000010 57 2a e5 3f 7b 7d ec 3f e9 ce 2d 3f 10 36 1e bd
       1.7903546 1.8475794 0.67893845 -0.038625777
000020 a2 d1 81 3f 40 6f 57 bc 57 b2 20 3f 1e 84 74 bd
       1.01421 -0.013149083 0.62772125 -0.05969631
000030 f5 3b e1 3f fd 28 24 bf 8a 06 ef be 21 b3 0b 40
       1.7596422 -0.64125043 -0.46684676 2.1828082

sequential/model/expanded_conv_depthwise_BN/FusedBatchNormV3 f4 [16]
000000 97 50 13 40 40 6d c8 bc 56 e2 8f 3d d0 89 be 3e
       2.3017938 -0.024466157 0.07025592 0.37214518
000010 90 32 14 bf 2a 1d d7 3d bf b7 d2 3f 16 e8 af 3f
       -0.5788965 0.105036095 1.6462325 1.3742702
000020 78 c1 67 be 84 5f b2 3e 39 1a 51 bf d2 05 2a 3f
       -0.22632396 0.34838498 -0.8168064 0.6641513
000030 a0 10 08 3d ec 64 6d be 58 9c 0b bd d3 b5 10 bf
       0.03321898 -0.2318303 -0.034084648 -0.5652744

sequential/model/block_1_expand_BN/FusedBatchNormV3 f4 [48]
000000 f2 f8 00 3f 3a ad 1b be 63 b2 ec bd 55 2e c9 3e
       0.5037986 -0.152028 -0.11557462 0.3929316
000010 46 57 7f 3f 81 00 20 3f 81 b7 8a be b1 c1 64 3f
       0.99742544 0.6250077 -0.27093127 0.8935805
000020 de 21 ee 3e b5 27 2f 3f 65 10 7e 3d e8 78 6e 3f
       0.46510214 0.68419963 0.062027354 0.9315324
000030 9f c6 8a 3e d8 98 4b 3e e0 a3 89 be 62 04 16 3e
       0.2710466 0.19882524 -0.2688284 0.1465011
000040 dd da 3e 3f 82 53 6d 3f 68 ea 45 3f 1e db 7b be
       0.7455271 0.9270555 0.773108 -0.24595305
000050 70 b8 ea 3e c9 62 8d be 26 a8 3f bd 3a 06 3c 3f
       0.4584384 -0.2761443 -0.04679122 0.73447
000060 b1 a4 e4 bd ad 59 09 bf 8f b4 0a 3f ce 97 50 bd
       -0.11164225 -0.5365246 0.5418176 -0.050926022
000070 9a d6 4b 3f 24 3f 79 3f 9a 7f 39 3f bc 57 52 bb
       0.7962433 0.9736197 0.7246033 -0.003209575
000080 53 64 27 3e c2 85 42 bd 2f b8 34 3f 5a 7c 2a 3c
       0.16346864 -0.047490843 0.7059354 0.010405624
000090 db 4a 3b 3e 85 59 e7 bd 40 0f e2 3e 00 4a 14 3f
       0.18290274 -0.11296371 0.4415226 0.57925415
0000a0 01 64 11 3f db 70 23 3f 37 7a 9e 3d 8d 97 2e be
       0.5679322 0.6384408 0.077381544 -0.1705
0000b0 a1 ee 93 3e 4f ed 05 3f e4 d0 a7 3e 8b ed 81 bd
       0.28892997 0.5231523 0.32776558 -0.06344136

sequential/model/block_1_depthwise_BN/FusedBatchNormV3 f4 [48]
000000 b4 0b 69 3f 9e ad fc 3e 20 24 13 3f 14 d8 69 bd
       0.9103348 0.4935121 0.57477 -0.057090834
000010 82 c6 02 3f 00 d9 52 bd b6 d1 23 3e c0 11 4e 40
       0.5108415 -0.05147648 0.15997967 3.2198334
000020 da ac 13 bc f1 8f 14 3e 77 bd 08 3f e6 d3 4e 40
       -0.009013379 0.14508034 0.534141 3.2316833
000030 80 c3 45 3e 8a 42 bb 3e 6c fc c0 bc 97 28 1d 40
       0.19312859 0.36574203 -0.023557864 2.4556024
000040 ec ff f0 bd 75 ed 86 40 db 1b e1 3d 14 cd 6e 3f
       -0.11767563 4.2164865 0.10991641 0.93281674
000050 c7 3c b5 3f 82 8a 18 3f ea 3d 0d 3e 4e 4d 08 c0
       1.4159173 0.59586346 0.1379315 -2.1297183
000060 0f 80 9d 3f 10 9c fd 3d 78 db 1f 3e be c9 85 3f
       1.2304705 0.12383282 0.15611064 1.0452192
000070 24 39 01 be 9d f9 72 be e6 69 15 c0 a5 a2 59 3f
       -0.12619454 -0.23728032 -2.3345885 0.850138
000080 4e 2d 8d 3e 40 ea 74 3d f1 a2 4a bc f9 1e de 3e
       0.27573627 0.05979371 -0.01236795 0.43383005
000090 e2 b4 41 bf 8a da 23 3f 96 3a d3 be 04 ee 9d 3f
       -0.7566663 0.6400534 -0.41255635 1.2338262
0000a0 d8 b2 66 be 10 a2 34 be 58 5e cc 3e 71 13 a5 3e
       -0.22529161 -0.17639947 0.3991573 0.32241395
0000b0 50 41 ed 3d 8b f5 1d bf 34 83 aa 3e 63 b5 5a bd
       0.11584723 -0.61702794 0.33303225 -0.05339564

sequential/model/block_2_expand_BN/FusedBatchNormV3 f4 [48]
000000 b2 e1 24 3f 0c ab 53 3f 68 ce 75 3f 00 9a 88 3e
       0.64406884 0.8268287 0.96018076 0.26679993
000010 45 7b 02 3f dc 8e c3 be 22 64 4c 3f 30 0e 70 3f
       0.50969344 -0.3819493 0.7984029 0.9377165
000020 b3 cd 0f 3f b5 d3 45 be f6 0d 59 3f 56 2b 01 bf
       0.5617325 -0.19319041 0.8478693 -0.5045675
000030 7b 97 7b 3f f8 7f da be 93 e9 f4 3e 3e 54 84 3f
       0.98278016 -0.42675757 0.47834453 1.0338209
000040 6d 1c c8 bd 91 ae ec 3e 1d ae d8 3c ac 18 1a 3f
       -0.09771047 0.46226934 0.026450211 0.60193896
000050 93 89 34 3f e1 c2 3b 3f 14 8f 3f 3e 57 2a 8e 3f
       0.7052242 0.73344237 0.18706924 1.1106671
000060 88 72 5a 3f 2d 8f 11 3f 20 ab 7e 3f af f4 d1 3e
       0.8533101 0.56859094 0.99479866 0.4100699
000070 5f a3 44 3f 42 8a 39 3f 6f 38 7d 3e 63 d9 d6 3e
       0.76811785 0.7247659 0.24728559 0.41962728
000080 2c 01 64 3e 77 a6 c8 3e 82 a1 b0 bd ba 92 b0 3d
       0.22266072 0.39189503 -0.08624555 0.08621736
000090 80 35 18 bf 7a 51 11 be 74 61 1b 3f 7c 0f 08 3f
       -0.59456635 -0.14191237 0.60695577 0.5314863
0000a0 93 19 48 3f b7 48 f6 3e b6 e1 46 3f fc de 50 3f
       0.78164023 0.48102352 0.7768816 0.8159025
0000b0 43 7f 3e 3f bf 59 31 3f 99 b8 24 3f b1 95 4d 3f
       0.74412936 0.69277567 0.64344174 0.80306536

sequential/model/block_2_depthwise_BN/FusedBatchNormV3 f4 [48]
000000 b3 70 a9 3e 42 86 ef 3f 98 6a 18 be f3 a5 ad be
       0.33093795 1.8712847 -0.14884412 -0.33915672
000010 9e 08 e8 3d 7c f6 ac be e1 e1 8c 3e 4c da 0b bf
       0.113297686 -0.33781803 0.27516082 -0.5462997
000020 73 59 a8 be ab af 5a 3d 6c 4b b2 bf 71 38 89 be
       -0.32880744 0.053390186 -1.3929267 -0.26800874
000030 cc cd aa be 16 65 07 bf 8c f8 85 bf 2e 08 10 40
       -0.33360136 -0.5288862 -1.0466475 2.2504992
000040 2d 01 86 3f 64 ef 26 3e d4 c6 65 3d b1 80 c4 bf
       1.0469109 0.16302258 0.05609782 -1.5351774
000050 a7 e4 f2 bf 72 aa bd bd a2 66 be 3f 35 81 1d c0
       -1.8976029 -0.092610255 1.4875071 -2.4610112
000060 81 e6 97 be 8a 14 d7 be 3b e9 2d 40 46 38 b8 bf
       -0.29668048 -0.42007858 2.7173603 -1.4392173
000070 f7 2c 3c bd f4 f7 c8 bd 77 21 7d bf 0b 3c 96 3f
       -0.04594132 -0.09812918 -0.9887919 1.1737074
000080 a6 90 3d 3f 60 9d 92 3d e7 ad 13 3f 55 ab 42 bd
       0.7404884 0.07158923 0.5768723 -0.047526676
000090 ac 2f be bd 6c 6c 8e 3d 94 27 a0 3f 60 15 7f bd
       -0.092864364 0.069542736 1.2512078 -0.062276244
0000a0 9d da 6a 3f 00 ef d4 be d3 03 1a 3f 27 6a 86 3f
       0.9173983 -0.41588593 0.60162085 1.0501145
0000b0 59 af f4 be 3c e5 4a 3f a8 82 09 be 8e 70 b8 bd
       -0.4779003 0.79256034 -0.13428748 -0.09005843

sequential/model/block_3_expand_BN/FusedBatchNormV3 f4 [48]
000000 46 7a d2 3e a3 f3 9d be 0e 0a 67 3e 4a 14 d9 be
       0.41108912 -0.30849943 0.2256243 -0.42398292
000010 22 ad 3e 3f e2 d5 32 be f5 b4 48 3f e6 37 06 bf
       0.7448293 -0.17464402 0.7840112 -0.52429044
000020 5d 79 a8 3e 2b 67 59 3e 3e 2d dc 3e 60 1e 3f 3f
       0.32905093 0.21230762 0.43003267 0.74655724
000030 81 37 0f 3e fb ec f3 bd 9c 3e 38 3e 11 e2 4d 3f
       0.13986017 -0.11910435 0.17992634 0.80423075
000040 88 c9 df be de 4a 40 3f cf 26 5a 3f 72 aa 77 3e
       -0.43708444 0.7511424 0.8521547 0.24186113
000050 a1 11 76 be c3 d2 08 3f c9 b5 47 be df eb 51 3f
       -0.24030162 0.53446597 -0.1950294 0.82000536
000060 c9 58 d2 3e 6a 75 c5 3e 27 08 8e 3e b3 e5 6e be
       0.41083363 0.38566142 0.27740595 -0.23329811
000070 ee 30 70 3f 8a c1 bf bd 26 c2 e8 3e 61 12 c0 be
       0.9382466 -0.093630865 0.45460624 -0.37514022
000080 06 2b 36 be 1c 0e 46 3f a0 11 53 be f2 3f 0a 3f
       -0.1778985 0.7736528 -0.20612192 0.5400382
000090 4c be e3 3e f0 d2 5c 3e 24 e8 8a 3d df 0a 4a 3f
       0.44481122 0.21564841 0.067825586 0.7892284
0000a0 c2 b0 04 3f 0a c0 6a 3f 96 7c 14 bf 20 74 c0 3e
       0.5183221 0.9169928 -0.58002603 0.37588596
0000b0 00 01 5e 3f b4 a0 f5 3c 04 b8 11 3f 26 c4 12 3f
       0.86720276 0.029983856 0.5692141 0.5733055

sequential/model/block_3_depthwise_BN/FusedBatchNormV3 f4 [48]
000000 bc 4b 8b 3f a0 17 b9 3c ec 3d 8b 3f a0 16 0e 3c
       1.0882487 0.022594273 1.0878272 0.008672386
000010 c4 6e af 3f 0c 17 c9 bd c6 b8 04 40 a0 e8 8b 3d
       1.3705678 -0.09818849 2.0737777 0.06831479
000020 0d 55 61 3f dd 89 13 40 7e b5 ae 3e ab 72 10 40
       0.880204 2.3052895 0.34122843 2.2569988
000030 b0 c0 21 be d4 71 a4 3f 02 4d c7 3f 69 5b 04 40
       -0.1579616 1.2847238 1.5570376 2.0680792
000040 a0 c7 21 3e 3a ca 42 bf 54 8c 33 3e 66 0a 13 40
       0.15798807 -0.76089823 0.17534 2.2975097
000050 00 5b 08 bb ff 4b 93 3f 44 a3 2f 3e 7e c5 f6 3f
       -0.0020806193 1.1507567 0.17152125 1.927902
000060 5d b7 83 3f aa 9e 20 40 d0 80 74 be c0 c5 0a bc
       1.0290333 2.509684 -0.23877263 -0.008469999
000070 6e e2 4a bf 68 5e b6 3f 3f 3a fc 3f 20 1c 6b 3e
       -0.79251754 1.424756 1.9705275 0.22959948
000080 a8 45 3b be 9c 5c f4 bd 38 6d ef 3d 6b 4c 9d 3f
       -0.1828829 -0.11931726 0.11690754 1.2288946
000090 f1 44 4c 3f 18 1b e6 3f 54 f8 ab 3e 37 69 ea 3f
       0.79792696 1.7977018 0.33587897 1.8313359
0000a0 48 f0 b8 3f 12 7a a0 3e 53 7c ef 3e d2 33 3f 3f
       1.4448328 0.31343132 0.4677454 0.74688447
0000b0 76 13 bc 3c c8 0b db 3d ad 99 13 40 4c f1 b4 3f
       0.022958498 0.106956065 2.3062546 1.4136138

sequential/model/block_4_expand_BN/FusedBatchNormV3 f4 [96]
000000 a1 22 ad 3e c8 06 3f 3f 72 7a 8a 3d e1 98 c7 3e
       0.33815482 0.7461972 0.06761636 0.38983825
000010 57 5a 24 3f 78 b0 60 3f 53 4b 55 3d bf e6 aa 3e
       0.6420035 0.8776927 0.052073788 0.3337917
000020 ff f2 5b 3f 53 fc 49 be 73 35 5f 3f 49 4c fd 3e
       0.8591766 -0.1972516 0.8719093 0.49472263
000030 4f b7 9c 3e 2e 45 3d 3e 0e cb 07 3f 69 46 71 3d
       0.30608603 0.18483421 0.5304421 0.05890504
000040 1b a8 12 3f 56 61 29 3f 33 48 f3 bc eb 73 65 3f
       0.5728776 0.6616415 -0.029697513 0.8963
000050 6a b6 74 3e ef d9 40 3f 30 70 79 be 0c dd 8c 3e
       0.2389771 0.7533254 -0.24359202 0.27512395
000060 1d 7a 3d bf f3 6a 49 3e ae e7 fc 3e 36 48 aa 3e
       -0.74014455 0.19669704 0.49395508 0.33258218
000070 ae 2e 60 3f 95 84 80 3e 64 83 1c 3f b6 1c 04 3f
       0.8757123 0.25101152 0.61137986 0.5160631
000080 18 5b cc 3e 82 b5 5e 3f 8f 83 00 3f b9 fa 1a 3f
       0.3991325 0.8699571 0.5020074 0.6053882
000090 6b 20 16 3f ee 82 d8 3e 4f 95 fc 3e b2 a1 e2 3e
       0.58643216 0.4228739 0.49332663 0.4426399
0000a0 dd d0 6d 3f 65 46 87 3e 6a 47 bb 3e 9a 35 38 3e
       0.92896825 0.26420894 0.36577922 0.17989197
0000b0 84 25 c3 3e 1d 68 5a 3f 58 5d 33 3f 8d 3b 48 3f
       0.3811456 0.85315114 0.70064306 0.7821587
0000c0 94 2f 97 3e 5e df 7f be 05 09 d8 3e 68 79 33 3f
       0.29528487 -0.24987552 0.4219438 0.70107126
0000d0 d1 5c 05 3f a1 72 d7 be 1e e7 32 3f 3a 41 ed 3c
       0.5209475 -0.42079642 0.69883907 0.028961767
0000e0 11 18 b3 3e 15 51 61 3f fa 9e 5e 3e 53 b0 8b 3e
       0.349793 0.88014346 0.21740332 0.27282962
0000f0 1d 1d e1 3e 0a 48 5d 3f 47 2e 22 3f 38 a2 82 bd
       0.43967524 0.8643805 0.63351864 -0.06378597
000100 1b 03 79 3f dd 6b 6b 3f 2d ab da 3e 7c fc 1c 3f
       0.97270364 0.9196146 0.42708722 0.6132276
000110 95 21 42 3f 9f 5f 00 3f b0 be e8 3e 4a 8d 76 3e
       0.7583249 0.50145906 0.45457983 0.24077335
000120 4a 2c 10 bf da e5 20 3f be e6 c0 3e e2 c2 1a 3f
       -0.5631758 0.62850726 0.37676042 0.6045362
000130 e3 d9 cc 3d da bc 52 3f ab 41 20 3f eb a1 55 3f
       0.10002496 0.82319415 0.626002 0.8345019
000140 4c f1 de 3e 4d f1 41 3e 3c 1b 03 3f ce 6c 79 3f
       0.4354347 0.18939705 0.5121343 0.9743165
000150 d0 64 35 3c ba e6 3d 3f fe 9c 34 3f 5f 17 e0 3e
       0.011071399 0.74180186 0.7055205 0.4376783
000160 15 f7 fb bd 74 77 10 3f 74 24 5e 3e 79 df 63 3f
       -0.123029865 0.5643227 0.21693593 0.8901287
000170 1d 4b 00 3f 2e 8b e5 3e 5f 08 0a 3f 72 3f 20 3f
       0.50114614 0.44832748 0.53919023 0.6259681

sequential/model/block_4_depthwise_BN/FusedBatchNormV3 f4 [96]
000000 a7 44 57 3f 25 df ac be bc ef 76 bf 6a e5 7a 3f
       0.8408913 -0.33763996 -0.96459556 0.9800631
000010 aa c4 0d be 9b 25 a1 3f ec ee 96 3d f1 b6 a2 bd
       -0.13844553 1.2589601 0.073697895 -0.079450496
000020 3c 42 70 3f 62 15 71 bf 21 91 82 3d 96 83 ed be
       0.93851066 -0.9417325 0.063753374 -0.46389455
000030 a2 9d 4d 3f 50 bb 0c bf be ba 87 be d1 56 83 bf
       0.80318654 -0.54973316 -0.2650966 -1.0260869
000040 2e 13 02 3e f7 c4 cb 3e 6a d3 b5 bf 40 dc 94 3b
       0.12702629 0.3979871 -1.4205143 0.0045428574
000050 89 1d 17 bf 80 0f 57 bb 44 ab 6f bf 99 c6 2b 3e
       -0.5902944 -0.0032815635 -0.93620706 0.16774978
000060 48 ad 14 3d 24 a4 96 3f 39 a0 1a c0 00 ca 26 bf
       0.036298066 1.1768842 -2.4160292 -0.6515198
000070 30 c4 11 bf 2f a6 1b bf 28 cf 57 3e 6e b7 b8 be
       -0.56939983 -0.6080045 0.21075118 -0.36077446
000080 19 e9 91 3f e0 50 99 3c ba 64 c2 be ae b6 fc bd
       1.1399261 0.018715322 -0.37967473 -0.12339531
000090 e2 f1 7f 3c da 9a 9f 3f 12 50 c2 3e 24 09 87 3f
       0.015621634 1.2469132 0.37951714 1.0549664
0000a0 46 30 12 bf 3f 8d 73 3f c2 c9 bf bd 8e 6a 93 3f
       -0.5710491 0.951374 -0.09364654 1.1516893
0000b0 70 5a ff 3d a0 53 3c 3e 9f a4 bc 3f ba 75 d3 3e
       0.124684215 0.18391275 1.4737738 0.41300756
0000c0 0c 65 8a bf a2 14 45 be 03 d3 2b bf 30 aa 0a 3d
       -1.0812087 -0.19246152 -0.67118853 0.03385371
0000d0 9f f5 7f bd db 83 77 bf 54 dd b2 be 9e a3 26 3f
       -0.062490102 -0.9668557 -0.34934485 0.6509341
0000e0 30 f8 ca 3d d0 57 31 3f b4 49 80 3e d0 06 8a 3e
       0.09910619 0.69274616 0.2505623 0.26958323
0000f0 64 b3 90 3e a2 af da bd 6c 72 bf bd eb cd 49 3f
       0.28261864 -0.106780306 -0.09347996 0.7882983
000100 fb 2f 18 40 ac 7d 88 3e 61 04 d7 3f 2c 43 cc 3f
       2.3779285 0.2665838 1.6798211 1.5957999
000110 a3 14 a9 be 2c 23 5e bd 21 fa 9d 3f c8 6c 07 bf
       -0.33023557 -0.05423276 1.2341958 -0.5290036
000120 26 23 c7 3d c4 2d 85 3d 59 62 19 bf 58 90 b0 3d
       0.09723501 0.0650287 -0.5991569 0.086212814
000130 b9 d0 a1 3f 97 ad cb 3f 3c 49 a5 3f 17 3c ee 3f
       1.2641822 1.591235 1.2912974 1.8612088
000140 50 0a ae 3f 3d a8 8b be 9d ec 64 3f 24 71 23 40
       1.3596897 -0.27276793 0.89423543 2.5537806
000150 a6 fa 1f be 5e bb b3 be e6 df c4 3f bf 80 d5 bf
       -0.15622959 -0.35103887 1.5380828 -1.6679915
000160 c6 c9 95 3f 88 ee 16 3d 8e 54 82 bf f6 7d d6 be
       1.1702201 0.036848575 -1.0182054 -0.41892976
000170 b4 c0 12 be 6a e6 b8 3e 20 65 04 40 0d ad 8c be
       -0.14331323 0.36113292 2.0686722 -0.27475777

sequential/model/block_5_expand_BN/FusedBatchNormV3 f4 [96]
000000 ca 0b 43 3f 6b 13 c4 3e 72 7f 16 3e 13 f8 55 be
       0.76189864 0.38296065 0.14697054 -0.20895414
000010 cc af 36 3f 8f 1e 4a 3f d8 a4 4d 3f 9c 4a 87 3e
       0.71361995 0.7895288 0.80329657 0.2642411
000020 7b f8 47 bc c9 6e 49 3f 08 ae 43 3e 95 2a 01 bf
       -0.012205238 0.7868467 0.19109356 -0.504556
000030 dd db 00 3f 39 6e e8 3e c9 fd a9 3d cd ac 57 bd
       0.50335485 0.45396593 0.08300359 -0.05265503
000040 56 cf 1f 3f a6 fe 42 3f f3 98 42 bd 12 c6 2e 3d
       0.62425745 0.7616981 -0.047509145 0.042669363
000050 a6 7a 16 3f 14 bb 69 3f 11 b8 59 3f 77 f1 6d be
       0.58780897 0.91301084 0.8504649 -0.23236643
000060 7b 74 12 bf e1 84 ff bd a4 e8 6b 3f 95 f4 d2 bc
       -0.57208985 -0.124765165 0.92151856 -0.025751391
000070 d7 5c 84 3e ba 55 5a 3e b2 95 53 3f af b9 81 be
       0.2585208 0.21321765 0.8265029 -0.25336978
000080 f2 68 4c 3f 88 9d ee 3e ec aa 33 3f 33 ba 22 bf
       0.79847634 0.46604562 0.7018268 -0.6356537
000090 ad 77 f9 3d 0c 58 16 bf 82 f4 5f 3d ee ff a1 3e
       0.121810295 -0.587281 0.05467654 0.3164057
0000a0 ae fe e9 3e 57 6c 88 3e 2f e0 aa 3e 59 5d ae bd
       0.45702118 0.26645157 0.33374164 -0.085138984
0000b0 d8 01 86 3e b3 b6 b1 3e e5 ae 0d 3f f9 43 19 3f
       0.26173282 0.347097 0.5534499 0.59869343
0000c0 26 dd 1a 3f ea 11 fa 3e 2d dd 32 3f 9b c2 ca 3e
       0.60493696 0.48841792 0.6986874 0.39601597
0000d0 e2 01 ce be 13 8b c0 3e 62 b2 74 3e fb e5 ca 3e
       -0.4023581 0.37606105 0.23896173 0.39628586
0000e0 81 e6 9a 3e 05 ae bc 3e 3e 26 51 3f e7 8c 5f 3e
       0.30253986 0.36851516 0.8169898 0.21831094
0000f0 c6 52 79 be 43 27 4f 3f 2f 67 09 3f 12 4b 1a 3f
       -0.24347982 0.80919284 0.5367307 0.602708
000100 63 bf 11 3f 93 ac 3d 3f 64 8a 14 bf 9d c8 d3 3e
       0.5693266 0.7409145 -0.5802367 0.41363993
000110 af 80 22 3f 0e 4c 13 be e9 95 2c 3f 09 78 72 3e
       0.63477606 -0.14384481 0.67416245 0.23678602
000120 fd d0 e3 3e 89 94 e3 3e e5 76 04 3f 7c a0 8b 3e
       0.44495383 0.4444926 0.5174392 0.27270877
000130 1a 26 e0 bd 6e 91 ba 3e 0f e9 d1 3e 86 44 f1 3e
       -0.10944767 0.3643908 0.40998122 0.47122592
000140 a4 a6 dc 3e 8f 56 d8 3e 91 09 43 3f 00 7b f9 3d
       0.43095887 0.4225354 0.7618647 0.121816635
000150 74 90 b0 3e 0a ca 22 3f f5 b7 1f 3e 28 47 6d be
       0.3448521 0.6358954 0.15597518 -0.23171675
000160 c9 d3 6c 3f f4 a5 c0 bd 9c fb 18 3e 7e af 76 be
       0.9251066 -0.09406653 0.14939731 -0.24090382
000170 4c 7b 59 3f 0d 90 cd 3e c3 89 43 3c f5 fd fd bd
       0.8495376 0.40148965 0.0119347 -0.12401954

sequential/model/block_5_depthwise_BN/FusedBatchNormV3 f4 [96]
000000 e0 41 0a be f0 7d a9 3d 44 29 92 be 55 96 6d bf
       -0.13501692 0.08275974 -0.28547108 -0.92807513
000010 98 3e 15 3e 16 df 98 3e e2 1a a3 be 62 90 9b be
       0.14574659 0.298577 -0.31856447 -0.30383593
000020 06 d2 7e 3e 70 a1 81 be d5 2d 44 3f ec ee 1f bf
       0.24884805 -0.2531848 0.76632434 -0.6247394
000030 06 50 1b be 39 c4 b5 3f f7 95 95 3f cb 3e 2c bf
       -0.15167245 1.4200507 1.1686391 -0.67283314
000040 94 d8 0e 40 d0 85 ad 3e 69 08 7e bf c0 2a 12 3d
       2.2319689 0.33891153 -0.9923158 0.0356853
000050 6e 74 92 be 7e 24 4b bf 08 10 b3 be b7 14 63 be
       -0.28604454 -0.7935256 -0.34973168 -0.22175871
000060 53 c0 11 3e af fd 5a bf f6 a0 5b 3d da bc 27 bf
       0.14233522 -0.8554334 0.0536203 -0.6552254
000070 00 a2 ab bb 87 ff 49 bf d6 95 e7 be 30 4e d8 3c
       -0.0052378178 -0.7890553 -0.45231503 0.02640447
000080 4c 2f f8 3f 4b 1a 35 be 96 56 5b bd 70 9d cb bc
       1.9389434 -0.17685811 -0.05354937 -0.024855345
000090 b8 fa 0d bb b4 d1 e2 be 66 fe c5 be 60 95 87 3f
       -0.0021664333 -0.44300616 -0.38670653 1.0592461
0000a0 bc 56 e1 3d 70 ee 0a 3e 02 5e c2 3e 15 5c 43 bf
       0.110028714 0.13567519 0.37962347 -0.7631238
0000b0 d7 4d 99 3f 4c e7 9c 3f b9 c1 8f 3e 0f dd e0 3f
       1.197688 1.2258086 0.28077486 1.7567462
0000c0 f0 09 55 3d b4 07 85 3f 03 80 ba 3f dc d3 cc be
       0.05201143 1.0392976 1.4570316 -0.40005386
0000d0 a8 2c 58 bd a6 cf 76 3e 54 5f 82 3d 61 2a b7 3f
       -0.052776963 0.24102649 0.06365839 1.4309808
0000e0 9e a4 4d be b2 16 b3 bd e8 14 22 40 43 eb 63 3f
       -0.20082328 -0.08744563 2.532526 0.89030856
0000f0 12 d7 95 3f e4 4d 21 40 bd 31 86 3f 8a 28 42 bf
       1.1706259 2.520379 1.0483929 -0.7584311
000100 0a 25 bf bd 4c 6d 39 3f ee dc 2d bf fe ad 1e 3f
       -0.093332365 0.724324 -0.67915237 0.6198424
000110 f8 0f 2a bf 06 5b 77 be 98 3e e2 be a2 4e ad 3e
       -0.66430616 -0.24155816 -0.4418838 0.33849055
000120 39 9d ac 3f 18 d4 83 3e db c1 b3 be 87 f6 93 3f
       1.348548 0.25747752 -0.35108837 1.1559609
000130 c8 1c 30 be e4 da 65 3e d9 07 99 3f a6 57 ab be
       -0.17198479 0.22446781 1.195552 -0.33465308
000140 20 3a 51 3c db 03 e1 3f 2f 3c 15 bf 75 ab f0 3e
       0.012770206 1.7579302 -0.5829496 0.4700581
000150 80 98 99 3f 96 3b 34 3e 0c c4 1b bf 2f 16 19 bf
       1.1999664 0.17600855 -0.6084602 -0.59799474
000160 be a4 38 be 48 b9 a2 bf b4 b1 97 3f f0 9e 03 3d
       -0.18031594 -1.2712793 1.1851106 0.032133996
000170 e8 30 1e bf 30 08 79 bd 2e 71 20 bf 64 66 91 bf
       -0.61793375 -0.060798824 -0.626727 -1.1359372

sequential/model/block_6_expand_BN/FusedBatchNormV3 f4 [96]
000000 e2 18 3a 3e 31 ea a8 bc 4e 89 17 3f 10 7c 44 3f
       0.18173555 -0.020619484 0.59193885 0.76751804
000010 26 bc 20 3f 79 dc d2 be a9 6e 19 3f 9d 27 6f be
       0.6278709 -0.41183832 0.5993448 -0.23354955
000020 b3 7a bd be df b0 1b be 54 5a 22 3f 28 73 de be
       -0.37007675 -0.1520419 0.6341908 -0.43447232
000030 48 4b 0e 3f 37 81 24 3f a8 ad a2 3e d4 08 cb 3e
       0.5558362 0.64259666 0.31773114 0.39655173
000040 c1 46 23 be 1e 7e d8 bd 3c de 8e be 29 fc 1d 3f
       -0.15944959 -0.1057093 -0.27903926 0.6171289
000050 3f 50 d5 3e 6f 3d ae bd 9e 5c b5 3e 89 ff df bd
       0.41662785 -0.08507811 0.35422224 -0.10937411
000060 d0 88 2e be c3 0f 19 3f 37 89 94 3e 91 59 ad 3e
       -0.17044377 0.59789675 0.29010937 0.33857396
000070 c6 14 38 3f ea b7 da 3e c1 a9 04 3f 56 ea 71 3e
       0.719067 0.4271844 0.51821524 0.23624548
000080 34 08 94 3e 49 ea 21 3f a9 c6 1d 3f 53 9b fc 3e
       0.28912508 0.63248116 0.61631256 0.49337253
000090 54 bf cb bd c8 a0 e9 3e 93 4d ca 3e c0 53 07 bf
       -0.09948602 0.4563048 0.3951231 -0.5286217
0000a0 25 4a 94 bd f4 e2 4b 3e f3 cf 03 bc 60 8a 81 3e
       -0.072407044 0.19910794 -0.008045184 0.25300884
0000b0 9f 54 73 be 4c 46 8f 3d 9e 0f 72 be 45 10 29 3e
       -0.23762749 0.0699583 -0.2363877 0.16510113
0000c0 64 9d 37 bf b7 6c 88 3e e9 dc 47 3e fc 8f f6 be
       -0.71724534 0.26645443 0.19517864 -0.48156726
0000d0 a3 80 40 3f fb 65 22 be e5 be aa 3e ac 90 81 3e
       0.75196284 -0.15859215 0.33348766 0.25305688
0000e0 59 d2 7e 3e 63 8e c6 3e d7 ca 16 be c9 dd 9f be
       0.24884929 0.38780507 -0.14725815 -0.31223896
0000f0 24 c4 6c 3d 0e cf 86 3e 08 2e 98 3d fb 76 27 3f
       0.05780424 0.26329845 0.07430655 0.65415925
000100 7e 47 2d 3f f8 23 f3 3e 33 24 c5 3e 42 6a 3e 3f
       0.67687213 0.4748838 0.3850418 0.74380887
000110 06 6f 27 3f cc 04 0e be 9e d1 f8 3e 5f 82 2f 3f
       0.65403783 -0.13869017 0.48597425 0.68558306
000120 80 e2 e4 3e 7f fc 7a be 38 59 34 3f 1c 21 45 3f
       0.44704056 -0.24510382 0.70448637 0.77003646
000130 ad ca df 3d 93 1a 22 bf cc 0f cb 3d 1f 41 9d 3e
       0.10927329 -0.633218 0.099151224 0.30713746
000140 8c 68 6b 3f 6f 8d 94 3e 13 b9 6f bd 92 66 c2 be
       0.919564 0.29014155 -0.05852611 -0.3796888
000150 32 1f 61 3e 5e c7 df 3d 3a 37 86 3e 25 bd bc be
       0.21984556 0.10926698 0.2621401 -0.36863056
000160 4a b4 30 3f 00 44 c9 bc 1f d3 14 3f c9 e1 60 3e
       0.690251 -0.024568558 0.58134645 0.2196113
000170 6a 3c 8d 3c 0e 66 bc be b2 44 f4 bc 2d 40 bf 3e
       0.017240722 -0.36796612 -0.029817913 0.3735365

sequential/model/Conv1/Conv2D f4 [16, 3, 3, 1]
000000 12 3c b2 c0 39 48 e4 c0 78 fa fd bf d8 7a 87 40
       -5.569833 -7.1338162 -1.9842062 4.2337456
000010 12 3d 1c c0 57 a2 82 3f 32 f3 fd 3f f9 10 02 41
       -2.4412274 1.0205792 1.9839842 8.129144
000020 59 8b 98 3f 5f a9 08 42 d1 cd f5 c1 24 e2 5b c0
       1.1917526 34.1654 -30.725496 -3.4356775
000030 07 74 24 c2 b5 3b 07 42 f4 80 f2 40 1f ef 91 40
       -41.113308 33.808308 7.5782413 4.5604396
000040 39 35 d7 be ab 3e 83 c0 0a 96 d2 bf ec 9a 4b be
       -0.42032793 -4.1014 -1.6452038 -0.19883317
000050 c0 ba 53 c0 16 b7 1b 40 ed f8 cf 40 af 1b 0b 41
       -3.3082733 2.4330497 6.4991364 8.694259
000060 0f 12 5b bf 7a 93 cf c0 9e 5b ae c0 76 82 bd 40
       -0.8557443 -6.4867525 -5.4486837 5.9221754
000070 0d 39 c6 40 e8 c0 38 40 3c a3 03 3e 4a 32 80 bf
       6.194464 2.886774 0.12855238 -1.0015347
000080 9d 93 28 bf ed a8 9c c0 25 d2 c4 c0 d6 24 05 c0
       -0.6585024 -4.895621 -6.1506524 -2.0803733
000090 1c 4c 66 3e 75 60 ca be 74 63 19 3c 1e fb 34 3e
       0.22489971 -0.39526716 0.00936209 0.17673919
0000a0 d4 fe 70 bf f2 04 04 3d e6 50 a6 3d 5c 21 27 bf
       -0.94138837 0.03223128 0.08120899 -0.6528528
0000b0 0d 81 78 bd 6f f1 0e bf dc 5e a1 3e e7 45 85 bc
       -0.060669947 -0.5583715 0.31517684 -0.016268684
0000c0 f7 b4 94 bf bb c9 c2 3e a5 1f f9 3c fe 63 4b bf
       -1.1617726 0.38044533 0.030410597 -0.7944945
0000d0 76 eb 8d 3e 92 b8 51 bb fd b4 3d bf 93 2f 58 40
       0.27718705 -0.0032000882 -0.7410429 3.3779037
0000e0 00 e5 ad 40 0c 7c 0d c0 08 d6 16 40 2e 9f 34 bf
       5.434204 -2.2106962 2.3568134 -0.7055539
0000f0 32 69 ca bf 51 16 0f c0 50 a7 73 c0 c4 fd b3 3e
       -1.5813353 -2.235737 -3.807087 0.35154545
000100 5d 51 6e 3e ed 33 13 be f6 a1 77 3f 1f 7f 00 3f
       0.23273225 -0.14375277 0.9673151 0.5019397
000110 74 02 fe bd 10 59 5f 3e d4 c3 08 bc 4d 3f 76 be
       -0.12402812 0.21811318 -0.00834747 -0.24047585
000120 a6 21 2e bf c0 7b 7d bf 35 3b d4 3f 15 2f de bf
       -0.68020093 -0.9901695 1.6580569 -1.7358118
000130 24 c1 32 c0 16 5b 81 40 2e a7 5a bf 5f fe fc bf
       -2.7930384 4.042369 -0.85411346 -1.9765128
000140 28 1c 43 40 b3 14 7b be ce 14 ff 3e a8 07 0e be
       3.0485935 -0.24519615 0.4982056 -0.13870108
000150 80 c3 35 be 9b 38 a3 3f 00 bc 23 be 6b c4 b2 bd
       -0.17750359 1.275165 -0.15989685 -0.0872887
000160 7b e2 69 3f 12 05 c4 bd ab 8e 7f 40 72 d6 62 41
       0.91361207 -0.095712796 3.9930828 14.177355
000170 d5 6e f1 3f 90 5e bf c0 d0 27 a5 c1 d7 08 9a c0
       1.8861948 -5.9802933 -20.64444 -4.813579
000180 87 c6 f4 3f 87 be ce 40 03 28 34 40 04 a3 e9 3f
       1.9123086 6.4607577 2.8149421 1.8252873
000190 31 73 9b c0 b7 cb 1a 40 26 ab 85 41 0b bf c0 c1
       -4.8578115 2.4186838 16.708569 -24.093283
0001a0 dc 38 10 41 96 ef ae c1 d2 23 03 42 9f bb 3e c1
       9.013882 -21.866985 32.78498 -11.920806
0001b0 f0 a4 5b c0 23 a7 82 40 49 30 56 bf 0c dd 29 c1
       -3.431942 4.0829024 -0.8366743 -10.6164665
0001c0 02 93 18 41 4d 93 ee 3e 7c 09 d1 c0 c8 ab d3 40
       9.535891 0.46596757 -6.5324078 6.6147194
0001d0 ca b2 d7 3e 35 30 c5 3e 5c 5a e5 3d 50 50 86 bd
       0.42128593 0.38513342 0.11198875 -0.06558287
0001e0 a5 30 12 3f 54 25 f8 3e 62 05 4d bd 57 6f d0 3e
       0.57105476 0.4846598 -0.05005396 0.40709946
0001f0 af e7 12 3f 2f c9 50 3e 77 4a ee c0 14 a4 d9 c0
       0.5738477 0.20389245 -7.44659 -6.801279
000200 14 a7 3f 41 60 ab 31 41 2e be c4 41 e6 ce fb c1
       11.978291 11.10434 24.592861 -31.476025
000210 23 e7 78 c0 11 4b 8a c1 d6 b1 a1 41 a7 5f 5d bf
       -3.8891075 -17.286654 20.211834 -0.8647408
000220 2e 47 8a be 99 76 56 3e 96 4f a2 bf 4d 0b a5 bf
       -0.2700743 0.20943679 -1.2680538 -1.2894074
000230 53 4c 34 3e 25 4b 63 be ad cb 48 bf 84 f2 d3 bd
       0.1760724 -0.22196634 -0.78435785 -0.103489906

sequential/model/expanded_conv_project/Conv2D f4 [8, 1, 1, 16]
000000 62 85 ad bd 7b 78 d8 bd de 49 0d be 31 5f f4 be
       -0.084727064 -0.10569855 -0.1379771 -0.47728875
000010 56 5b 35 be 5f 8c 76 be ea c9 12 3e cf 0c 0a be
       -0.17710623 -0.24076985 0.14334837 -0.13481449
000020 d1 99 8b 3e f5 40 8c 3d bb 5c 7a be 75 5d 3f bd
       0.2726579 0.06848327 -0.24449436 -0.046719987
000030 92 2a 49 3f 44 36 67 3f d0 54 1e be c7 a7 42 bf
       0.7858058 0.9031718 -0.15462041 -0.7603726
000040 cc 1c a5 3f ed 68 1d bf f4 4a da be f6 b4 09 3e
       1.2899413 -0.6148823 -0.4263531 0.13447937
000050 19 ae f1 be 33 8b 3a 3f ca a8 33 bf fe b4 f3 be
       -0.47203138 0.7286865 -0.70179427 -0.47599024
000060 d3 08 c6 be 9c 29 52 3f 50 ec a3 be 95 ba 07 bf
       -0.38678607 0.8209474 -0.3201623 -0.53019077
000070 73 2e 84 bd 4d bc e7 3c 1c f5 27 bf 55 00 3e be
       -0.06454172 0.028288031 -0.6560838 -0.18554814
000080 e8 65 83 be 3a 8b 36 bf c9 b7 a4 3e 7b e4 94 3e
       -0.25663686 -0.7130619 0.32171467 0.29080567
000090 20 4f bb 3e 7a ab d6 be ea 28 1b bf 52 38 31 be
       0.36583805 -0.419277 -0.60609305 -0.1730664
0000a0 17 07 69 3e a8 d2 30 bf d5 4f 61 3e c5 b6 74 bf
       0.22756611 -0.69071436 0.2200311 -0.95591384
0000b0 0e 05 b0 3e 4b 5e 33 be 71 57 10 bf 73 11 3b 3e
       0.34378856 -0.17516439 -0.56383425 0.18268375
0000c0 28 69 b9 3e 72 8a f3 3d d0 60 29 3e 62 9b 29 3e
       0.3621304 0.11891641 0.16540837 0.1656318
0000d0 ee bd 0b be 81 1e 35 3f 76 31 05 bf 0a 43 36 be
       -0.13646671 0.7074967 -0.52028596 -0.17799011
0000e0 c3 d1 a7 3f 26 4f e6 3e 55 7e 9b 3d a3 c8 4d 3e
       1.3110889 0.4498226 0.07592455 0.20096068
0000f0 fb ce 0d 3d 5a d4 13 be 26 85 b3 3d 84 fa 82 3e
       0.03462122 -0.14436474 0.087656304 0.25581753
000100 f9 f3 5f bf 41 e8 b9 be c7 46 60 be 92 9b 9e bf
       -0.8748165 -0.36310008 -0.21902 -1.2391226
000110 84 00 72 bd c5 53 be 3e 57 26 f7 3e 4f 95 95 bf
       -0.059082523 0.37173286 0.48271438 -1.168619
000120 7d a9 a7 3e 9f e7 3e be 26 69 cc be d9 0a b8 be
       0.32746497 -0.18643044 -0.39923972 -0.35945776
000130 25 2a 95 bf 9e 15 a7 3e 80 56 b7 be 09 40 54 be
       -1.1653486 0.3263368 -0.35808182 -0.20727552
000140 3e d7 20 3f b2 62 c8 3e 29 f2 f2 3e 5b f6 22 be
       0.62828434 0.391378 0.4745038 -0.1591429
000150 23 51 bb 3e 4b 3f a7 be c2 ba 6d bf 5b 9c 5d bf
       0.3658534 -0.32665476 -0.92863095 -0.86566705
000160 1e 0b d1 bd dd 84 08 bf 71 f1 fe 3e 25 b3 c2 3e
       -0.102071986 -0.53327733 0.4979358 0.380273
000170 cf 8d d1 be c7 d1 c0 3e 3a a8 e9 3e 63 fb a9 be
       -0.40928504 0.37660047 0.4563616 -0.33199605
000180 84 0d 56 3f c7 46 a8 3e 56 fd 83 bf 19 47 1a bf
       0.83614373 0.328665 -1.0311687 -0.60264736
000190 dc 7b 43 3e f1 f8 17 bf ac 40 31 3d 98 d9 38 bf
       0.19090217 -0.5936423 0.043274567 -0.7220702
0001a0 81 f3 ab be ef e2 1a 3e 0a 7b 87 bf 74 86 43 3f
       -0.33584216 0.15125631 -1.0584424 0.76377034
0001b0 24 24 41 3f 8f 5a 40 bf 18 f7 80 3d 2e a1 11 3f
       0.7544577 -0.7513818 0.062971294 0.56886566
0001c0 eb f3 b6 bf 95 9b 38 bd 12 d7 8c 3f 9c 9e aa be
       -1.4293188 -0.04507025 1.1003134 -0.33324134
0001d0 81 40 3b bf 88 8d fa 3c ae 0b 24 bd fd 2c 34 bf
       -0.731453 0.030585065 -0.0400502 -0.70381147
0001e0 77 ef 17 bf 28 b5 37 3f ff 39 7b 3f bd fc c4 be
       -0.5934977 0.717608 0.9813537 -0.38474074
0001f0 a9 32 33 3f 0b 26 8c be 04 f9 a7 3e a2 2d b0 3e
       0.69999176 -0.27372774 0.3280717 0.34409815

sequential/model/block_1_expand/Conv2D f4 [48, 1, 1, 8]
000000 4b c5 3a be 01 17 05 3e 63 9b 2d 3c c5 a3 80 bd
       -0.18239324 0.12997057 0.010596129 -0.062812366
000010 47 77 b5 be 3a 6c 1a be 7a a1 0b bf e8 c7 1d 3e
       -0.35442564 -0.15080348 -0.5454327 0.1540829
000020 9c a0 c9 3e 4e 41 94 be 45 72 7f be 24 cc 83 be
       0.39380348 -0.28956074 -0.24945934 -0.25741684
000030 1e 5a 11 3f d0 4f aa be 47 ad e5 3e 05 78 8f 3d
       0.5677813 -0.33264017 0.44858763 0.07005314
000040 04 97 8f be 90 7e ae 3e b3 44 01 be 49 c6 b5 be
       -0.28044903 0.34080935 -0.12623863 -0.35502842
000050 d3 1c 17 3e 1e e3 81 bd ad 9a 9e bd fc b9 e4 3d
       0.1475709 -0.06342147 -0.07744346 0.11168286
000060 08 bf 30 3e 72 ce 92 3d 89 64 99 3e 54 2b 03 3d
       0.17260373 0.071682826 0.29959515 0.032023743
000070 e7 22 aa 3e 16 67 d5 3e db 9b ef 3e 24 cc 83 bd
       0.33229753 0.4168021 0.46798596 -0.06435421
000080 78 d7 62 bd a9 a5 d1 bd 32 eb 66 3d 7b 39 0d 3c
       -0.05538127 -0.10236675 0.056376643 0.008619661
000090 f1 fb 2e bd 26 02 b6 bd bc 3b 8e 3b 96 ca db bc
       -0.04272074 -0.088871285 0.004340617 -0.026829999
0000a0 b5 74 d3 3e 1c a2 9d bd b4 87 60 3e fc ae 59 3e
       0.41299978 -0.076969355 0.21926767 0.21258157
0000b0 62 e4 6b be a0 60 18 bd fe 3a aa 3a 7e b0 ad bd
       -0.2303634 -0.037201524 0.0012987552 -0.08480929
0000c0 bf 58 e3 3d 2a 03 2c 3e 2a ea 1e 3f e4 b9 04 be
       0.11100911 0.16798082 0.62076056 -0.12961537
0000d0 24 b8 58 3e 5f ca 22 be a0 e1 53 be ec 79 1d 3e
       0.21163994 -0.15897511 -0.20691538 0.15378541
0000e0 ae 44 7b 3d f0 0f 37 3c 85 1f 81 be 12 90 95 bd
       0.061344795 0.011173233 -0.2521936 -0.0730287
0000f0 fb 6e a9 bd 1d 7b 40 3e a8 ea 40 3e 55 93 1f be
       -0.08273121 0.18796964 0.18839514 -0.15583546
000100 de c8 b1 bb ac 7a d2 3e 45 4e db bd af c5 63 3c
       -0.0054255566 0.41109216 -0.10708288 0.013902112
000110 7f ba 52 3e 8d 6a c2 3e ac ce 34 3e 93 0a 3e 3e
       0.20578955 0.37971917 0.17656964 0.18558721
000120 d9 5c 83 3a d4 f5 2b 3f bd d6 a0 be c3 e3 09 3f
       0.0010022178 0.6717198 -0.31413832 0.5386316
000130 99 20 07 3d a2 9a 2b bf 68 b0 7d 3e 03 10 21 3f
       0.032990072 -0.67032826 0.24774325 0.62915057
000140 0f c1 6d 3c dc 5f f1 be 40 62 13 bc 12 53 dc bd
       0.014511361 -0.47143447 -0.008995593 -0.10758032
000150 52 0e 93 be 70 6b e3 be 5e c8 55 be 25 b6 99 be
       -0.28721863 -0.44417906 -0.20877215 -0.30021778
000160 99 1c a6 be 7e 96 56 be bc fe 8b 3e f5 46 01 3e
       -0.32443693 -0.20955846 0.27342784 0.12624724
000170 de 0c b2 bc 1f 92 2f be aa f8 87 3e a8 76 21 3e
       -0.021734651 -0.17145585 0.26556903 0.1576792
000180 29 c9 78 bd 9a b4 b6 3d 5b fb 8a be 84 d8 37 3e
       -0.060738716 0.08921166 -0.27144894 0.17953688
000190 b2 ca 8d 3d bc 22 fb bd 80 7c 1a be ca 2d 5c 3e
       0.06923427 -0.122624844 -0.15086555 0.21501842
0001a0 ff ad a5 3e 6b a8 ef be 89 3e a9 3e c6 24 93 3e
       0.3235931 -0.4680818 0.33055523 0.28738993
0001b0 e5 46 bc 3c d3 79 e0 3d a2 68 f9 3d f3 30 67 be
       0.022983024 0.10960736 0.1217816 -0.22577266
0001c0 75 9d c1 bd 0f ce 84 3e b1 c0 d5 bd 8f 2a c6 be
       -0.09453861 0.2593846 -0.104371436 -0.38704345
0001d0 51 e4 bf bd 81 12 b1 be 1f e7 e5 bd 54 88 2a be
       -0.0936972 -0.3458443 -0.112257235 -0.16653568
0001e0 c5 28 05 3e b9 32 ac 3e 7b ff c5 3d ae 04 52 bd
       0.13003834 0.33632448 0.0966787 -0.051273994
0001f0 22 4d f3 3d be 39 49 be 95 c5 9c 3e 15 ae c6 be
       0.11879946 -0.19650933 0.30619493 -0.3880469
000200 fc cc 63 be 40 e4 87 be 98 18 ea bd 29 5d 55 3e
       -0.22246164 -0.26541328 -0.11430472 0.20836319
000210 fd b2 df bd 43 1a 96 3d 00 fc cc bc 2b 76 2d 3e
       -0.10922811 0.07329228 -0.025022507 0.16939609
000220 39 6f 9f bc d6 7e c1 bd 32 6b e4 bd 37 39 93 3d
       -0.019462215 -0.0944802 -0.111532584 0.07188647
000230 ac 48 51 bd 23 e5 83 3d 57 51 42 bd 59 47 7a 3d
       -0.051094696 0.06440189 -0.047440853 0.0611032
000240 3e c2 50 be 7b 79 2a be 79 a4 b0 bd e5 31 5d 3e
       -0.20386598 -0.16647904 -0.08625121 0.21601065
000250 9a b7 f4 bc cd 4b 19 3e 10 1c 73 bc cc 64 8e 3e
       -0.029872704 0.14970322 -0.014838234 0.27811277
000260 a4 a1 4d 3e 52 d5 e2 be 36 e2 ba 3e 91 80 ee be
       0.20081192 -0.44303375 0.3650071 -0.46582463
000270 91 69 43 3d 77 76 75 be e7 65 f4 3d a4 1c f2 bd
       0.047708098 -0.23970972 0.11933499 -0.11821869
000280 04 4b d9 bb a8 1a b4 3e 63 ed 13 3e 0c 3e 29 3d
       -0.006631257 0.35176587 0.14446025 0.041318938
000290 ea 4a 61 3e 56 c0 15 3f fa c0 b4 3e 27 f9 8f bd
       0.22001234 0.58496606 0.3530348 -0.07029944
0002a0 7e 25 52 3d e9 62 4f 3e 9f 7b ae 3d 7c 4a 75 bd
       0.051305287 0.20252575 0.085196726 -0.059885487
0002b0 48 48 95 3d c8 b2 f7 bd ef 73 2b 3e bd cd 67 be
       0.07289177 -0.12094647 0.16743444 -0.22637077
0002c0 7e 7f 06 3e fa 39 7c 3d 3e 3b f1 3e ab 80 a8 3d
       0.13134572 0.06157873 0.4711551 0.082276665
0002d0 95 89 e9 bc 51 bc 20 3f d3 04 1a 3e b8 95 34 be
       -0.028507987 0.6278735 0.15040903 -0.17635238
0002e0 8c f7 b5 be 98 ab 85 be cc c8 07 3e e1 bd 7d be
       -0.35540426 -0.26107478 0.13260192 -0.24779464
0002f0 33 38 a4 3e 74 34 b1 3e d4 31 4f be 1d bf f6 be
       0.32074127 0.3461033 -0.20233852 -0.48192683
000300 bc 4c ff be f8 6d ea be 7d 6f 1d 3e c5 f8 ec be
       -0.4986323 -0.45787024 0.1537456 -0.46283546
000310 a1 53 14 3f 04 a5 09 3f 4e 99 7c be 2a 7b 2a bf
       0.5794011 0.5376742 -0.24667856 -0.66594183
000320 b7 84 88 3f 07 c6 bc 3d ad 8b fe be b0 34 e1 bd
       1.0665501 0.09217458 -0.4971594 -0.109963775
000330 3b 65 00 3e 4a 5a 83 3e d1 49 08 bf 17 19 af bd
       0.12538616 0.25654823 -0.53237635 -0.085497074
000340 b1 6b d2 be b2 b0 f5 bd e1 e2 d2 be 07 c3 b5 bd
       -0.41097787 -0.119965926 -0.4118872 -0.08875089
000350 6f cf 36 be e4 b2 e1 bd e6 2c 8a 3d 81 ae bc bc
       -0.17852567 -0.11020449 0.06746845 -0.023032429
000360 05 22 49 3f cd ed ad 3e 97 1f 1e bd ce 8d 20 bf
       0.78567535 0.3397049 -0.038604345 -0.62716377
000370 63 90 9b bf 1e b0 96 be 19 73 5f 3f 9a 39 59 3f
       -1.2153438 -0.29431242 0.87285 0.8485352
000380 bd 28 ba be db d8 78 be fb f0 49 3c bf 24 02 3e
       -0.36359206 -0.24301474 0.012325521 0.1270933
000390 6b 2b 5d be f5 f9 9a be 6f 6c aa 3b 10 54 26 3c
       -0.21598594 -0.30268827 0.0052009146 0.010151878
0003a0 d6 31 a2 3d 79 3f 87 3d 31 b8 d0 3c 4f b2 a3 bd
       0.07919662 0.06603903 0.025478454 -0.07992994
0003b0 a3 bb 99 3c ef 8b 68 3c af 1f 16 bd 4c 42 81 bd
       0.01876623 0.014193519 -0.03665131 -0.06311473
0003c0 2c 8f 9d be c6 70 83 be 7d 48 14 3e f9 80 72 be
       -0.30773294 -0.25671977 0.14480777 -0.23682012
0003d0 5a 7d 8c 3e 57 dc a4 3e f0 6f 3d be 37 16 f0 be
       0.27439386 0.32199356 -0.18499732 -0.4689195
0003e0 58 0a cf 3e 22 a3 b9 3e 89 2a 03 bb 86 cb 7c 3f
       0.4043758 0.36257273 -0.0020014367 0.9874805
0003f0 45 a9 9f 3d b2 a1 19 bf 93 08 91 3d ee 0c 75 3d
       0.077959575 -0.6001235 0.070817135 0.059826784

sequential/model/block_1_project/Conv2D f4 [8, 1, 1, 48]
000000 d4 aa eb be ab c2 1c bd 0a f2 af 3e 7e cf c4 3d
       -0.4602877 -0.038271587 0.3436435 0.096098885
000010 1d 2e ba be 69 1c 20 be 30 e7 a1 3d 6c 50 4b 3d
       -0.36363307 -0.15635838 0.07905424 0.049637243
000020 ad 0a ee be 8e 56 92 bd 83 f6 2c bf 89 c3 10 bf
       -0.4649252 -0.07145415 -0.6756365 -0.5654836
000030 18 6c 84 be 5d cf 2a bf 25 2d e9 bd 21 f5 ab be
       -0.2586372 -0.6672266 -0.11385564 -0.33585456
000040 e4 64 ef 3e 7a a4 cc be e4 0d c0 3e 86 e7 e5 3e
       0.4675666 -0.39969236 0.37510598 0.449032
000050 56 25 34 be 0c c7 9f 3e 50 b3 bd be 93 bc 1d 3e
       -0.17592368 0.31206548 -0.37050867 0.15403967
000060 e7 60 b5 3c 44 2b d0 be 1c 3b 0f 3f 93 de 03 be
       0.022140933 -0.4065801 0.5594957 -0.12877874
000070 70 56 74 bd b0 14 5a be 1a 19 2d 3e a7 d7 06 3e
       -0.059652746 -0.21296954 0.16904107 0.13168202
000080 71 76 5a 3f e0 0c b4 3e 23 c5 bd 3e 09 5c a8 bf
       0.8533698 0.35166073 0.37064466 -1.3153087
000090 f0 01 47 3e 40 01 bc bc 3f ab 2c be 26 ae a9 be
       0.19434333 -0.022949815 -0.168622 -0.33140677
0000a0 e8 62 0e 3d 6d 42 33 be 0f dc e6 3e b0 71 00 3f
       0.034762293 -0.17505808 0.45089766 0.50173473
0000b0 44 4b b8 3e 29 a0 46 3d 48 2b 85 3e 45 fc 3f 3d
       0.35994923 0.048492584 0.26009583 0.046871442
0000c0 c3 73 9d bc 5f 20 56 3e 29 1f b5 3e c3 c9 45 be
       -0.019220239 0.20910786 0.35375336 -0.19315247
0000d0 e6 4c ac bd 0a 9d 86 3e 3b 8d 98 be f4 46 25 be
       -0.08413105 0.26291686 -0.2979525 -0.16140348
0000e0 41 c1 25 bc cf 67 0f 3e e0 9e 7e bd 23 4b 09 bf
       -0.010116876 0.14004444 -0.062163234 -0.53630275
0000f0 2f d5 4e 3d 37 aa fd 3e b4 30 bb bd 2e 89 a4 3e
       0.050496276 0.49543926 -0.09140149 0.3213591
000100 2f cd f5 bd 2d 3e 14 3e d1 8f 25 be 68 ac a9 be
       -0.12002026 0.14476843 -0.16168143 -0.33139348
000110 3c 0c 9f 3d 39 d4 ea be ad 4a 01 be 4c ad 0d 3e
       0.077660054 -0.45865038 -0.12626143 0.13835639
000120 a2 f0 d0 be e0 03 f7 bd 7c 5c 45 bc 50 9e 27 bf
       -0.40808588 -0.12061286 -0.012045976 -0.6547594
000130 8f 4e 1f be 4e 60 b1 bd 05 27 33 3e 4f a5 9a be
       -0.15557311 -0.08660947 0.17495354 -0.30204245
000140 c1 ce 93 3e 86 51 ea 3e 44 7c 7d be 87 73 e1 bb
       0.28868678 0.45765322 -0.24754435 -0.006880227
000150 25 ae 3c 3f 3c 01 57 be f0 58 19 bd a3 d3 98 3e
       0.73703223 -0.20996565 -0.037438333 0.29848966
000160 97 80 4a be 79 72 6a 3e 41 5d f0 be cf 0a 53 be
       -0.19775616 0.2289523 -0.46946147 -0.20609592
000170 23 0a 25 3f 15 93 e5 bd f4 8c 59 be 94 51 32 be
       0.6446859 -0.11209694 -0.21245176 -0.17413932
000180 3b 2e cb bc 7a 17 25 be 8a 81 ca be 9d 2f 94 3d
       -0.024802318 -0.16122237 -0.39551955 0.07235644
000190 0f 25 02 bd fc 98 94 3e 52 f0 23 3e 2a d6 d2 3c
       -0.031773623 0.29022968 0.16009644 0.025736887
0001a0 f9 29 84 bd 1b 89 89 3e 99 7a ca bb d3 96 2e 3e
       -0.06453318 0.26862416 -0.0061791656 0.17049722
0001b0 c3 8c cc 3e e9 79 12 bf 31 20 05 3e 24 65 c7 be
       0.39951143 -0.5721727 0.13000561 -0.38944352
0001c0 54 11 62 3e 18 29 0b bf 75 7a fb 3d 3f 51 3d 3e
       0.22076923 -0.5435958 0.12279216 0.18488024
0001d0 96 34 18 be 94 15 a4 3e 39 3d c1 bc 50 ef 2f 3e
       -0.1486381 0.32047713 -0.023588764 0.17181134
0001e0 47 a1 f6 bd c2 1a b0 3e 02 cf 1f be 2c f7 dd be
       -0.1204248 0.34395415 -0.15606311 -0.4335264
0001f0 66 4a e4 3d b5 de 14 3d 1a a9 04 3e d8 b3 e4 be
       0.11147003 0.036345202 0.12955132 -0.4466846
000200 e5 c7 85 be 09 d5 07 bf 1b d5 76 3e 9e 9d 5b be
       -0.2612907 -0.5305944 0.24104731 -0.21446845
000210 f6 e1 29 3f 26 53 ec 3d 15 e2 e0 bd 27 18 b8 be
       0.66360414 0.11539297 -0.10980622 -0.35955927
000220 c2 8e 7a bc 53 f0 36 3e 80 ef 02 3f cd 47 2e 3e
       -0.015292825 0.17865114 0.511467 0.17019577
000230 6f ed 49 3f c6 a0 ee 3d 7d 44 e3 3d bc fc 21 3e
       0.7887792 0.11651759 0.110970475 0.15819067
000240 f1 62 54 bd b1 67 64 3e 7d e1 ff be 03 31 95 3e
       -0.05185217 0.2230518 -0.4997672 0.29138955
000250 13 b2 96 3d 2e f0 93 be 22 d9 05 bf 26 4d 41 bf
       0.07358184 -0.2889418 -0.52284443 -0.75508344
000260 a5 cf 6c 3d ab 2f 3f be d4 63 85 be 61 b6 14 3a
       0.057815213 -0.18670528 -0.26052725 0.00056729285
000270 48 d4 d9 3c 6e 0f 37 3e 8c 58 8c 3e 32 4d 10 3f
       0.026590481 0.1787698 0.27411306 0.5636779
000280 a1 af 71 bd b7 8e 07 3e 17 bf 8c be f5 89 5a 3e
       -0.059005383 0.13238035 -0.2748954 0.21341689
000290 1e 97 42 3d ff b5 3d bf cb 6d 76 3e bf ab e5 be
       0.047507398 -0.7410583 0.2406532 -0.44857594
0002a0 14 e8 08 bf 48 5f be bd b3 ef 78 3f fa 09 a5 bd
       -0.53479123 -0.09295517 0.9724075 -0.080585435
0002b0 a0 f6 a7 be a1 ba 5e 3b ea d5 03 bf 76 4e 15 3e
       -0.32805347 0.0033985751 -0.5149828 0.14580712
0002c0 f3 85 df bc 9d 20 1e bf ea 60 84 3d da 49 ff bd
       -0.027285552 -0.61768514 0.064637974 -0.12465258
0002d0 ff 7a 2d be dd e0 a6 be 67 b3 4b be f9 f3 49 3f
       -0.1694145 -0.32593432 -0.19892655 0.788879
0002e0 b7 5e bf be 6c b0 95 be 56 ef 10 3c 8d 08 e6 3d
       -0.3737695 -0.29236162 0.008846125 0.112321
0002f0 1f 2c 8a 3e 70 05 64 3c 73 fe 9d be 94 16 9d 3e
       0.26986787 0.013917312 -0.30858192 0.30681288
000300 c0 3a 58 be 3a 6f d9 be dc 6d 83 bd 9f a5 95 3d
       -0.21116161 -0.42467672 -0.064174384 0.0730698
000310 45 49 83 3e 59 71 83 be 35 d4 ef bd 8f b3 95 bd
       0.25641838 -0.25672415 -0.11710397 -0.07309639
000320 04 03 7b 3e 9f f5 7b be 21 99 04 3f 6c 53 29 bf
       0.24512869 -0.24605416 0.51796156 -0.66142917
000330 f7 d2 31 3d 89 58 82 3e 2b 1c 8e 3d 94 97 ae 3d
       0.043414082 0.25458172 0.06938966 0.08525005
000340 03 94 1a be 66 a1 58 be cf 3e aa 3d 01 63 f5 bd
       -0.15095524 -0.21155319 0.08312761 -0.11981774
000350 4e 5f 35 bd 59 98 db be 8d 58 b8 3c ee 6a 28 be
       -0.044280343 -0.4288967 0.022503162 -0.1644704
000360 29 9e 0c 3e 0c e9 b2 bd bf 62 b3 3e 67 4e ca 3e
       0.13732208 -0.087358564 0.35036275 0.3951294
000370 7c 4e 93 3e fe 92 38 3e 9a 97 01 be 10 b8 57 3e
       0.28770816 0.18024823 -0.12655488 0.21066308
000380 24 bf ae bd a3 d0 78 3c 31 b0 af 3c 17 e5 c5 bb
       -0.08532551 0.015186462 0.02144632 -0.0060392725
000390 70 66 13 bf 47 f2 36 3f 81 ff 9a 3e c4 39 3c be
       -0.5757818 0.71463436 0.3027306 -0.18381411
0003a0 02 37 68 3e a7 0c 2d be 37 6b 28 be bb 09 4d be
       0.22677234 -0.16899358 -0.16447149 -0.20023243
0003b0 d4 5e 27 bf 0c 9d ee 3d b3 0c 88 3f 4c fb b3 3d
       -0.6537907 0.11651048 1.0628875 0.087881655
0003c0 30 d5 89 3e 43 d5 fb bd 3f 6f 3e 3b 12 c4 e1 3d
       0.26920462 -0.12296536 0.0029058007 0.110237256
0003d0 5f e1 2f 3e 74 73 80 be 97 80 5d 3e 04 87 4b bf
       0.17175816 -0.25088084 0.21631084 -0.7950289
0003e0 ad 1b 2b 3e 80 20 2c be b4 8b 89 bd 09 24 3d 3f
       0.16709776 -0.16809273 -0.067160994 0.7388311
0003f0 61 09 f8 be 20 07 d7 3e 76 68 19 3e fd 6d d7 be
       -0.48444656 0.41997623 0.14981255 -0.42076102
