src/AI/model.tflite (tflite, 301616 bytes, 47 tensors)

sequential_5/conv2d_28/BiasAdd/ReadVariableOp f4 [16]
00000000: 988f 82bf 3dc3 77bf ce0b 4fbf 23e6 543f
00000010: 4767 96bf 2318 29bf 96f2 2abf c00b 35bf
00000020: 277a 943e 8489 a0be 5c26 ee3d e265 57bf
00000030: 9ce1 debe 877f 0abf e67b 5dbf a4b0 45bf
-1.0200071 -0.96782285 -0.8087739 0.8316366 -1.1750268 -0.66052455 -0.66776407 -0.70721054
0.28999445 -0.31354916 0.1162841 -0.84139836 -0.435315 -0.5410084 -0.8651718 -0.7722266

sequential_5/conv2d_27/BiasAdd/ReadVariableOp f4 [52]
00000000: 06ba 75bd f78a 803e 91b4 c4be 8cb0 75bd
00000010: 511f d1bd 1a7c 2a3e 0ce8 f7be ac79 9ebe
00000020: d67a d4bd 5c62 3f3e 5276 9fbe fe5f c6be
00000030: eced 0fbd a9d4 62bd c690 853e d0a8 0cbd
00000040: 46dc a3bd df72 98be fce0 003e 33a1 463f
00000050: 122e 37be ce7e e7bd 36df 24bf 2e77 1dbe
00000060: 725e 2cbe 99b4 55be fc87 783e a75e 08bf
00000070: cd2a 6fbd fd63 ddbe 756f c0bd 813d 1ebf
00000080: b819 e93e 185b 29bc 9c5b 953e 4b02 64bf
00000090: b15b 80bd cfa1 373e bae3 b4bd 4f6b d93e
000000a0: 70b8 62bd 2ff1 1abe b896 bdbd 5ad4 5ebf
000000b0: d4b2 26be 0673 b8be 72eb 703e 48d7 0c3f
000000c0: 1444 b5be abd7 523d a9fc 72bd a155 1a3d
-0.05999186 0.25106022 -0.3841901 -0.05998282 -0.10211051 0.16648903 -0.48419225 -0.30952203
-0.103749916 0.18689865 -0.3114496 -0.3874511 -0.03513901 -0.05537859 0.26087016 -0.03434068
-0.08000998 -0.2977514 0.12585825 0.7758972 -0.17888668 -0.11303483 -0.6440309 -0.15377495
-0.16832903 -0.20869674 0.24270624 -0.5326943 -0.058390427 -0.43240348 -0.09396259 -0.618126
0.45527434 -0.01033666 0.29171455 -0.89066 -0.06267489 0.17932819 -0.08832498 0.42464682
-0.055351675 -0.15131067 -0.09257263 -0.8704277 -0.16279155 -0.36025256 0.23527315 0.55015993
-0.35403502 0.05147521 -0.059322987 0.03767932

sequential_5/model_14/bn_Conv1/FusedBatchNormV3 f4 [32]
00000000: a37c 1440 90f8 3940 4d3c 9fbf 849a 9bbf
00000010: e2e2 5d40 31f7 5e40 5383 ddc0 f8bc 22c0
00000020: ef2f 2e40 d31f 1340 616f 23c0 d3f3 98be
00000030: 0113 48be f7fc abbf de47 3d40 ffd9 4540
00000040: 8842 2b3c dc82 2640 ffb7 92c0 b87c a7bf
00000050: 928e 2440 8a4e 6040 3d21 0a40 dc63 8fbe
00000060: 0a43 4b40 cd69 4440 5ea9 2b3e 95b1 3340
00000070: 956b b33d c582 2540 fcb3 2cc0 e3ee 9740
2.3201072 2.905796 -1.2440277 -1.215653 3.4669728 3.4838374 -6.922281 -2.5427837
2.7216756 2.2988174 -2.553673 -0.29873523 -0.195385 -1.3436574 2.9575114 3.0914304
0.010452874 2.601737 -4.5849605 -1.3084936 2.5712018 3.5047936 2.1582787 -0.28005874
3.1759667 3.0689576 0.16763827 2.8077137 0.08760754 2.5861065 -2.6984854 4.747911

sequential_5/model_14/expanded_conv_depthwise_BN/FusedBatchNormV3 f4 [32]
00000000: 7483 b73f f1c7 7940 f30a 32be 3ecf 1abe
00000010: a6e7 4a40 14af 4140 995a 013f 5469 66be
00000020: 4659 6440 df68 323f 53ac 123e e618 babe
00000030: 137d dfbe d719 86bf 97de 1f40 e2da 2240
00000040: e83f acbd 2866 b43f 6fac 2340 6806 aebf
00000050: 21d1 fc3e 939b 2440 f0a5 9e3b ee49 c5bf
00000060: 4d1d 4640 4c0a 4040 40bd d6bb f3c6 5440
00000070: 1b86 06bf 8f2f 0840 9052 27bf a1a1 a1c0
1.4336991 3.9028285 -0.1738699 -0.15118119 3.1703887 3.026311 0.50528866 -0.22501117
3.5679488 0.6969127 0.14323549 -0.3634712 -0.43650112 -1.0476636 2.4979608 2.5446095
-0.08410627 1.4093676 2.5573995 -1.3595705 0.49378303 2.5719955 0.0048415586 -1.5413187
3.0955384 3.0006285 -0.006553322 3.324643 -0.5254838 2.1279027 -0.65360355 -5.05098

sequential_5/model_14/block_1_expand_BN/FusedBatchNormV3 f4 [96]
00000000: 83db 4d3f 445a a6bb 9018 243b d6db 2340
00000010: 3ae8 06be 288b f63f 7458 8cbc 29c4 d13f
00000020: f87c 2140 814c 523e 9e28 1440 6644 f23f
00000030: 0c1f 1c3e b31a 1b40 d88f c13f e2ac 08bd
00000040: deb4 423d 06e9 1040 846a fa3e 0074 a6be
00000050: e2ed bfbc 5d15 25bd a7c7 713f 033c 913f
00000060: a2a6 aa3f 42ee 0e40 1c4e 0fc0 9a84 d73f
00000070: 002b 4c40 b0d2 013f e1f5 213f 50b5 1240
00000080: 6d96 b6be 5382 9c40 92af 1a40 5417 c03f
00000090: c335 1340 def5 2140 6903 493e 7b4d 40bf
000000a0: c32c a6be 287b b43e eca0 8340 2a7d 41bd
000000b0: 3e01 ea3f 5c25 51be a7c5 613c 82f0 4640
000000c0: 513a 833d 5feb 773c 7526 1240 f0b0 b03b
000000d0: 929c 173e ea5a 0340 cc3f fb3c ccbd 8c3f
000000e0: 5403 c03f 12f3 323e ae4e 2640 02aa 5e3e
000000f0: 0beb 893e 4967 aabe 2384 7440 c705 0b40
00000100: 4c3a 863f 1b7a 0f3d 8a5c f63f 711c ad3e
00000110: 6ed9 3d40 4f2b 49bd 043b 373e 8a05 a03f
00000120: 87fc 0040 0fc7 1f40 624c 35be 098c b73f
00000130: b335 cabc c775 c03f 9373 c23f a2f5 113e
00000140: 027b e43f 396a ba3d 6c9e dbbc a179 103f
00000150: 76dc fd3f 6749 eb3f 8a06 b03d fe95 4e3e
00000160: 66b3 9e3f 34f0 ec3f db4b f5bf 8ea3 a03d
00000170: e7ea f1bd d502 2240 bf32 963f 56db 0740
0.80413073 -0.0050766785 0.0025039054 2.5602927 -0.13174525 1.9261217 -0.017132021 1.6387988
2.5232525 0.20536996 2.314979 1.8927124 0.15246218 2.4235046 1.5122023 -0.033368
0.04753577 2.2642226 0.4890939 -0.32510376 -0.023428861 -0.040303577 0.9444527 1.1346439
1.3332102 2.233292 -2.2391424 1.6837342 3.1901245 0.5071211 0.63265806 2.2923164
-0.3566164 4.8909087 2.416966 1.5007119 2.3001564 2.5306315 0.19630207 -0.75118226
-0.32456025 0.3525021 4.113394 -0.047238506 1.8281629 -0.20424408 0.013780034 3.1084294
0.06407607 0.0151318 2.2835972 0.0053921863 0.1480582 2.052424 0.03067007 1.0995421
1.5001016 0.17475536 2.5985522 0.2174454 0.26937136 -0.33281925 3.820565 2.1722276
1.0486541 0.03502856 1.9246991 0.33810762 2.9663959 -0.049113568 0.17893606 1.250169
2.015413 2.4965246 -0.17704919 1.433961 -0.024683809 1.5035943 1.519152 0.14253858
1.7850039 0.091022916 -0.02680894 0.5643559 1.9832904 1.8381776 0.08594997 0.20174405
1.2398498 1.8510804 -1.9163774 0.078436956 -0.11812382 2.5314229 1.1734236 2.1227622

sequential_5/model_14/block_1_depthwise_BN/FusedBatchNormV3 f4 [96]
00000000: e0bc 8b3d 5c25 f23d 002a 853a c32e 55bf
00000010: 44a3 0f3e 2e9d 96bb 406a 1dbc c6e5 23be
00000020: 9399 72c1 9085 6d3d 137c b3c0 7854 ca40
00000030: 50bf 953c 1f59 1fbf a232 8cc0 dd39 4840
00000040: 80b6 4f3d c9f7 0bbc bb2b a53f 9084 8f3f
00000050: 18c7 173e e882 333d a736 da3f 8798 0740
00000060: 2367 a5bd c550 d43d 058e 8ac0 d425 5cbe
00000070: e3cf 7bc1 f892 e73f 3634 73bd a996 f23e
00000080: e98e a03f c548 b33f e47c 52be 3cee 7ebf
00000090: b6d3 6d3e 2f16 c4c0 aded 933f e805 8a3f
000000a0: 72c9 5e3f 3cd3 bd3f 68a6 5dc1 a8fb 3e3d
000000b0: 09be 97bc 7a89 4d40 f0ff 5c3d 1e5f 1640
000000c0: 3ac0 a840 803b b23b 4ea4 86bd 681e 8a3d
000000d0: dc31 183f 4e13 2bbc 60bb 983d 593e d83c
000000e0: a43b 0dbf a3ce 9f3f c1cc 6840 1081 893f
000000f0: 3a13 fb3f 3fd7 9c3f e5b5 413d 7b37 9b3f
00000100: d4a2 c33c 38d3 d13d 2c0c 94c0 3c6c ae3f
00000110: 929b 313d c180 153f 8016 233f 2918 1e3f
00000120: 4968 8abd bbb8 bc3d 7d6a 963f 30e2 07bf
00000130: 50a6 5a3d 51a2 a4be 7e60 9fbc 07fd da3f
00000140: 45a5 cebd f9fb 223f 87f6 cc3f f6ee a43f
00000150: e15e 1141 acdc 023f 3968 993f c10b b33f
00000160: 0484 663e ac4e 2c3c d35f 3dc0 6303 9e3f
00000170: 56bd 2c40 ae31 203f e067 b13f 0c85 11be
0.068231344 0.11823532 0.0010159612 -0.8327448 0.14027125 -0.004596374 -0.0096078515 -0.1600562
-15.162494 0.057988703 -5.608896 6.322811 0.018279701 -0.62245363 -4.381181 3.1285317
0.050711155 -0.008542963 1.290397 1.121233 0.14822042 0.043826014 1.7047929 2.1186845
-0.080763124 0.10366968 -4.3298364 -0.21498805 -15.738254 1.8091726 -0.059375964 0.4738057
1.2543613 1.4006582 -0.20555454 -0.99582267 0.23225293 -6.127708 1.1556908 1.0783052
0.8702613 1.4830089 -13.853127 0.046626717 -0.018523233 3.211516 0.05395502 2.3495555
5.273465 0.005439222 -0.065743074 0.06744081 0.5945108 -0.010441614 0.07457614 0.026396917
-0.5516913 1.2484936 3.6374972 1.0742512 1.9615242 1.2253188 0.04729261 1.2126306
0.023881353 0.10245365 -4.626486 1.362678 0.043361254 0.5839959 0.6370621 0.61755615
-0.06758172 0.09214922 1.1751248 -0.5307951 0.053381264 -0.32155088 -0.01945519 1.7108468
-0.100901164 0.6366573 1.6012734 1.2885425 9.085664 0.5111797 1.1984931 1.3987962
0.22511297 0.010516804 -2.9589736 1.2344784 2.6990561 0.62575805 1.3859825 -0.1421091

sequential_5/model_14/block_2_expand_BN/FusedBatchNormV3 f4 [144]
00000000: 09d7 5a3f 1b92 aabf ada6 5a3f 0360 803e
00000010: 543b bcbe 652a d23f ca36 553e 92f0 24c0
00000020: a398 9cbd 54da 18be 495d 883f afdb 97bf
00000030: fd03 1340 2889 963e 664c d13f c797 d93f
00000040: f0e1 6c40 ea16 b63f e079 5d3f fece d4bf
00000050: 9c1f da3f 37c8 b63f f10c 9d3f 4310 8c3f
00000060: d19e 643f c485 b3bf 0a99 8d3e 4b91 3a3f
00000070: 6cbf ad3f 1070 3e3f 69aa df3f e4bf e43f
00000080: e34b aabf cc79 1cbe 9924 e33f 8d7b cc3f
00000090: 193d 9dbf 575a f1be 4efd 033f bb87 e23f
000000a0: 93e3 0b40 2ebb a73f 75d1 193f f5a5 9740
000000b0: 46e8 8abf 97e2 f13f f715 473f 623e 363e
000000c0: a899 8abe ed88 f73f 0a31 f3be 782a 4d40
000000d0: bc4b 5bbe 6643 66bf 9955 a03f cda3 5cbf
000000e0: 3c65 863f 015f 3a3f cd4b 8d3f 792f 6a3f
000000f0: 9c85 7a3e d4ae a53f f333 b33f c59c a63f
00000100: 21ac 793e 8b07 543f c123 823f 38a3 e83f
00000110: fd16 ea3f 7fac 073f b9da 0c40 cf04 9c3f
00000120: 849f fc3f a578 073e 60f4 1c3f 0069 cd3f
00000130: df76 1bbe b537 623f d115 a23f cdaa b23e
00000140: e8e1 163e a78b a9be 8644 713f bc81 06be
00000150: 422a 14c0 e3e4 d5bf ac3f a83f fe30 823f
00000160: 36d4 b13f 0c27 853f e2ba 2140 877a 283f
00000170: 9281 b43f fd02 cebf aea8 3cbf 532d c33e
00000180: d1f2 df3f 5166 33bf ba66 ad3f 0d78 c43f
00000190: 72d4 af3e f65d 783f 7b63 363e ad24 a83f
000001a0: aebc 47bf 115d a03c 2c23 b0bf 18af 6e3f
000001b0: 1494 883f 77ec 6dbf c4cc 993f fd4a d3be
000001c0: 7d7c e53e 0402 f0bd 6dc8 a83f 665b 0f40
000001d0: 7795 a33f 5999 f43f b1ec 163f 5388 3a40
000001e0: f89b 923f 21ea 953f 4892 28bf 4698 2540
000001f0: 17d0 0c40 0609 cc3f 3b1b e53f d461 2540
00000200: 3a90 883e a660 b93f 835b ecbf 98c9 5b3e
00000210: f06d 0cbf 503b c83f a3e6 a03f 5bf8 903f
00000220: 2006 ea3f a2da bc3d e455 713f a917 903f
00000230: f61f 913e def8 8a3f 704e d1bf da7a 82bf
0.8548437 -1.3325838 0.8541058 0.2507325 -0.36764014 1.6419188 0.20821682 -2.5771832
-0.07646301 -0.14927036 1.0653468 -1.1863917 2.2971184 0.29401517 1.635144 1.6999444
3.7012901 1.4225743 0.8651409 -1.6625669 1.7040896 1.4279851 1.2269574 1.0942463
0.89304835 -1.4025197 0.27655822 0.7287795 1.3574042 0.74389744 1.747388 1.787106
-1.3304409 -0.15280837 1.7745544 1.5975205 -1.228427 -0.47139236 0.5155839 1.7697672
2.185765 1.3103998 0.6008523 4.7390084 -1.0852134 1.8897275 0.7776789 0.17797235
-0.27070355 1.9338661 -0.4749835 3.205717 -0.21415609 -0.8994659 1.2526122 -0.8618744
1.0499644 0.72801214 1.1038758 0.9147869 0.2446503 1.2943978 1.4000229 1.3016592
0.24382068 0.8282401 1.0167161 1.817481 1.8288265 0.52997583 2.2008498 1.2188967
1.973618 0.13229616 0.61310387 1.6047668 -0.15182064 0.8836625 1.2662908 0.34895936
0.14734614 -0.3311436 0.94245183 -0.13135427 -2.3150792 -1.6710476 1.3144431 1.0171201
1.3892887 1.0402541 2.5270314 0.6581196 1.4102042 -1.6094662 -0.73694885 0.38120517
1.7495977 -0.70078 1.3546975 1.5349137 0.3434177 0.97018373 0.17811386 1.3136193
-0.7802228 0.019575628 -1.3760734 0.9323592 1.067019 -0.9293894 1.2015615 -0.4126815
0.4482154 -0.117191344 1.3186165 2.2399535 1.2779988 1.9109298 0.5895491 2.9145706
1.1453848 1.1712075 -0.6584821 2.587419 2.2002008 1.5940254 1.7898935 2.584096
0.26672536 1.448262 -1.8465427 0.2146362 -0.5485525 1.5643101 1.2570385 1.1325792
1.8283119 0.092213884 0.94271684 1.125722 0.28344697 1.0857198 -1.6352062 -1.0193741

sequential_5/model_14/block_2_depthwise_BN/FusedBatchNormV3 f4 [144]
00000000: a138 ba3f 4a5c 9abf 9012 a7bc 76c6 a9bf
00000010: fa89 d33e 410d a1bd 7f70 163f 8cb6 d4be
00000020: 7495 94bf 2131 973e 7226 14be d156 7240
00000030: fb7e 66be b6fb 72be ba0c fbbe 5d1a c440
00000040: 6f51 fa3f 506a 4640 38a8 09bd a5c7 0cc0
00000050: e869 3d3e 820f 5240 9056 a140 279b dcbe
00000060: 443b c03d de05 783e 84a6 613f c0d3 5dbc
00000070: 14a4 8bbe fbf8 3840 d84c cabe 5813 6740
00000080: fff9 22c0 86ac 1740 404b 8340 11c3 92bf
00000090: 0144 793f 02bd 5c40 4ee3 7040 d532 4540
000000a0: 4a26 c03f d625 a83f d4fc de3f d68f ae40
000000b0: 6ea3 813f c088 193c 79f9 ca3d 486e 9c3d
000000c0: 1692 a9bc 1e06 6a3f 61fc 0b3f ef12 11be
000000d0: d153 843f c751 9a3e 0364 3bbe 407d fabf
000000e0: c674 143f dad8 4cbf 1c70 82bd d30d dfbd
000000f0: 74a3 adbf 5c45 fb3c 43ae 983f 1c0d 22be
00000100: b29e 3e3f fee1 5e3d fa2a 883e ca54 913c
00000110: 0f7a 2840 eb3b 8abf 7aef e43e c4a6 1140
00000120: d4f1 e23c 5e65 0840 6460 bb3f e5e2 fcbd
00000130: 800a 9d3c 1e30 ae3d 6962 743e 0086 ca3a
00000140: 10ab 983f cb18 dd3e 80f3 733f d4f7 4b3f
00000150: ecee 74c0 03d1 793f aebf a4bd e2ec 7fbf
00000160: aaca 5e40 6c4d c0bc 3fb0 f43f d85c c43d
00000170: c9a4 4740 40ac 94bf f296 dcbb 81c0 873e
00000180: 78cf 1b40 001c 6d3d bec4 293e 0d5e abbd
00000190: 9956 423d 8250 9b3e a83a 6b3d 8051 53ba
000001a0: 0d72 4140 3ae9 d73d 96b8 5abd fbe3 a43d
000001b0: 5422 c8bd 5a7d 5c40 e873 b8be d3c2 8d40
000001c0: dc08 7c3d 4dc3 bf3e eb88 693e c052 a43d
000001d0: 9be8 48be 2ea4 4440 5ef0 7f3e 06a0 663e
000001e0: 897d 73be d2f8 283f f0d9 d8bf ae60 4340
000001f0: 9743 82bf 1283 1a3e ac7a ff3e 36b2 2340
00000200: 1778 413f b45f 2c3d 9529 d2bf f003 45bd
00000210: b7b7 813f 38e8 0d40 8e03 123c 99cf b23f
00000220: c870 7040 47fa 0840 cf1b 123e 2e06 033c
00000230: ecc5 703f d8f6 3f3d f6aa 833f 8007 76ba
1.4548532 -1.2059414 -0.020394593 -1.326369 0.41316205 -0.07863856 0.58765405 -0.41545522
-1.160811 0.2952967 -0.1446779 3.7865489 -0.22509377 -0.23728833 -0.49033147 6.128218
1.9556102 3.1002388 -0.03360769 -2.1996853 0.18497431 3.2821965 5.0418167 -0.43087122
0.09386304 0.24220988 0.8814471 -0.013539255 -0.2727362 2.8901966 -0.39511752 3.6105556
-2.5465086 2.369905 4.102936 -1.146578 0.9736939 3.4490361 3.7638736 3.0812275
1.5011685 1.3136547 1.7420907 5.455058 1.0128 0.009370983 0.099108644 0.07638222
-0.020699542 0.91415584 0.54681975 -0.14167379 1.0338079 0.30140516 -0.1829987 -1.9569473
0.5799068 -0.8001839 -0.063690394 -0.10891309 -1.3565507 0.030672722 1.192818 -0.15825313
0.744609 0.05441474 0.2659529 0.017740626 2.6324499 -1.0799536 0.44713956 2.2758036
0.027703203 2.131187 1.4638791 -0.12347964 0.019170046 0.085052714 0.23865665 0.0015451312
1.1927204 0.43182978 0.95293427 0.7967503 -3.8270826 0.9758455 -0.080443725 -0.9997083
3.4811196 -0.023474418 1.9116286 0.09588021 3.1194327 -1.1615067 -0.0067318613 0.26514056
2.434538 0.05788803 0.16578957 -0.08367548 0.047445867 0.3033486 0.057428986 -0.00080611557
3.022586 0.10542531 -0.05339869 0.08051296 -0.097721726 3.4451509 -0.3602593 4.4300323
0.061531886 0.3745369 0.22806136 0.08023596 -0.19619982 3.0725207 0.24994037 0.22521982
-0.23778357 0.6600467 -1.6941509 3.0527759 -1.0176877 0.15089062 0.4989828 2.5577521
0.7557387 0.042083457 -1.641894 -0.04809946 1.013419 2.2172985 0.00891198 1.3969604
3.7568836 2.1402757 0.1426842 0.007997079 0.94052005 0.046866268 1.0286548 -0.0009385273

sequential_5/model_14/block_3_expand_BN/FusedBatchNormV3 f4 [144]
00000000: 23cf 29bf 9adf 103e d589 64bc 5193 3bbe
00000010: 1133 e13e 0ec9 893e 099a 303f 5c7c 70bf
00000020: 486b 993e 6fc7 5c40 281b e13f f9a7 963d
00000030: 2602 5cbf 6b17 d2bf a799 c4be 5362 983f
00000040: 7a23 d53d 0904 36be 285a 4f3f 38fd e33f
00000050: 2ef3 0ac0 4b3e e43e c8fb 303e 97d2 0fbf
00000060: 9927 813f 22f6 fd3e bbca 703f d41e 7b3d
00000070: ebab cd3e 2de4 833f 4225 ce3f 4d76 ef3e
00000080: 6a1b 243f 6dc0 1640 6719 55bf 0ccb 07bf
00000090: 01e1 0fbe 66fc 6040 c54b b33f 557c 8ebf
000000a0: 9929 863f 8136 b53f 0209 44bf 2768 443f
000000b0: 26c1 5d3f 80e7 393e e71c 8f3d 7d6c 87be
000000c0: 971b 3fbe d3e7 623f fd2c 1a40 9841 2ebf
000000d0: 911f 50bc b9e5 8a3e bb78 0140 76df ef3d
000000e0: 857b 593f cd15 72bf 6da9 5ebd 8742 2f3f
000000f0: c568 f0bf f9ea 53bd c844 b93f c9a3 f53f
00000100: dfa5 ae3f ecff 0e3d 01d2 c93c 2df6 26bf
00000110: 78ca 8040 af3e bf3f 456d d7be 6bf2 1ebf
00000120: d4ba 9d3e 49f1 7ebc c657 0540 0c7d 03bd
00000130: 9940 8fbe 69dc 5cbf 6d0b 463b 4398 aabf
00000140: 2866 c63d 90ce 89be 437f 02bf f398 503f
00000150: 2062 c9bf 97b5 2f40 42db bc3e 7bf2 b3be
00000160: b852 79bf 4dca be3f 63c4 b6bd 4b91 ddbf
00000170: 3b84 b43e ad20 a9be ed6b 40bc 6b75 cb3e
00000180: fa99 d23f 0d33 e7bf 7653 863f ab84 0040
00000190: e484 9b3f 7026 dc3e 4d19 9ebf f07d 0440
000001a0: 49db 2c3f 4515 e8be 30e6 0cbf 5b11 b73f
000001b0: 0d4d ac3d 2a8b ce3f 5359 303e 903e f03f
000001c0: b815 c13f c604 31bd 16d9 dd3f 2ca3 bb3f
000001d0: a11c 9d3f 7b72 86be f3cf a93f e5f3 22bf
000001e0: fac5 f33f ac3c 17c0 7134 adbd 081e 453f
000001f0: d641 893f b950 553e 02c3 c2be dc27 1bbe
00000200: 3dc9 d73f f51e e0bf 62a2 5a3f b22d d43f
00000210: b3cb 913f cea1 35bf c4fe 35be 4502 1140
00000220: 0d49 f0bf deda 8fbf a6d5 2fbf c00f 60bf
00000230: 78c1 9e3e 6ae6 a63f eab0 913f 4e51 973e
-0.6633169 0.14147797 -0.013948877 -0.18317915 0.43984273 0.26911205 0.6898504 -0.9393976
0.29964662 3.4496725 1.7586412 0.07356257 -0.8594078 -1.6413397 -0.38398477 1.1905006
0.10407157 -0.17774977 0.8099694 1.7811651 -2.1710925 0.44578776 0.17283547 -0.5618071
1.0090209 0.49601847 0.9405934 0.061308697 0.40170226 1.0304009 1.610512 0.46769944
0.6410433 2.3554947 -0.83241886 -0.530442 -0.14050676 3.5154052 1.4007498 -1.1131693
1.0481445 1.4157258 -0.76576245 0.76721424 0.86622846 0.18154716 0.069879346 -0.26449957
-0.18662868 0.88634986 2.4089959 -0.6806884 -0.0127028385 0.2712839 2.0229938 0.11712544
0.849541 -0.94564515 -0.054360796 0.6846089 -1.8781973 -0.05173776 1.4474115 1.9190608
1.364437 0.034912035 0.02463627 -0.65219384 4.0247154 1.4941005 -0.42075554 -0.6208865
0.308066 -0.015560457 2.0834823 -0.032101676 -0.27978972 -0.8627382 0.0030219213 -1.3327717
0.096874535 -0.26915407 -0.50975436 0.8148338 -1.573307 2.7454584 0.3688603 -0.35145935
-0.97391844 1.4905487 -0.089241765 -1.7309965 0.35257134 -0.33032742 -0.0117444815 0.3973802
1.645324 -1.8062454 1.049422 2.0080974 1.214993 0.42998075 -1.2351471 2.0701866
0.675221 -0.45328727 -0.5503874 1.4302171 0.08413134 1.613622 0.17221574 1.8769093
1.5084753 -0.043217443 1.7331874 1.4659171 1.2274362 -0.26259217 1.3266586 -0.63653404
1.9044793 -2.363078 -0.08457268 0.7699895 1.0723217 0.20831574 -0.38039404 -0.15151924
1.6858288 -1.7509447 0.85404027 1.6576445 1.1390289 -0.7095002 -0.17772967 2.2657635
-1.8772293 -1.1238668 -0.68685377 -0.8752403 0.3100698 1.3039067 1.1382115 0.29554218

sequential_5/model_14/block_3_depthwise_BN/FusedBatchNormV3 f4 [144]
00000000: b04a c93d 30de ea3f 005f bc40 185a fb3f
00000010: 1f21 e93f 34e8 bb40 40eb 15bd 303d 2cbe
00000020: b924 cf3f 7c55 4240 b817 3c40 0aaa e83f
00000030: 40e9 7c3d 8064 0fbb 80ab dcbb 511b 55be
00000040: 40d8 0fbd 403a a7bc 6d32 6540 ab50 dcbf
00000050: 05bb 8abd 70d3 f93d a8c6 ce3e c06c 2abc
00000060: bb40 df3f 8018 903c ccfe 7abd 1ee6 fd3f
00000070: 00ae bdbb 1c38 f0be 2d83 8bbe 7057 ff3f
00000080: 1ba1 84be 2ca1 d9be 605e 14bd a8b6 053e
00000090: 004c 7e3a 6de8 5540 da3b 75be ee17 e43f
000000a0: 520b 2d3e 83da c7be 9024 f0bc 0f12 9240
000000b0: 80b6 343d 2829 943d 0692 0c40 40a7 ee3c
000000c0: 20ff 82bc 887a 17be 6977 1f40 4230 0040
000000d0: 0040 f63a 00f6 513d 4915 f1be a036 7dbe
000000e0: 13f6 5ebe 989f d43d 8613 ee3f 1c66 4b40
000000f0: 8005 9abb f86e 0d40 4da4 fd3f 98a3 bd3d
00000100: 72ac d03f 8d82 0440 4023 00bd 148c e43f
00000110: b2c1 a540 f6f6 bb40 6c16 cf3e a845 963d
00000120: 1899 1d3e a351 bf3f 60ee c740 f597 0b40
00000130: acd2 ef3f cf15 8140 801c 4d3c c069 43bb
00000140: 800b 3dbc 78b6 b740 1bda a040 0060 ee3a
00000150: f9b7 513e 3c3e aa40 b715 d33f 2ba4 eb3f
00000160: af49 6840 b8af 3f3d 144d e93f 4056 4e3c
00000170: fcac 0840 00dc 303a a804 ea3f 9430 fb3f
00000180: eec5 2540 2010 60bc c117 5a40 cbb8 09c0
00000190: 0036 133d e0b5 5f3d 5283 de3f 8392 8dbe
000001a0: 783f 293e b600 1540 2895 5f40 02af eb3f
000001b0: 5e61 1c40 00a5 463e e0f3 1d3d b984 b840
000001c0: 1e93 e5be c0d4 92bc 4592 21bf 4969 17bf
000001d0: 58ec 783f 008d 003d 497f fd3f 807a 8d3b
000001e0: dae9 1740 cbca 253e 4565 ee3f 70af 5b3f
000001f0: ac3d b73d 8a69 49be c540 ed3f 372d 1140
00000200: 18ae 22c0 081b b13c ea48 f03f f078 0bbf
00000210: dcdc 673e 848f 0840 194d 0340 20a3 3440
00000220: 802a bebc e0b6 dc3d f0f8 2b3d 8492 e5bd
00000230: 2819 223e 23ed 2d3f 4879 08bd f20e 8d3e
0.09828699 1.8349056 5.8865967 1.963687 1.8213233 5.872095 -0.036601305 -0.16820216
1.6183082 3.0364676 2.9389477 1.8176892 0.061745882 -0.002187997 -0.0067343116 -0.20811202
-0.03511834 -0.020413518 3.5812027 -1.7212118 -0.067739524 0.12198532 0.40385938 -0.010401905
1.7441629 0.017589808 -0.06127815 1.9835851 -0.0057885647 -0.46917808 -0.27248517 1.9948559
-0.25904164 -0.42505777 -0.036222816 0.13057959 0.0009700656 3.3423111 -0.23948613 1.7819803
0.1689885 -0.390339 -0.02931431 4.5647044 0.044119358 0.072344124 2.1964126 0.029132485
-0.015990794 -0.14792836 2.4916632 2.0029454 0.0018787384 0.051259995 -0.47086552 -0.24727869
-0.21773557 0.103820026 1.8599708 3.1781073 -0.0047003627 2.209898 1.9815766 0.09259719
1.6302626 2.0704682 -0.031283617 1.7855248 5.1798944 5.8738966 0.40446794 0.073375046
0.15390432 1.4946789 6.2478485 2.1811497 1.8736167 4.033912 0.012519002 -0.002981767
-0.011538386 5.741024 5.026624 0.0018186569 0.20480336 5.320097 1.6491002 1.8409475
3.6294973 0.046798438 1.8226647 0.012593806 2.1355581 0.000674665 1.8282671 1.96242
2.5902057 -0.0136757195 3.4076998 -2.1519039 0.03594017 0.05461681 1.7383826 -0.27650842
0.16528118 2.3281684 3.4934788 1.8412783 2.4434428 0.1939888 0.038562655 5.7662015
-0.44838804 -0.017923713 -0.63113815 -0.5914503 0.9723563 0.031384468 1.9804469 0.0043175817
2.3736482 0.1619064 1.8624655 0.8581457 0.0894731 -0.19669166 1.8535391 2.2683847
-2.5418758 0.021619335 1.8772252 -0.5448141 0.22642845 2.1337595 2.0515807 2.8224564
-0.023213625 0.10777068 0.041985452 -0.11209586 0.15829909 0.67939967 -0.033318788 0.27550465

sequential_5/model_14/block_4_expand_BN/FusedBatchNormV3 f4 [192]
00000000: 0570 193f 812e 723f 3b22 1b3f e5a8 c03f
00000010: 610a 033f 11de 893f 46e3 d03f 0be1 2bbf
00000020: f6e3 a83e 23ab e43f 5788 d93f 7d11 5f3f
00000030: dacd e13f 0f03 88bf 44f3 46bf 781b 36be
00000040: 625c b13f ebc4 81bf 42ca ba3f b0d0 d63f
00000050: feef 2fbf e0ab c43f f941 0f40 d5a2 f63f
00000060: 223f 3e40 e204 793f 8392 e13f 3bc9 a73d
00000070: cde6 1140 4aba d93f 80c4 f03f 93ff 293f
00000080: 582c 353f c665 173e 7191 193f b249 a63f
00000090: af75 18bf fa10 ab3f 5692 803f ed2e bc3f
000000a0: daf2 e43f 8f87 63bf 8e84 893f 4869 bb3f
000000b0: 9bcc bc3f c513 a33f 3a11 ac3f d5e2 d23f
000000c0: e59e 16bf 6e24 6a3f 41d6 8fbf 9b28 a93f
000000d0: 6606 e83e 5af1 bdbf e7bb 613f aadf a33f
000000e0: 5c00 a23f 102d 023f 4e5b e03e 45a8 2dbe
000000f0: 1459 aa3f bbb4 873f 89d2 693f 5761 ac3f
00000100: 0084 b1bf 7b99 7a3f 49e3 423f c792 9b3c
00000110: f642 993f 15ca 9abf a6e7 d73e 7283 ab3f
00000120: 04b7 a5be 37b8 933f 94e9 ac3f a1f3 c43f
00000130: 47fa 1fbf 7cb3 323f afbe 323f d4d3 8f3f
00000140: 41ed f03f ff50 203e 9f6f 973f f8d6 663f
00000150: d8fd 203f 650f ca3f a7c7 3f3f 8c89 d53f
00000160: 4ad5 da3f 8daa bc3f f247 ac3f d714 da3f
00000170: 02e1 bdbf c1e9 80bf 2dde 6b3c 09b2 a33f
00000180: 9ec4 e3be 03bd c23f 698f 463f 8058 55bf
00000190: ce32 e33f 0ae5 8e3f 12d9 7a3f 33b3 0ebe
000001a0: 63e5 d43e 4563 51bf 9066 833f c24a bf3f
000001b0: a6ec a13f 9242 9c3f 52f8 953f a1cb 803f
000001c0: 2920 8ebd 62ec 46be a5a6 a73f 1de4 87bf
000001d0: 1e0b ca3f 8c2e 8d3e c9f4 a03f 4c2c 44bf
000001e0: 4d70 f4be 6584 11bf a4bb d23f 9aa9 72bd
000001f0: be79 bd3f efd6 a93f 83ff 893e 0ff9 853f
00000200: 4fdd 813f c496 a93f 9720 b33f d33a 8c3f
00000210: 95a6 bf3f babd ee3e 3e19 aa3f 1872 933f
00000220: d7e3 c53f 301c 913e 4221 ad3f 0182 923f
00000230: 68bd f33f 0957 873f 0f2a 8cbd ddde 513f
00000240: 36f4 a93f 7ace 993f 0ac7 833f d8bf a83f
00000250: 2595 c33f 6bc9 873f fdfe 643f e2f7 ad3d
00000260: 8fdc c03f 0410 813f 1931 0140 cf69 18bf
00000270: 07c3 8c3f 69b2 963f 9edf 9f3e 6aa7 aa3f
00000280: f140 943f 4b0b ea3f 4560 5f3f dad2 a13f
00000290: 0a3d b13f 47aa ed3f 4c6b d03f 5501 803f
000002a0: 6537 ce3f 5059 f23e 3542 3ebf 01bb 833f
000002b0: fd5e 4c3f b6c1 a43f 7d34 803f be1d a93f
000002c0: c592 823f b331 943f 38f1 b13f 3aa9 5dbf
000002d0: 2673 ed3f 69dc 7bbf 8d43 a9be a43e 123f
000002e0: f246 edbe ca6d 26c0 8092 9f3f 70d7 22bf
000002f0: bbb7 4840 241f ba3f ee2b c23f 5123 373f
0.59936553 0.9460221 0.60599107 1.5051543 0.5118771 1.0770894 1.6319358 -0.67140263
0.3298642 1.7864727 1.6994733 0.8713606 1.7640946 -1.0625933 -0.77714944 -0.17783916
1.3856318 -1.013822 1.4592974 1.6782436 -0.68725574 1.5364952 2.2384017 1.9268442
2.9726033 0.97273076 1.7622837 0.081926785 2.279712 1.7009976 1.8809967 0.664056
0.7077079 0.14784917 0.5998755 1.299124 -0.5955457 1.3364556 1.0044658 1.4701821
1.7886612 -0.8887872 1.0743577 1.4641504 1.4749941 1.2740408 1.3442757 1.6475474
-0.58836204 0.9146184 -1.123726 1.3215517 0.45317382 -1.483928 0.8817734 1.2802632
1.265636 0.5085001 0.4381966 -0.16958721 1.3308434 1.060203 0.91336876 1.3467206
-1.3868408 0.9789044 0.7612806 0.018990887 1.197356 -1.209292 0.4216892 1.3399489
-0.32366192 1.1540593 1.3508782 1.538685 -0.6249127 0.6980512 0.6982221 1.123652
1.8822404 0.15655898 1.1830939 0.90171766 0.62887335 1.5785948 0.7491402 1.6682601
1.7096341 1.4739548 1.3459456 1.703761 -1.4834292 -1.0071336 0.014396233 1.2788707
-0.44485945 1.5213932 0.77562577 -0.83338165 1.7749879 1.1163647 0.97987473 -0.13935547
0.41581258 -0.817921 1.0265675 1.4944689 1.2650344 1.2207816 1.1716406 1.0062143
-0.06939728 -0.1942611 1.3097731 -1.061649 1.5784643 0.27574575 1.2574703 -0.7663009
-0.4774193 -0.56842643 1.6463513 -0.059243776 1.4802778 1.3268718 0.26952752 1.0466632
1.0145663 1.3249135 1.3994321 1.0955452 1.4972712 0.46629125 1.3288953 1.1519194
1.5460156 0.28341818 1.3525774 1.1445924 1.9042177 1.0573436 -0.068439595 0.8198069
1.3277652 1.2016137 1.0295117 1.3183546 1.527989 1.0608343 0.8945158 0.084945455
1.5067309 1.0083013 2.0186217 -0.5953645 1.0997018 1.1773196 0.31225294 1.3332341
1.1582319 1.8284696 0.8725627 1.2642472 1.3846753 1.856759 1.6282744 1.0000407
1.6110655 0.47333765 -0.74319774 1.0291444 0.7983244 1.2871616 1.0016018 1.3212202
1.020104 1.1577667 1.3901739 -0.86586344 1.8550766 -0.98383194 -0.3305935 0.5712683
-0.4634319 -2.600451 1.2466583 -0.6360998 3.136214 1.4540753 1.5169656 0.71538264

sequential_5/model_14/block_4_depthwise_BN/FusedBatchNormV3 f4 [192]
00000000: a0fe 063c 30c0 06bd 60d6 6c3f 4201 ae3c
00000010: 00fe 45bb 4c5f bbbf 75e4 68bd bc1b fdbf
00000020: b252 c5bf c55f d8bd 00bd 9e3c e5d0 ac3f
00000030: 9f61 1e40 b1ed f83f 9afe 8cbf 0041 d03b
00000040: 1090 dabc b278 333f 962f 8b3f 013d 9140
00000050: d817 6cc0 3890 8dbc 88fc 88bf 9a67 a63f
00000060: 7854 d0bc 20b9 60bc 0012 70c0 ed8f 2440
00000070: 8cdb 2340 e6cc 04bd ca9b 063e 00d0 c93a
00000080: 9f6b 45be 00ea e93a 3290 2f40 309e 903e
00000090: 84e9 febf 5a70 3240 ffbf 3c3d c0bc 07bb
000000a0: 00d7 1d3d 0094 623b 64a2 04be de97 34c0
000000b0: 20be 45bd 70a7 6dbd 7cc0 e240 9013 c3bb
000000c0: ec41 8abf d4ca 97bc 4d1c 14bf 7abc b2be
000000d0: ef0c 753f f44d 2440 64f9 44be a60f 38c0
000000e0: 7822 7dbe ebd2 2e40 b48c bebf 84d1 8ebf
000000f0: 105a cc3d d038 68be a119 b53e 48ef bc3d
00000100: 03e7 0bc0 1120 30bf 3425 9bbe b2e9 f7bf
00000110: 32db 033e 1aa7 04c0 8ce5 0e40 70fd 2f3e
00000120: 7f13 5a3f 0899 87bd 4c8f dcbd e274 783f
00000130: bc63 273f 8e09 843f a898 8cbe 5049 fabe
00000140: 7fdd aebd 7c06 b3bf e867 e6bd ee6e 95c0
00000150: baef 4d3f ead1 1e40 e0e2 9ebc ffad 07be
00000160: 757b a8bd 5e63 d4bf 7934 c440 a0ad 9fbd
00000170: 5643 f6bd 9bb2 fabf 7bc1 5c3f 7c33 3cbd
00000180: 241c 3040 ff0b c3be 401a b9bc fdd8 91bf
00000190: a030 913e c020 39bc e024 553c 1213 a5bf
000001a0: 8426 6d3f 5047 4b40 ece2 4ebf 6f92 efbd
000001b0: ecc2 eb3c cda9 ebbe 7877 623e 7830 01be
000001c0: 5e86 0940 2449 0fc0 c014 f43c eb17 cc3f
000001d0: 3c27 ffbd 5497 2940 5a0b 5e3e 8ef4 443f
000001e0: b0a7 85bf 1140 5240 dae2 aebd c09d abbb
000001f0: 6cc7 bd3f 10a6 dd3c 3880 2540 9554 ab3d
00000200: e0d1 333c c88f 45c0 6f6e 90bf 40b9 7dbc
00000210: 7bf8 013f 2a61 42be 58cc 5841 88e3 663e
00000220: 4f75 86bf bf9f 7d3f 23e3 8b3f fc9d 97c0
00000230: d679 4e40 e0e0 cf3d 9143 5340 8188 57bf
00000240: 1064 e33c 5018 90bc 00f7 cb3f e05b abbd
00000250: 9416 5fbe 0019 e33c ca81 2abf 798a 6c3e
00000260: 7649 2540 00d8 5fba 60ce e83b 9c93 5ebf
00000270: d741 94be 30fe c83d f468 03c0 bc2e 83bc
00000280: c262 9fbd 00dd 753c 7caf e93f da66 8b3e
00000290: 9226 163e 7048 acbd c05e 48bc 4880 963e
000002a0: 1cbb 753e e40e 7a3f 6d6d 09bf f48d 0d40
000002b0: 982f 02c0 fa5f 2b40 6f20 603e 48c4 36bd
000002c0: ae2a 92be 1aa6 ffbd a849 e03c 2a16 6bbf
000002d0: 58f3 e940 0ed9 91be dc02 203f 125d 06be
000002e0: 1e6b b43f c992 1ec0 8dcf 2e3e ad22 91bf
000002f0: 1a9a 8040 83e3 8dbf e4b8 fc3c e266 10c0
0.008239418 -0.032898128 0.9251461 0.021240834 -0.003021121 -1.4638457 -0.0568585 -1.9774089
-1.5415862 -0.105651416 0.019377232 1.350125 2.4747083 1.9447538 -1.1015198 0.006355405
-0.026680022 0.7010604 1.0873897 4.538697 -3.6889553 -0.017280683 -1.0702066 1.3000367
-0.025430903 -0.013716012 -3.7510986 2.5712845 2.560275 -0.03242197 0.13145366 0.0015397072
-0.19279335 0.0017846227 2.743176 0.28245687 -1.9915013 2.7881074 0.04608154 -0.002071187
0.038535118 0.0034573078 -0.12952572 -2.8217692 -0.04827702 -0.05802101 7.0859966 -0.0059532598
-1.0801368 -0.018529333 -0.57855684 -0.3490942 0.9572286 2.567258 -0.1923576 -2.875955
-0.2472018 2.7316234 -1.4886689 -1.1157689 0.099781156 -0.22677922 0.35371116 0.09225327
-2.1859748 -0.6879893 -0.3030182 -1.9368193 0.12876585 -2.072699 2.2327604 0.17186522
0.85186 -0.06620985 -0.10769519 0.9705335 0.6538656 1.0315416 -0.27460217 -0.48884058
-0.08538341 -1.3986354 -0.11250287 -4.669791 0.8044392 2.4815621 -0.019395292 -0.13249968
-0.082266726 -1.6592824 6.1314054 -0.07796788 -0.12024562 -1.9585756 0.8623273 -0.045947537
2.7517176 -0.3809509 -0.022595525 -1.1394345 0.2835741 -0.011299312 0.01300928 -1.2896445
0.92636895 3.1762276 -0.80815005 -0.11697852 0.02877947 -0.46027985 0.22115886 -0.12616146
2.1488261 -2.2388391 0.02979505 1.5944799 -0.12458655 2.6498613 0.21684018 0.7693566
-1.0441799 3.2851603 -0.08539362 -0.005237311 1.4826484 0.027056724 2.5859509 0.08365742
0.010975331 -3.0869007 -1.1283702 -0.015486062 0.50769776 -0.18982378 13.549889 0.22547734
-1.050455 0.9907188 1.0928692 -4.738035 3.2261863 0.101503134 3.300999 -0.84192663
0.027757674 -0.017589718 1.5934753 -0.08367133 -0.21785957 0.027721882 -0.6660429 0.23099698
2.5826087 -0.00085389614 0.00710468 -0.86943984 -0.28956482 0.098141074 -2.0532808 -0.016013496
-0.077825084 0.015006304 1.8256679 0.27226907 0.14663151 -0.08412254 -0.012229621 0.29394746
0.23997158 0.9767897 -0.53682595 2.2117891 -2.034155 2.677733 0.21887372 -0.044620782
-0.28548187 -0.12482853 0.027378872 -0.91830695 7.310955 -0.28485912 0.62504363 -0.13121441
1.409519 -2.477709 0.17071362 -1.1338707 4.018811 -1.1085056 0.030849881 -2.2562795

sequential_5/model_14/block_5_expand_BN/FusedBatchNormV3 f4 [192]
00000000: c830 3fbf 23ae 983f 96de febe 54c1 8c3f
00000010: c0da 9d3f 7b03 33bf 9983 1c40 20d1 843f
00000020: d3cc 86bf 1572 45be 5f97 8dbf b1a1 26bd
00000030: 33ba 40bf c468 993e f76e 2f3f 9138 183f
00000040: cab6 323e e4ea 89be a19a b53f ac0d cd3f
00000050: 8305 38bf 358f 09bf b47c 8e3f 972e cf3f
00000060: c763 503f ba8f a73f 8f53 693f c430 953f
00000070: 3dc1 9a3e c834 86bf ba21 a43f 6c93 ac3e
00000080: 2228 ff3e 37e6 503f e5b0 6abf db2e 573f
00000090: 2237 bb3f 4b6d 12bf bb66 7a3f 1388 603f
000000a0: 1761 683e f7aa 0c3e 8ea1 23bf 875c c63e
000000b0: 953a 1a3f 73a0 a33f 8c91 483f adbb a93f
000000c0: e759 5ebf bd6b 8f3f a5eb 943f a86e 9e3f
000000d0: a063 763f 8b9b 24bc 9125 733f feff 8e3f
000000e0: c835 b93f d929 c3be 9b93 993f f14f aa3f
000000f0: 7811 593e 049c c23f def1 0c3f f2a1 2f3f
00000100: 95d3 e9bd 95ba 373f 0ca5 8d3f 2220 9e3f
00000110: b2b1 c53f f734 983f 5018 953f 9c31 6a3f
00000120: dfba 983f a06a 41bf 3f87 923f 3b72 ccbf
00000130: 9243 953f 80d2 40bf 5fd4 64bf f9a7 8ebd
00000140: cfca c23f 7e34 a83c 079e 38bf 967a d5be
00000150: f3f0 39bf 5073 993b ad82 a13f 95b6 913e
00000160: 1ced 713f 484f 993f 59fe a73f 8aae ad3f
00000170: 27d6 923f 8975 c43e e69c 7d3f f329 8d3f
00000180: ac20 193f 5164 1cbe 1959 fabd d694 73be
00000190: f643 40be 0337 263d e1c3 f7be 4442 a1bf
000001a0: 0a92 14bf 6034 32bf 8daf a4be b8f0 9a3f
000001b0: e052 0a3e 725b 053c aa25 8b3f 4e44 8c3f
000001c0: 2e82 4a3f 6deb 4ebd b147 d53f 5649 d4be
000001d0: d5f5 bb3f 49b8 06bf 76ae 333f 91d3 53bf
000001e0: 1797 abbf 85c1 583f 80cd 333f de10 183e
000001f0: 4959 42be 42b9 743f 3b28 b63f 62ee 6a3f
00000200: 5651 963f 79d0 b03f 9f64 ae3f f225 be3f
00000210: 94b4 d03f 07bf c6be 6329 463f e322 973f
00000220: f57d 903f 809e debe 6073 68b8 af10 73be
00000230: 78b7 883f 7c86 7d3f 46cc 6b3f db20 4640
00000240: c07c a33e 5c6d 933f 1da3 a43f 266f 323f
00000250: 87e7 ac3f be07 a23f 60e4 963f eeb8 ba3e
00000260: d13c 09be 858f 823f a44a 923f a23c bb3f
00000270: 5e88 aa3b 5a57 213f 9db7 a83f e03a 143e
00000280: 7891 3bbe 8403 bcbe 47b7 123f 8528 5240
00000290: a9a9 c7be 43a6 ad3f de6a 64bf 7757 5e3d
000002a0: fdcc 8e3f f693 0c40 1442 853f 7ceb 4f3d
000002b0: 3229 7b3f c4ba c63f 5ebf a23f 2f67 67bf
000002c0: 0092 a13e 86cb af3f 31ba 053f 9b3f da3f
000002d0: 90d5 18bf e4ef 133f 16c7 123f fd87 833f
000002e0: 369f bb3f 377a 603f 5e2c 52bf 1a5e ac3f
000002f0: d134 a53f 2922 893e b0cd 6f3f f041 e53e
-0.7468381 1.1928142 -0.49779195 1.0996499 1.2332382 -0.69927186 2.445532 1.037632
-1.0531257 -0.192818 -1.106182 -0.040681545 -0.7528412 0.29962742 0.68528694 0.59461313
0.17452541 -0.2693702 1.4187814 1.6019797 -0.7188341 -0.5373414 1.1131806 1.6186093
0.8140225 1.3090737 0.91143125 1.1655507 0.30225554 -1.0484858 1.2822793 0.33706224
0.49835306 0.8160128 -0.9167617 0.8405587 1.46262 -0.5719802 0.97813004 0.8770763
0.22693287 0.13737093 -0.6391839 0.38742468 0.6024564 1.278334 0.78347087 1.3260399
-0.8685593 1.1204754 1.1634413 1.237752 0.96245766 -0.01004685 0.94979197 1.1171873
1.4469538 -0.38117865 1.1998171 1.3305646 0.2119807 1.5203862 0.5505656 0.68606484
-0.11417309 0.71769077 1.1065993 1.2353556 1.5444853 1.1891164 1.1648045 0.9148195
1.1932029 -0.7555332 1.1447524 -1.597236 1.1661246 -0.753212 -0.8938655 -0.06965632
1.5218142 0.020532843 -0.7211613 -0.41695088 -0.72633284 0.004682936 1.2618004 0.28459612
0.94502425 1.197732 1.3124496 1.356889 1.1471604 0.38370922 0.99067533 1.1028427
0.5981548 -0.15272643 -0.12224025 -0.23787245 -0.18775925 0.040579807 -0.4839163 -1.2598348
-0.5803534 -0.6961117 -0.32165185 1.2104712 0.13508177 0.008139478 1.0870869 1.0958345
0.7910489 -0.05051749 1.6662503 -0.414622 1.4684397 -0.52624947 0.7018808 -0.827447
-1.3405484 0.8467029 0.70235443 0.14850184 -0.18979372 0.9559518 1.4231027 0.91769993
1.1743572 1.3813621 1.3624457 1.485533 1.6305108 -0.38817617 0.774069 1.1807522
1.1288439 -0.434803 -5.542056e-05 -0.23736833 1.068099 0.9903333 0.9210857 3.0957553
0.31931114 1.1517749 1.2862278 0.6970085 1.3508157 1.2658613 1.1788445 0.36469215
-0.13402106 1.0200049 1.1429029 1.4627879 0.0052042445 0.6302391 1.3181034 0.14475584
-0.1831721 -0.36721432 0.5731091 3.283723 -0.38996628 1.3566364 -0.89225566 0.05428263
1.1156307 2.1965308 1.041079 0.050761685 0.98109734 1.5525746 1.2714651 -0.9039182
0.31556702 1.3733985 0.5223723 1.7050661 -0.5970087 0.5778792 0.5733503 1.0275875
1.4657962 0.87686485 -0.8209895 1.3466218 1.2906743 0.26783875 0.9367323 0.4477687

sequential_5/model_14/block_5_depthwise_BN/FusedBatchNormV3 f4 [192]
00000000: cc4c 08bf 1011 313b 82c5 babf 844d dbbe
00000010: 3c8b f140 4041 643b 781a 9f3f 0648 a43e
00000020: 12f4 20c0 2085 1e3c 001b 02ba 5ca5 4cc0
00000030: d869 c7bf c097 063d dbcb 103f aad9 e2bf
00000040: c9ad 93bf aa18 563f 9289 82bf ed2e d9be
00000050: d8fa d0bd 40c8 a43b c0d6 e53c 446c 3a3f
00000060: 0559 e53f 0ac4 c2c0 52e2 6bbe 0088 1aba
00000070: f04a 4b40 d250 e9bf 9680 d2c0 f84d 21bd
00000080: 7ea9 3a40 b6f4 c93f b255 b13f be06 29c0
00000090: 7206 5a40 4186 12c0 fd4c c93f 5208 e0be
000000a0: 00e9 4fbb 81e5 3ac0 80f2 03bb eeba 2840
000000b0: 1d25 b03f 96cf 6fbf e46d 9fbe 913d 22bf
000000c0: c4f8 0fbf 60ba 83be 3060 12bf 5d31 0ebe
000000d0: 3ffe 2bbd ebca 0cc0 7043 06bd 4bd9 4ebe
000000e0: fe95 8fbf fb50 6c3f 0050 773c 249b a5be
000000f0: 9edf d8bf 8cc9 29c0 9a75 e8be 9043 2ebd
00000100: f654 aebf b034 d7be fc07 a83d 288b 8340
00000110: cc87 443f 9c0b 4a3e c0c6 82be 04fb c13f
00000120: 38f3 a63d fce7 a4bf 4258 7040 64fd b3bf
00000130: 6202 543f 92e6 773f fb59 b8be ecdd d2bf
00000140: 05fd 7840 f0e5 4240 ef93 53bf a643 cbbf
00000150: 9580 bebf 000c 9bba fe6a 35bf 7e8c 7b3f
00000160: 90cf cb3c f619 14bd 167e babf 05c7 2140
00000170: ec8e a0be b827 0abd af60 80be d493 0bbf
00000180: 6405 69c0 d3c3 24c0 808c 7fbc ffb6 88bf
00000190: 95c5 2840 8146 82bf cbf5 90bf 227d bebf
000001a0: 4823 18be 342a 16c0 1f34 c5bf f66b 243f
000001b0: 5ae4 983f 008e 1abb f409 25c0 a457 37c0
000001c0: 2b5c 99be e719 783f 43e7 c23e 26a3 923e
000001d0: 76e1 10be 9c5a dcbf d015 09bc 6453 b3be
000001e0: af2f 063f b2d9 b73f 90e7 1cbe 8b4a 8c3f
000001f0: e111 3f40 a6b3 1340 782e d040 a0aa f83b
00000200: 7f1f 10c0 52e9 0cbc d894 2d3c 692b 8ebd
00000210: 00d6 99bb 6956 8dbf e71b 30bf 6a7b 573f
00000220: 29fc 7dbf 341d 1940 3c38 6dbf b87f 4ebf
00000230: e388 1640 1896 eabd e359 70bf baa3 0241
00000240: 853b 0940 d6b0 4ebd 89b4 313e 03c6 11be
00000250: 0ade e33e 6b8e afbd dddf 49be d669 c6bf
00000260: 8220 63bd 5253 6440 76fa 8ebd 995e 0a41
00000270: 5c45 a8bf f608 59bc 9604 c7be 00e0 45b9
00000280: 961d 25c0 2702 0fc0 c8d3 82bd 857c b140
00000290: e4d2 6c3f fe09 54be fb15 8c3e de66 b4bf
000002a0: 5ef1 02be 4d30 01c2 d05d edbc 112b 2cc0
000002b0: 9bb0 0cc0 c0ea 7fbe da4a a63e 4002 91bb
000002c0: 94a4 4440 b644 9e3d 56b3 f2be 9d08 1b40
000002d0: fd1b 1bc0 ce2a eebe 3113 c5bf 509d 09bd
000002e0: 9862 83be d0a5 283f 7740 00c0 5349 e9be
000002f0: 1813 5bbe f4d8 b0bf 40a6 41bc beee 98bf
-0.5324218 0.0027018227 -1.4591525 -0.42832577 7.5482464 0.003482893 1.2429953 0.320862
-2.5148969 0.009675294 -0.000496313 -3.1975927 -1.5579176 0.032859564 0.5656106 -1.7722676
-1.153741 0.83631384 -1.0198233 -0.42418614 -0.10204095 0.0050287545 0.028056502 0.7282145
1.7917792 -6.0864305 -0.23035553 -0.00058948994 3.1764488 -1.8227789 -6.5781965 -0.039380997
2.916595 1.5777805 1.3854277 -2.6410365 3.4066434 -2.2894442 1.572662 -0.43756348
-0.0031724572 -2.9202578 -0.0020133555 2.6364093 1.3761326 -0.93676126 -0.31138527 -0.6337519
-0.5623896 -0.2572813 -0.5717802 -0.13886018 -0.041990515 -2.1998851 -0.032779157 -0.20200078
-1.1217649 0.92311066 0.015094757 -0.32344925 -1.6943243 -2.6529264 -0.45402223 -0.0425449
-1.3619678 -0.42032385 0.08204648 4.110737 0.7676971 0.19730991 -0.2554226 1.5154729
0.08151859 -1.2883296 3.7553868 -1.4061704 0.82816136 0.968362 -0.3600615 -1.6473975
3.890443 3.0452843 -0.82647604 -1.588002 -1.488299 -0.0011829138 -0.7086638 0.9826125
0.024879247 -0.03615757 -1.4569728 2.5277722 -0.3135904 -0.033729285 -0.25073764 -0.5452244
-3.640954 -2.5744522 -0.015597463 -1.0680846 2.6370595 -1.0177766 -1.132501 -1.4881938
-0.14857209 -2.3463259 -1.5406531 0.64227235 1.1944687 -0.0023583174 -2.5787325 -2.8647242
-0.2995313 0.96914524 0.38067064 0.28640097 -0.14148507 -1.7215152 -0.008367017 -0.3502456
0.5241651 1.436331 -0.15322709 1.0960249 2.9854662 2.3078399 6.5056725 0.0075886995
-2.2519224 -0.00860055 0.010594569 -0.069418736 -0.0046947002 -1.1041995 -0.68792576 0.8417269
-0.9921289 2.3924074 -0.9266393 -0.80663633 2.352105 -0.11454409 -0.93887156 8.164972
2.1442578 -0.050461613 0.17354025 -0.14235692 0.4450534 -0.08572086 -0.19714303 -1.5501049
-0.055450924 3.5675855 -0.069813654 8.648095 -1.3146167 -0.013246765 -0.38870686 -0.0001887083
-2.5799308 -2.2345064 -0.0638805 5.54645 0.92509294 -0.20706937 0.2736052 -1.4093893
-0.12787387 -32.29717 -0.028975397 -2.6901286 -2.1982791 -0.24991894 0.32478982 -0.004425317
3.072545 0.07727949 -0.47402447 2.4224007 -2.4235833 -0.46517032 -1.5396482 -0.03359729
-0.2566116 0.6587801 -2.0039346 -0.45563754 -0.21394002 -1.3816209 -0.011819422 -1.1947858

sequential_5/model_14/block_6_expand_BN/FusedBatchNormV3 f4 [192]
00000000: c47f edbe be9f 9a3f f861 06bf d2f6 c93e
00000010: ac72 053f 8d3a 8a3f f8cd 33bf 499b c8bf
00000020: 6a00 a9bf 2509 99bd ef67 a1bd ba17 56bf
00000030: 65ff d6bf 2f8b ea3e 99fc c5be db77 d73e
00000040: fa5a 27bf 6d68 6ab9 ab3d 223e e06f de3f
00000050: 32a2 803f c6ef 423f 6b80 903e 9356 b63f
00000060: 76c2 c33f 7e00 b5bf 3b78 73bf 774d de3f
00000070: f582 063e e38b 213e bdd3 57bf 02c0 bebf
00000080: 8292 c6bf 92e6 8cbf fb9e 8cbf 9cd9 ddbf
00000090: 4233 513f f0e0 9d3f faaf 4d3e b6dc 943f
000000a0: 1392 90bf 6b3b 9b3f 7ae1 f3be 8d9a 89bf
000000b0: 44f6 6bbf 7eb4 c2bf 6fa0 873f efdb b2bf
000000c0: 2921 e0bc 5135 ad3d ae8b 0540 be3f fdbc
000000d0: 2e50 60bf 8c3b cfbe 223a ec3f 80ae 64bf
000000e0: 9f7f e7bf e7af ccbe 5568 16bf aee8 a8bf
000000f0: 2efa af3e 1ca3 8e3f abdb de3f dbf1 363f
00000100: 9621 173f b828 be3f cc2e c4bf 7fcd 00bf
00000110: 7506 f1be 03e9 523e f3cd cabe a412 853f
00000120: e8c9 2d3d b140 98bf 6da1 503e b0c4 8bbe
00000130: 4d4f 833f d00b ae3f 78af c13f 7fb1 03bd
00000140: 4723 913f 7f4c 5ebf b23c 69bf 6ea4 8cbf
00000150: 5543 0240 5240 2ebf 916d 9e3f 0d86 54bf
00000160: 256d 00bf 7d29 2b3f 77b7 c3be fcc6 edbe
00000170: 78b8 0f3f acc9 ce3e dd68 ecbf 5762 383f
00000180: 9cf0 c83e 88e2 26bf b27b 4a3f 6232 183f
00000190: 73c8 10bf 0ac2 64bf 1236 b4bf 5a20 18be
000001a0: 5649 1dbf d738 2d3f 5b3b 74be 27f0 3fbe
000001b0: b0e1 723d a0cd 1a3f 92eb 50bf eb2e 5dbf
000001c0: 8c4f d1bd 2083 8c3e 1266 8bbf ae9d 8f3f
000001d0: 8ee5 5abf 7a97 85bf 6095 a2bd eed1 2cbd
000001e0: 6e06 84bf b6b1 5a3e 49af 60be 5df1 173f
000001f0: 432a b2bf d8a1 273e 2415 babe 355b 4f3f
00000200: e63d 913f 07ef a6be b33f fdbe c256 833f
00000210: 9cc9 cc3f d1fa d6bc 4a83 833e 2e61 f93f
00000220: f978 8e3f 5fd7 e1be de09 853e 0058 abbf
00000230: 32cb aabf c9fd 4ebf e8a8 963e 8740 81bf
00000240: e8d9 a93e fae2 34bf d1a4 653f 0660 ccbf
00000250: fc08 5b3f 7d8e 793e 87f1 8abf 610a 65bf
00000260: 7a6d febe 7609 e73d 8e00 df3f 54a6 8b3e
00000270: dafb 2c3f 5250 843f 9214 03bf 4f24 463f
00000280: 4418 14bf b93a f1be b15a 06bf 8114 373f
00000290: 7543 973e b344 febe 9954 f3bd 33da 44bf
000002a0: 3338 863f a3d1 4cbd b22d 1a3e 607c 513f
000002b0: 9452 5b3f 733e 2abf 7280 e03e 90be af3f
000002c0: a3d1 013f 638a b0bf 5dc1 f33d be92 08bf
000002d0: ecf4 2bbf 07a1 7c3e be6a cf3f dbb1 863f
000002e0: 3b44 6e3e 9743 f03e 3363 63be d361 97bf
000002f0: b88d 2ebe cd82 41be 0a30 503f 59bc f23f
-0.4638654 1.208 -0.5249324 0.3944612 0.521281 1.0799118 -0.7023616 -1.5672389
-1.3203251 -0.07472447 -0.07881152 -0.83629954 -1.679669 0.45809314 -0.3866928 0.4208363
-0.65373194 -0.0002235488 0.15843837 1.7377892 1.0049498 0.76147115 0.28222975 1.424517
1.529372 -1.4140775 -0.9510533 1.736739 0.13135894 0.15776019 -0.8430746 -1.4902346
-1.5513461 -1.1007864 -1.0986017 -1.7332034 0.8171884 1.233427 0.20086661 1.1629856
-1.1294578 1.2127508 -0.47632962 -1.075029 -0.92172647 -1.5211332 1.0595835 -1.3973368
-0.027359562 0.08457435 2.0866504 -0.030914184 -0.87622344 -0.40475118 1.8455241 -0.89328766
-1.8085822 -0.39977953 -0.5875295 -1.3196008 0.3437056 1.1143527 1.7410787 0.7146279
0.59035623 1.4856176 -1.5326781 -0.5031356 -0.4707524 0.205967 -0.39610252 1.0396314
0.04242888 -1.1894742 0.20374079 -0.27298498 1.0258576 1.3597355 1.5131674 -0.032151695
1.1338891 -0.86835474 -0.9110824 -1.098768 2.0353596 -0.68066895 1.2377187 -0.83017045
-0.5016654 0.6686018 -0.3822591 -0.46440876 0.5614085 0.40388238 -1.8469502 0.72025055
0.3924607 -0.6518941 0.79094994 0.5945188 -0.5655586 -0.8935858 -1.4079001 -0.14856091
-0.61440027 0.67664856 -0.23850767 -0.18743955 0.059297264 0.6047001 -0.8160945 -0.86399716
-0.102202505 0.2744379 -1.0890524 1.1219995 -0.8550652 -1.0436852 -0.07938647 -0.042192392
-1.0314462 0.21356854 -0.21941866 0.59352666 -1.3919147 0.16370332 -0.36344254 0.80998546
1.1347015 -0.32604238 -0.4946266 1.0260851 1.5999026 -0.026242645 0.25686103 1.9482782
1.1130668 -0.44109628 0.2598409 -1.338623 -1.334326 -0.80855995 0.2942574 -1.0097817
0.33174062 -0.7065884 0.89704615 -1.5966804 0.85560584 0.24370761 -1.0854958 -0.8946896
-0.496929 0.112811014 1.7422044 0.27275336 0.67571795 1.0337012 -0.5120326 0.7739915
-0.57849526 -0.47115114 -0.52482134 0.7151566 0.29543653 -0.49661788 -0.1188137 -0.76895446
1.0485901 -0.050004613 0.15056494 0.81830406 0.8567288 -0.6650154 0.43847996 1.373003
0.50710505 -1.3792232 0.119021155 -0.5334891 -0.67170596 0.24670802 1.620445 1.0523027
0.23268215 0.46926567 -0.2220581 -1.1826729 -0.17046249 -0.18897553 0.813233 1.8963729

sequential_5/batch_normalization_10/FusedBatchNormV3 f4 [52]
00000000: c210 ef41 e443 c13d ce25 4b3e 8552 ed41
00000010: 69cd f841 b37d 413e 7da8 ae41 0489 fc41
00000020: 165d c83e 99eb 893c ba46 503e b367 7e3d
00000030: 2351 1742 d761 ee41 6d9a 513e a887 f841
00000040: e0ca 1b42 98b4 323e 2af9 7d3d 7ec1 8e3d
00000050: fc59 343d bc64 ea41 02a7 573e 41d2 d73e
00000060: 2ce4 0242 c116 413e 3adf 173e b409 293f
00000070: 43f4 0542 c6fc 173e 029c c13e 27dc 5941
00000080: 74f0 1f3c 40d3 073f 9d5c a73e 0de6 1a3e
00000090: 18a7 0842 634b 133d e33e 0242 6fb5 503e
000000a0: c6c9 ec41 dea2 e041 a51f 0242 b9d2 c941
000000b0: e98a ff41 fdc1 893e 8245 c43c 4fa9 1a3e
000000c0: c130 cd41 45c5 623e b748 ea41 4c37 b73d
29.883183 0.09436777 0.1983864 29.665293 31.100298 0.18895607 21.83227 31.566902
0.3913352 0.016835975 0.2033948 0.062110614 37.829235 29.797773 0.20469065 31.066238
38.94812 0.17451704 0.0620052 0.069704995 0.04403113 29.299187 0.21059802 0.42152599
32.722824 0.18856336 0.14831248 0.6603043 33.488537 0.14842519 0.37814337 13.616248
0.009761918 0.53056717 0.32687846 0.1512682 34.163177 0.035960566 32.561413 0.20381711
29.598522 28.079525 32.530903 25.227892 31.942827 0.26905814 0.023958925 0.15103649
25.648806 0.22145565 29.285505 0.08946094

sequential_5/batch_normalization_10/FusedBatchNormV31 f4 [52]
00000000: 10ea 99bd 5229 d7bf 1069 dcbd fafd 09bf
00000010: 9f70 03bf 30d6 d9be 6c8e 913d 6e18 0abd
00000020: 30d9 bebd 5e5a 1abf e128 82bf 1843 e7bf
00000030: b909 0bbf b3e8 b03e f605 febe 6f93 d63e
00000040: 2353 e1be 2e40 86be 1a8d f2bf 6fdd edbf
00000050: 2c27 19be 6009 5b38 861c 5abe 5d8e fcbf
00000060: 597b 963d 000f 78bd 927a dbbf 9f29 9abd
00000070: 9aa3 e5bc 2ca8 26bf 7686 48bf 7883 5e3e
00000080: 3430 8ebe dbc5 2abf d3d7 febe 8018 463c
00000090: e001 a6be 7ed3 3ebf c172 e7be 33bd 81c0
000000a0: c8b9 423e 8e93 593d 9e6a bbbe 3cd4 383a
000000b0: aa26 e83e 7cc9 723e 8ae3 08bf 58e3 f7bf
000000c0: a74e bd3e 3008 f3be bd7d b23e 3190 fbbf
-0.07515347 -1.6809485 -0.107622266 -0.5390316 -0.5134372 -0.42546225 0.07107243 -0.033714704
-0.09318769 -0.6029414 -1.0168725 -1.806735 -0.5431171 0.34552535 -0.49613923 0.41909358
-0.4400874 -0.2622084 -1.8949311 -1.8583201 -0.14956349 5.22224e-05 -0.21299943 -1.9730946
0.073477454 -0.06056118 -1.714678 -0.0752747 -0.028032113 -0.6510036 -0.7833017 0.21729839
-0.2777115 -0.66708153 -0.49774036 0.012090802 -0.32423306 -0.7454146 -0.45204738 -4.0543456
0.19016182 0.053119235 -0.3660478 0.00070506684 0.45341998 0.23709673 -0.534722 -1.9366255
0.3697407 -0.47467184 0.34861556 -1.9653379

sequential_5/batch_normalization_11/FusedBatchNormV3 f4 [16]
00000000: bfb0 903f 832a 0c3f b416 5d3f 449d 40bc
00000010: d0dd 2240 b55f 1d3f dfac a13f 2a7d a13f
00000020: 117e 893e ec75 0a3f 4c01 393e 2ed1 2140
00000030: a7ee d33f d339 5a3f b183 403f e5b0 bd3f
1.1303939 0.5475237 0.8636277 -0.011756245 2.5447884 0.6147416 1.2630881 1.2616322
0.26853994 0.54086185 0.18066901 2.5283923 1.6557206 0.8524448 0.75200945 1.4819609

sequential_5/batch_normalization_11/FusedBatchNormV31 f4 [16]
00000000: a74a b0bf 22fb 8b3f e797 843f 8255 c13f
00000010: 7b93 e5bf f1df 5b3f 29cb 8a3f 5754 e7bf
00000020: 441e bfbf fa39 093f b019 483f 575b ebbf
00000030: 4fe4 f7bf 80da e2bf 44de 8d3f c800 ecbf
-1.3772782 1.0936015 1.0358857 1.510422 -1.7935632 0.8588858 1.084325 -1.8072613
-1.4931111 0.5360409 0.78164196 -1.838725 -1.9366549 -1.7722931 1.1083455 -1.8437738
