src/AI/model.tflite (tflite, 300916 bytes, 47 tensors)

sequential/conv2d/BiasAdd/ReadVariableOp f4 [52]
000000 52 87 87 be 7f 66 45 bd 8c fc 18 3f 97 31 43 be
       -0.2647043 -0.04819345 0.59760356 -0.19061886
000010 37 7a 51 be bc f9 9c bb 8c 2e 2d be 1d ff c3 3e
       -0.20456778 -0.004790513 -0.16912287 0.38280573
000020 f3 c8 b6 bd 79 b2 f3 3d d8 b0 b5 3e bb 8d b7 be
       -0.08925047 0.11899275 0.35486484 -0.3585032
000030 86 83 4a bd f3 06 17 be c1 6b 3f bd cf 47 21 be
       -0.049441837 -0.14748745 -0.04673362 -0.15750049
000040 5b 89 cb 3e ac be 90 bd 00 00 00 00 5f 86 b0 be
       0.3975323 -0.07067618 0.0 -0.34477517
000050 c2 8e eb 3d 6f 67 96 3e d5 a4 73 bd a8 a3 80 bd
       0.11501838 0.2937579 -0.059483368 -0.06281215
000060 e2 0d ec 3e 74 db be bc 47 d9 c8 bd c6 72 24 be
       0.46104342 -0.023298003 -0.09807067 -0.16059408
000070 03 8d e3 be 58 ed 5c be a6 f3 b3 be 80 06 fb be
       -0.4444352 -0.21574914 -0.35146827 -0.49028397
000080 6f cf d9 be 62 1a 58 bd b7 9e 58 be 2f 4d 0a 3f
       -0.42541072 -0.052759536 -0.21154295 0.5402402
000090 eb a5 94 bd 80 f8 b2 bd 0a 8e 1a 3f 75 a3 0f 3f
       -0.07258209 -0.08738804 0.60372984 0.5610879
0000a0 c0 11 3b bf 3b c7 4b bd 53 56 c4 be 52 c8 50 be
       -0.7307396 -0.049750548 -0.3834711 -0.20388916
0000b0 76 a3 72 bd b9 b1 df bd a5 ba 1d 3f 29 da a7 bd
       -0.05923792 -0.1092257 0.6161292 -0.081959076
0000c0 b3 e6 db 3d 10 d2 10 bd cb a6 5c 3f 5f c4 d4 3f
       0.10737362 -0.03535658 0.86192006 1.6622428

sequential/conv2d_1/BiasAdd/ReadVariableOp f4 [16]
000000 90 ce 33 bf 38 9c 2a bf 01 b4 91 bf d5 a7 85 be
       -0.70237064 -0.6664462 -1.1383058 -0.26104608
000010 57 d5 78 bf 97 99 b2 be d5 1d 50 bf af 8f 34 bf
       -0.9720053 -0.34882805 -0.8129552 -0.70531744
000020 59 e3 4f bf fb c4 8f bf d2 be 13 bf 24 da 9b bf
       -0.8120628 -1.1231989 -0.57713044 -1.2175946
000030 31 79 11 bf 89 d6 16 bf 58 c9 3b bf e3 45 cf be
       -0.5682555 -0.58921105 -0.733541 -0.40483007

sequential/model/bn_Conv1/FusedBatchNormV3 f4 [32]
000000 48 90 b8 be 45 bd 02 be ab e5 51 40 00 90 8c be
       -0.36047578 -0.12767513 3.2796428 -0.27453613
000010 4d 03 f1 bf ff 33 5d 40 ff 83 53 40 06 1c 1a 3e
       -1.8829132 3.4562986 3.3049314 0.15049753
000020 af ea 16 40 aa 1b 0f 3f 90 53 4e 40 a6 f8 54 40
       2.358074 0.55901587 3.2238503 3.3276763
000030 73 80 a0 3d d8 28 c1 c0 35 73 99 3e 7b 50 09 3e
       0.07837 -6.036236 0.29970708 0.13409607
000040 6b 9b 3c 40 b8 15 74 40 c8 58 73 3f 62 ac a6 40
       2.946986 3.8138256 0.95057344 5.208543
000050 8b c2 78 be 46 84 74 40 6d c6 46 40 6d 13 16 c0
       -0.24292962 3.8205733 3.105861 -2.3449357
000060 0c 14 06 c0 80 e2 53 40 d0 ab 81 40 2b af 11 c1
       -2.0949736 3.3106995 4.052223 -9.105266
000070 ef 48 7f 3e 6f 5e 8e be 0e f8 dc bf ae 8e 3d 40
       0.24930166 -0.27806422 -1.72632 2.9618335

sequential/model/expanded_conv_depthwise_BN/FusedBatchNormV3 f4 [32]
000000 4b df d7 be 16 e6 3d bf c2 52 40 40 01 7c cf be
       -0.42162547 -0.7417921 3.0050511 -0.40524295
000010 d7 41 0c bf d5 fe 2d 40 81 0e 50 40 74 8e 52 c0
       -0.54787964 2.7186787 3.2508852 -3.2899446
000020 3a 77 67 40 a8 a9 29 bd 9e a9 99 40 3e 1c b9 40
       3.616652 -0.041421562 4.801955 5.7846975
000030 a0 3d 70 bd f0 f8 c3 be d0 7b 36 bd d0 85 32 bd
       -0.05865252 -0.38275862 -0.04455167 -0.043584645
000040 d6 96 52 40 89 b4 3c 40 b1 27 ec 3f e5 76 cc 40
       3.2904563 2.948519 1.8449613 6.3895135
000050 85 28 1f bf 7e 4a 4e 40 d0 aa ee 3e 80 15 c4 3e
       -0.621712 3.2232966 0.46614695 0.38297653
000060 29 ac 13 3f 52 82 4e 40 e4 34 1b 41 a8 32 1f 40
       0.5768457 3.2267041 9.700413 2.4874668
000070 c0 69 3d bc 88 e0 09 bf 7d 47 bf 3e 31 d0 c3 3f
       -0.011560857 -0.5385823 0.3735923 1.529791

sequential/model/block_1_expand_BN/FusedBatchNormV3 f4 [96]
000000 a9 f0 0c 3d cc aa f1 3f 34 94 69 40 63 bc 00 c0
       0.0344092 1.8880248 3.6496706 -2.0114982
000010 fb d7 ac 3d da 6b e2 bd b9 b6 ff 3f 39 11 68 40
       0.084396325 -0.11055727 1.9977638 3.6260512
000020 7f c9 31 bd 8f 73 21 be db e3 5d be 8f 6a f8 bc
       -0.043405052 -0.15766738 -0.21668951 -0.030324249
000030 a2 14 90 40 bc ba 90 40 ef d9 0f 40 c3 e3 f0 3f
       4.5025187 4.5227947 2.2476766 1.8819507
000040 22 a5 27 40 e6 d9 19 40 32 85 2a 40 24 ea ca 3c
       2.619454 2.4039245 2.6643796 0.02476985
000050 b5 55 aa bc 10 9d 05 be 56 9c 13 3d 19 52 e3 3f
       -0.020792821 -0.13048196 0.036037765 1.7759429
000060 61 32 23 be 77 92 4e bd 54 14 4a 3e aa 52 6d 40
       -0.15937187 -0.05043265 0.19734317 3.7081704
000070 67 5e 66 be 01 c2 0c bd 3f c5 bb 3f 5e a6 cd bc
       -0.22496949 -0.034364704 1.466957 -0.025103744
000080 82 e4 e1 3e 9a 87 cd be 81 fd 0e 40 d2 c2 03 40
       0.4411965 -0.40142518 2.2342227 2.058766
000090 fa d6 2b 40 3b 39 20 3f 9c ac ab bb b4 46 41 be
       2.6849961 0.62587327 -0.0052390825 -0.18874627
0000a0 02 49 83 3f aa 0e 97 3e c0 a8 b7 3c d4 a8 41 3f
       1.0256655 0.29503375 0.022419333 0.75648236
0000b0 c4 33 86 40 4b a0 10 3f e2 99 b6 3d 1d 6e a3 3d
       4.193819 0.5649459 0.089160696 0.07979987
0000c0 4a e2 e0 be 5f 98 b6 40 d9 d0 04 40 9c 95 13 40
       -0.43922645 5.7061 2.075247 2.3060064
0000d0 2b bf 9a 40 00 12 7f 3d 64 fb 3f 3a 45 23 2f 40
       4.835836 0.062273026 0.0007323532 2.7365277
0000e0 c6 00 b2 bf 45 b0 6a 40 b8 d3 9b 3f 34 37 83 3d
       -1.3906486 3.6670086 1.2173986 0.064070135
0000f0 2b 69 88 3f 87 22 19 be cc dc eb bd 1e e8 0d bc
       1.0657095 -0.14954577 -0.11516723 -0.008661298
000100 82 a1 10 3f 3c e9 0f 3f e2 30 00 3c 2f 3d 13 40
       0.5649644 0.5621526 0.007824155 2.3006094
000110 a1 e3 82 40 7a 10 c7 bc 19 8c dc bb 8e 53 a6 3d
       4.0902867 -0.024299849 -0.006730568 0.081214055
000120 7e 35 30 40 f7 d6 2b 40 bd 39 07 40 cf 5a 52 3f
       2.753265 2.6849954 2.112899 0.8216981
000130 7d dd 19 3d ac cf 34 40 67 9e 0d 3d a1 6f d3 3f
       0.037564743 2.8251753 0.034574892 1.6518441
000140 a7 2e 30 40 5c db 35 40 4c af 6a 40 27 42 b1 bd
       2.7528474 2.8415136 3.6669493 -0.08655196
000150 80 f1 31 40 56 71 93 be f7 a9 0b 40 46 ce 1f 40
       2.780365 -0.28797406 2.1822488 2.496965
000160 df 6c 69 40 c0 f1 fc 3e bc 01 d5 3f bd ef f1 3b
       3.64727 0.4940319 1.6641154 0.0073833154
000170 3f 02 1b 3e 69 c5 7e 3d ee 29 ec 3c c3 9b 67 3e
       0.15137576 0.062199984 0.028828587 0.22618012

sequential/model/block_1_depthwise_BN/FusedBatchNormV3 f4 [96]
000000 f8 c9 b9 3d 86 b9 63 40 4a a9 c7 40 73 f0 6a 3f
       0.090717256 3.5581985 6.239415 0.91773146
000010 5c 16 30 3f 89 99 49 3e 22 66 03 be 21 06 df 3d
       0.6878412 0.19687475 -0.1283193 0.10889841
000020 af 41 63 3f 70 62 6b 3d 76 7a d7 3f e0 64 7c 3d
       0.887721 0.057466924 1.6834247 0.06161964
000030 13 a5 86 3f cc 50 b5 3f 78 ee 14 bc 9b c0 c9 3f
       1.0519127 1.4165282 -0.0090900585 1.5761904
000040 c3 eb bf c0 f3 6e ac 3d 84 c7 f4 3c ca 94 93 40
       -5.9975295 0.084195994 0.029880293 4.6119127
000050 f6 69 09 3e ce 78 b6 40 a6 fb 8d 3e 88 3a 47 bf
       0.13419327 5.7022467 0.27731055 -0.77823687
000060 e7 31 34 40 28 63 8b 3d 14 0e 9a 3f fa 32 fb c0
       2.8155458 0.06806022 1.2035546 -7.8499727
000070 78 6a 80 40 7a 12 93 3f 80 20 c6 3b d0 97 be 40
       4.0129967 1.1490014 0.006046355 5.956032
000080 68 98 d8 3f 71 01 1d 40 80 19 3b 3e 08 d6 62 bf
       1.6921511 2.453213 0.18271446 -0.88607836
000090 7f 5a 09 3e 10 9d 56 be 18 8d cd 3d 70 ea 4d 3d
       0.13413428 -0.20958352 0.10036677 0.050272405
0000a0 4a ce d0 be e7 a9 11 3d 5a 6f 86 3f 86 b2 46 be
       -0.40782386 0.035562422 1.0502732 -0.19404039
0000b0 4b 8d 04 40 19 d8 9d 40 eb 39 ef 3e 60 4f 44 3d
       2.0711238 4.932629 0.46723875 0.04792726
0000c0 6e 92 b1 40 67 f1 79 c0 25 52 86 3d 06 a1 9a bd
       5.5491247 -3.905359 0.065586366 -0.07550244
0000d0 e4 0e 2c 3f 80 b7 18 3d 94 c6 ce 3e e6 eb cb ba
       0.6721022 0.037284374 0.40385878 -0.0015557974
0000e0 8e 51 b6 3f 8d 06 ba c0 80 31 c9 bd b0 dc 1d 3d
       1.4243639 -5.8132997 -0.098238945 0.038540542
0000f0 61 cc 0d 40 7f 48 8e 3f a9 62 8f 3f 40 35 1a 3d
       2.2155993 1.1115874 1.1201984 0.03764844
000100 dc ad 36 40 34 f3 bd 3f 9b 73 b1 3f bb c4 89 3d
       2.8543615 1.4839845 1.3863405 0.067269765
000110 a7 02 2d 41 46 2d 97 3f 28 12 aa 3e a2 d8 88 40
       10.813148 1.1810691 0.33216977 4.2764444
000120 be cb 70 3e 2e ac d1 3e d0 ef bc 3e 4e 9e 87 3f
       0.23515221 0.40951675 0.36901712 1.0595186
000130 d0 07 ae 3d 30 0a 99 bd c0 9a 77 bc d9 e2 fc be
       0.08497584 -0.07472646 -0.015112579 -0.4939182
000140 a4 a6 35 40 67 cd f6 bd 15 67 97 3e 38 ff 16 3d
       2.838296 -0.12050896 0.29570833 0.03686449
000150 c5 62 65 3f 3c 50 d5 3f 33 c1 ce 3b 18 f3 3c c0
       0.89603835 1.666511 0.0063096522 -2.9523373
000160 6a 05 dc 3e 40 8a 60 40 bb 30 c9 3f e0 3e b7 3c
       0.4297288 3.508438 1.5717996 0.022368848
000170 d8 09 60 3e ea ec c1 3f c8 95 52 3d 8a 2f 49 bc
       0.21878755 1.5150425 0.051412374 -0.012279401

sequential/model/block_2_expand_BN/FusedBatchNormV3 f4 [144]
000000 59 7d 1a 40 d1 72 0f bf 9b dd a3 3f e1 3b 99 3f
       2.4139006 -0.5603457 1.2802004 1.1971399
000010 27 5e 1e 40 01 11 06 40 85 22 d2 3e 6b 2b 6c 40
       2.4744966 2.0947878 0.4104196 3.69015
000020 02 a5 9b bf eb da 26 bf cc 2e 40 40 ac 9a bb 40
       -1.2159731 -0.6517779 3.0028563 5.862631
000030 33 95 ca 3f 81 13 38 be 25 3a 28 3f 97 9c ef 3f
       1.5826782 -0.1797619 0.6571372 1.8719662
000040 f1 a2 85 3f 2a 79 24 3f 63 b2 ac be 1a 06 18 40
       1.0440351 0.6424738 -0.33729848 2.3753724
000050 ce 60 9f 3f b0 09 bb 3f 0d 35 21 c0 f7 67 f9 3f
       1.2451417 1.4612331 -2.518863 1.9484853
000060 ec b7 96 3f b2 ed 3b 3f a9 48 1c 40 0d 3e 4e bf
       1.1774879 0.7340957 2.4419348 -0.8056343
000070 93 ea 2e c0 46 84 a8 3f aa b6 0c c0 11 7b e2 3f
       -2.7330673 1.3165367 -2.198649 1.7693807
000080 e6 86 5b bf a9 0d dd 3f 5e 6d ad 3f 8e 0d 8b 3e
       -0.85752714 1.7269794 1.3549001 0.2715878
000090 e0 9e b2 3f cb ec 2e 3f 06 8e 02 40 a2 fa a5 40
       1.3954735 0.6833007 2.0399184 5.186845
0000a0 fd f9 7a 40 bb 51 97 bd a3 14 41 be 3b ea ab 3f
       3.921508 -0.07388636 -0.18855529 1.3430856
0000b0 cf ad ac be 36 7a a0 3f 63 87 8a 3f 0e 97 b3 3f
       -0.33726355 1.2537296 1.0822567 1.4030473
0000c0 f5 56 2f 40 97 00 ce 3f 91 e6 1b 3f 57 a4 39 3f
       2.7396824 1.609393 0.6089869 0.7251639
0000d0 95 3f fd 3f cb 7e 75 3f 74 7f 98 3f d8 6e e5 bf
       1.9785029 0.95896596 1.1913896 -1.7924452
0000e0 5c 99 d1 be 8d 51 48 3f 63 5a 18 40 f6 76 86 be
       -0.40937316 0.78249437 2.3805168 -0.26262635
0000f0 5c cf c9 3f c7 6a 0a 3f b8 49 78 40 49 d3 a9 be
       1.5766406 0.5406918 3.8794994 -0.3316901
000100 79 6c fc be 33 01 2a 3f e8 72 61 3f e1 7b c8 3f
       -0.49301508 0.6640808 0.8806596 1.5662805
000110 56 27 b0 3f cd b8 15 40 f5 a7 3b 40 17 bb 6e bf
       1.3762004 2.3394043 2.9321263 -0.93254226
000120 af 74 7a be 2e 33 1e 40 86 6e 24 40 12 25 85 3f
       -0.24458574 2.4718738 2.5692458 1.0401938
000130 0e b7 da 3f 0c 2a 33 3f b0 b8 0d 40 6c ca 17 40
       1.7087114 0.69986033 2.2143974 2.3717299
000140 a1 b9 57 3f c0 7c 55 40 76 ae 12 40 63 9d 95 bf
       0.8426762 3.3357391 2.2918983 -1.1688656
000150 01 ca 98 3f 7e 71 7e 40 8b 58 db 3f d0 a6 4c 3f
       1.1936647 3.975677 1.7136396 0.79942036
000160 37 f4 df 3f d4 37 ef 3f 08 82 c7 3b 0c e2 84 3f
       1.7496403 1.8688912 0.006088499 1.0381484
000170 e9 3d 85 3f e8 b2 05 40 53 48 38 c0 91 53 68 bf
       1.0409518 2.0890446 -2.8794143 -0.9075251
000180 bb 25 e4 3f 22 8a 00 bf 36 4c 3c bf c4 50 83 3f
       1.7824014 -0.50210774 -0.7355379 1.0259023
000190 92 6e ed 3f df ea 91 3f fa b1 81 bf b5 0e 08 bf
       1.8549368 1.1399802 -1.0132439 -0.5314744
0001a0 74 80 b4 40 ba 9b a8 bf cf 6e fe 3f ea 19 be 3f
       5.6406803 -1.3172524 1.9877566 1.4851658
0001b0 8b de 70 3f ea 05 06 40 ce 65 95 3f 1b 6b 8e 3e
       0.94089574 2.094111 1.1671693 0.2781609
0001c0 53 8e e9 be 2f 49 c2 bf 6f 27 a9 3f d8 b6 cf be
       -0.45616397 -1.5178584 1.3215159 -0.40569186
0001d0 4f b9 41 40 a1 cd d9 3f 6b 67 b8 3f f8 e7 2e 40
       3.0269353 1.7015878 1.4406561 2.7329082
0001e0 f1 10 2b 40 7c ca 8d 3f 3b 08 69 40 de 79 cc 3f
       2.672909 1.1077418 3.6411273 1.5974691
0001f0 33 5c ea 3f 57 0c a1 3f fa 8c b4 3f 8a 8f a1 bf
       1.8309387 1.2581891 1.4105523 -1.262193
000200 2c bd d9 3e 5c 23 a0 bf fa 91 59 3f 22 75 34 40
       0.4252714 -1.2510791 0.8498837 2.8196492
000210 85 b2 00 bd c9 6e 14 40 6a d6 88 3f 7a 74 a7 3e
       -0.03142025 2.3192618 1.0690434 0.32706052
000220 1c 30 05 40 d6 81 9f 3f df 48 51 40 64 d0 62 40
       2.0810614 1.2461498 3.2700727 3.5439692
000230 e8 f9 21 40 29 21 4f 3f 82 bc 0f 3e ea 8e db 3f
       2.530878 0.80909973 0.14036754 1.7152989

sequential/model/block_2_depthwise_BN/FusedBatchNormV3 f4 [144]
000000 52 bd 9a 3f 18 5a f2 3e 02 a1 95 40 7c 0a e8 3c
       1.2089026 0.4733436 4.6759043 0.028325312
000010 3a f2 b6 bd 0c 5a 4c be 59 5a 70 3e 37 fd 48 40
       -0.0893292 -0.19956225 0.23471965 3.140455
000020 e4 d9 f4 3f e0 05 98 ba 92 e3 85 40 e4 6e 10 41
       1.9128995 -0.001159843 4.1840296 9.027073
000030 24 a3 cb bd 94 0c 25 bd 20 24 28 3e 30 9a e8 3e
       -0.09943226 -0.0402952 0.1642003 0.45430136
000040 ca 91 ee 3f 5e ed 03 40 0a 27 13 40 3c 66 6e bf
       1.8638241 2.0613627 2.2992578 -0.9312475
000050 99 e4 4d be 9d 8e 25 3f 7b 1d 3a 40 c8 39 b8 be
       -0.20106734 0.64670736 2.9080493 -0.35981584
000060 6a 05 0e c0 96 61 3d bf 46 fe 01 40 38 68 61 be
       -2.2190804 -0.7397703 2.0311446 -0.22012413
000070 c0 29 e0 3f cf 60 ba bd 46 c7 ef bf be e5 c0 bf
       1.7512741 -0.09100496 -1.8732688 -1.5070112
000080 f4 38 06 40 d2 39 bc be 43 02 b0 3f 0e 50 03 bf
       2.0972261 -0.36762863 1.375069 -0.5129403
000090 5b aa bf bf 5f 18 2f 3f a3 4e 8f be 54 5e 29 40
       -1.4973863 0.6839656 -0.27989683 2.6463823
0000a0 ce e7 cc 3f f0 80 df 3f 6e 81 96 3f 24 9b 8f 3c
       1.6008241 1.7461224 1.1758249 0.017530032
0000b0 e4 ba 85 40 bf 1c 28 3e f1 06 53 40 10 a3 44 bd
       4.179064 0.16417216 3.2972987 -0.04800707
0000c0 02 e0 da be 56 d2 d9 be 35 ac 0d 3f 46 7b 03 3f
       -0.4274903 -0.42543286 0.5534089 0.51359975
0000d0 6b b9 24 40 80 88 0e 3a 40 9c d5 3d f0 66 86 40
       2.573817 0.000543721 0.10430193 4.2000656
0000e0 d4 db 52 40 74 95 4a 3c cc e0 9a be bf 70 9f bf
       3.2946672 0.012364734 -0.3024963 -1.2456282
0000f0 50 b8 1a 3f d5 61 19 3e 37 6e a4 41 09 eb f6 be
       0.6043749 0.14978726 20.553816 -0.48226193
000100 ca dc 3d 40 a8 f2 04 bf bd 76 24 bf 0a 09 ca bf
       2.966601 -0.51932764 -0.6424368 -1.5784009
000110 11 9e 1f 3e 26 39 49 40 70 68 c2 3c 06 c7 e1 bd
       0.15587641 3.144113 0.02373144 -0.11024289
000120 12 ba ad bd a3 ad eb 40 a8 63 1d bc a6 46 79 bf
       -0.08482756 7.364946 -0.009606279 -0.97373426
000130 2b 8c f3 be e2 2c 42 40 db 21 1d 3e ce 23 db 3f
       -0.47567877 3.0339894 0.15344946 1.7120302
000140 09 cd a6 3f 26 62 b8 c0 6c 9b 0c bf c0 b7 a1 bb
       1.3031322 -5.761981 -0.54924655 -0.004935235
000150 88 81 72 bd 3c 61 fa 3f 86 8f 1f c0 34 d8 05 be
       -0.059205562 1.9560924 -2.493135 -0.13070756
000160 6e 1a 02 3e 90 1d 62 3c fd aa c0 be e5 da 16 be
       0.12705395 0.013800994 -0.37630454 -0.14731939
000170 84 fc 07 c0 56 5f 5d 40 13 40 6f 40 16 51 30 40
       -2.1247873 3.4589438 3.7382858 2.754949
000180 fe 04 25 bd 27 cb 89 bf c4 de 58 be a0 24 5d 3f
       -0.040287964 -1.0765122 -0.21178728 0.8638401
000190 42 f8 43 3d de 58 bf 3f c9 93 1f c0 4b f5 15 bf
       0.04784418 1.4948995 -2.493395 -0.5857741
0001a0 35 28 f6 3f eb 7c 7e be a0 29 dd 3d ae 04 92 3e
       1.923102 -0.2485234 0.10798955 0.28519195
0001b0 f5 d8 39 3f d0 f3 2b bf be 3b 06 be f9 11 9d bf
       0.72596675 -0.67168903 -0.13108727 -1.227111
0001c0 62 a5 96 40 da a6 1a 40 45 0f 50 40 78 61 59 3f
       4.7076883 2.4164338 3.250932 0.8491435
0001d0 a0 e0 5b 3e b8 5d 70 3d 37 8f 20 3f 26 1c 89 3f
       0.21472406 0.058683127 0.6271853 1.0711715
0001e0 7c 13 48 bf 90 e5 8d bc b4 64 2b c0 8a b5 37 40
       -0.7815473 -0.017321378 -2.6780214 2.8704553
0001f0 92 93 52 bf b0 36 92 3f 98 d0 99 3d 6e 7a 67 40
       -0.82256424 1.1422939 0.07510489 3.6168475
000200 c2 28 43 bf b0 f9 e8 bb 4b 16 de be 87 de 3b c0
       -0.76234066 -0.007109843 -0.43376383 -2.935457
000210 4e 06 38 40 f0 fe 4b 3f 1e 90 cf 3e 43 27 77 40
       2.8753848 0.7968588 0.4053964 3.8617713
000220 48 f3 e0 bd 72 62 08 bf 2e 28 9b 3e 46 d5 4f 40
       -0.10983902 -0.53275216 0.30304092 3.2473922
000230 f6 4e 57 40 68 01 b6 bc c0 5f 0d 3f 20 6c 39 3e
       3.3641944 -0.022217467 0.5522423 0.18107653

sequential/model/block_3_expand_BN/FusedBatchNormV3 f4 [144]
000000 78 5a 8e 3f 33 96 fe 3e 50 f1 f9 be 6a f6 86 3d
       1.1121359 0.49723968 -0.4881692 0.065899685
000010 5b 07 dc 3f 9f 9d a1 3f 0d a0 16 c0 95 6e eb bf
       1.7189745 1.2626227 -2.3535187 -1.8393122
000020 e8 38 8b bf 23 9d 2f bd 8a b8 0d 3f 74 9f da 3e
       -1.0876741 -0.042874467 0.5535971 0.42699778
000030 9c 83 e9 be 47 dd f5 3f 0b 61 f6 3f 9a c9 06 bf
       -0.45608222 1.9208153 1.9248365 -0.5265137
000040 de 40 cc be 0f 04 08 40 78 7f 83 3f a9 cb 37 3f
       -0.3989324 2.1252477 1.0273275 0.71795136
000050 86 68 05 bf 5a a9 79 40 ff 64 1e be 3c 06 14 3f
       -0.52112615 3.9009614 -0.15468214 0.5782201
000060 e0 25 32 3c bc 5e ff 3e 4e fc 86 3e d0 1e 2a c0
       0.010873288 0.49876964 0.26364368 -2.6581306
000070 b3 e5 b1 3f de 90 f0 3f 97 33 e5 3f dc 79 e6 3f
       1.3898224 1.879421 1.7906369 1.8005939
000080 86 4e cd 3d 16 04 cd 3f 67 df f5 3e cc 1b 0b bf
       0.10024743 1.6016872 0.48022005 -0.5433929
000090 ed 93 c8 be 4a 0c e0 3f 45 2e cb be 70 43 47 40
       -0.39175358 1.750375 -0.39683738 3.113491
0000a0 d4 c0 8c be 5b 7b 65 3f 34 a0 b4 3e 8c 5d 2a 3e
       -0.27490866 0.8964135 0.35278475 0.16637248
0000b0 7e b6 7e bf 2f 9e ec be 7d 92 bf bf a8 b3 2f 40
       -0.9949721 -0.46214435 -1.496658 2.7453403
0000c0 9d 87 17 3f 41 b6 af bd 45 09 72 bf 69 30 2d 40
       0.59191304 -0.08579684 -0.94545394 2.7060797
0000d0 96 03 65 40 36 c0 09 bf 3a 45 00 bf f3 4f b8 bf
       3.5783439 -0.53808916 -0.5010563 -1.4399399
0000e0 d0 c5 e1 3e b4 50 4a bd 14 ee 90 be 25 9a 2b bf
       0.4409623 -0.04939337 -0.2830664 -0.6703208
0000f0 ec 4f f2 3f 8a 39 cf bd db 30 f7 3f ba f0 ee 3e
       1.893064 -0.101183966 1.9311785 0.46668035
000100 77 a8 fa 3f e0 70 ff 3f 7a 3e 9a be 0a c5 91 bf
       1.9582661 1.9956322 -0.3012579 -1.1388257
000110 f0 9e 45 3e 81 04 47 bf c4 43 bc 3f d0 28 83 3d
       0.19298911 -0.7774125 1.470818 0.06404269
000120 21 e7 23 3e 3f 66 d4 3f f3 80 b3 3f 6e af 21 3f
       0.16006137 1.6593703 1.4023727 0.6315831
000130 98 0b 1b bf f6 b0 bd bf 70 5d d5 bf 53 ed e1 3f
       -0.60564566 -1.4819629 -1.666914 1.7650551
000140 73 d8 a4 3e dc 0d 3f 3f 16 c2 3d 40 8e 60 84 3b
       0.32196388 0.7463052 2.964971 0.0040398305
000150 7e 65 ce 3e 42 68 49 3f fc c1 13 be 04 c7 b8 be
       0.40311807 0.7867471 -0.14429468 -0.36089337
000160 7a 7f 8c 3f 8a 71 0f bf 5c 25 e5 bd b3 1b ed 3f
       1.0976403 -0.5603262 -0.11188766 1.8524078
000170 e5 25 97 3e 2f 2e 05 40 48 df 76 3f 49 2a 39 bf
       0.295211 2.0809438 0.9643445 -0.7233015
000180 2a f4 3a 3f 71 90 21 bf b3 cf 33 bf 1a b4 4e 3f
       0.73028815 -0.63111025 -0.702388 0.80743563
000190 eb bc 80 40 71 8b 13 bf 51 99 c9 3f c9 b4 ad 3e
       4.0230613 -0.57634646 1.5749913 0.3392699
0001a0 07 22 43 40 96 39 14 3e cb ab 37 3f 7d cd a6 bf
       3.0489519 0.14475092 0.7174651 -1.303146
0001b0 c1 2b 38 3f 10 f0 cc 3f 36 c9 13 40 5e 03 7e bf
       0.71941763 1.6010761 2.309156 -0.9922389
0001c0 ff d3 c9 bd b7 22 38 40 52 28 10 3e d2 ea 29 3c
       -0.09854888 2.8771188 0.14077881 0.010370927
0001d0 0f 8b 5d 3e f9 38 aa bf 0d f3 06 bf f3 49 91 3e
       0.21635078 -1.3298637 -0.52714616 0.2837673
0001e0 10 61 b4 be ef 96 97 be 41 6a 06 40 c9 97 4f 40
       -0.35230303 -0.2960734 2.1002352 3.2436392
0001f0 7e 39 3c bc 84 ba be bf f4 db e9 bf 5b 51 ec be
       -0.011488317 -1.490067 -1.8270249 -0.4615582
000200 20 29 5c bd e5 6b 38 3f 4f 99 81 3f 25 44 b6 3f
       -0.053750157 0.72039634 1.0124911 1.4239546
000210 35 54 d9 3d 3f 3e 8d bf a7 72 7b bf ca 18 10 bf
       0.10611764 -1.1034621 -0.9822182 -0.56287825
000220 b2 ce b7 bf 0a 7b d6 bd 3d 1c cc be 06 aa b3 be
       -1.4359953 -0.104726866 -0.39865294 -0.35090655
000230 f2 9d 4b 3e 21 67 5d bd 4c 44 bd 3f 3d 7e 3e 3f
       0.1988447 -0.05405343 1.4786468 0.74411374

sequential/model/block_3_depthwise_BN/FusedBatchNormV3 f4 [144]
000000 f8 0b 89 3d 6c e2 87 3d ff a5 41 3f 02 f0 ca 3f
       0.06691736 0.066349834 0.75643915 1.5854495
000010 3e e5 3b 3e 38 a5 86 3f 10 f4 1b 3d 40 c6 50 bc
       0.18349168 1.0519171 0.038074553 -0.012742579
000020 90 a3 34 3d d0 68 e8 3d e1 b8 7b be 40 08 47 3d
       0.044101298 0.113481164 -0.24582244 0.048591852
000030 44 b5 83 3f d5 78 3f 40 3a fe 86 3f 8c 95 b1 3f
       1.0289693 2.99175 1.0546334 1.3873763
000040 3c 2e 20 3e 7c a5 07 3d 97 da 9a 3e d1 6e da 3f
       0.15642637 0.033116803 0.30244896 1.7065068
000050 fc 32 00 3e 30 03 3f 40 c0 4b e2 3c ed 72 e6 3f
       0.12519449 2.9845695 0.027624011 1.8003823
000060 a0 92 b0 40 13 2e fb 3f d8 f7 98 3d 50 1b fc 3c
       5.5178986 1.9623436 0.074691474 0.030774742
000070 7d e2 30 bf c4 17 05 be c8 7f 0f bf cc cb 5a 40
       -0.69095594 -0.12997347 -0.56054354 3.4186888
000080 bd 0e b2 3f 08 af 5f 40 60 fe 44 3d 7a 48 2b 3f
       1.3910748 3.495058 0.048094153 0.66907465
000090 ee 30 c1 40 ed 6f 08 40 d0 41 03 bd 8e ff 18 40
       6.037223 2.1318314 -0.032045186 2.3905978
0000a0 18 0c cd be dc 26 c0 3f 4a 62 25 be 78 4b af 3d
       -0.4004829 1.5011859 -0.16150776 0.085593164
0000b0 87 ac e4 be e8 56 b5 3e 00 c0 02 3a b4 2e 4a be
       -0.44662878 0.35417867 0.00049877167 -0.19744378
0000c0 bc 62 40 bf e3 ed b7 3f 30 93 31 3d f1 ae 19 40
       -0.75150657 1.4369472 0.04335326 2.4013026
0000d0 98 11 a8 40 ba 19 f4 3f ba 86 e4 3f e1 0b 8b 40
       5.2521477 1.9070351 1.7853615 4.3452
0000e0 80 5b 44 3b 0e 6f ae 40 29 00 96 40 48 33 b1 3d
       0.0029961765 5.4510565 4.6875196 0.08652359
0000f0 16 78 c1 3f 00 03 b5 3c b3 6c 72 3f 34 81 06 40
       1.5114772 0.022096157 0.9469711 2.101636
000100 f2 4c 0f 40 90 92 3c 40 80 71 45 3c a0 8b 4a 3c
       2.2390714 2.9464455 0.012050986 0.012362391
000110 e8 8b 0d 3e 80 af 7d bc 20 3e f3 3c 8f aa f5 3f
       0.13822901 -0.015483737 0.02969271 1.9192675
000120 e9 c5 fb 3f 08 40 96 3d 28 26 68 3d 30 60 2c be
       1.9669772 0.07336432 0.056677014 -0.16833568
000130 b0 88 1c 3d 08 0b f4 3d 90 de 73 3d d4 3a 7b c0
       0.038216293 0.119161665 0.059538424 -3.9254656
000140 40 0c be bc 86 e3 4e 40 1c a4 12 40 e8 10 98 3d
       -0.0231992 3.232637 2.2912664 0.074250996
000150 70 b9 ad 3e 00 37 db 3d 30 e2 6e bd 2d 58 ac 40
       0.3393054 0.1070385 -0.058321178 5.3857636
000160 20 72 f7 3d b8 6c bd 3e 29 4e 93 40 ee a7 d7 3f
       0.120823145 0.36997008 4.603291 1.6848123
000170 b0 a7 27 3d ac 11 e8 bd 12 0d dd 3f 50 1d 05 40
       0.040931404 -0.11331496 1.7269614 2.079914
000180 30 19 a8 bb f0 77 85 3d 32 c1 f5 3e d0 9f 03 c0
       -0.0051299557 0.06517017 0.4799896 -2.0566292
000190 de 5b 87 40 13 95 95 40 79 f4 5a bf 00 9a ca bb
       4.2299643 4.6744475 -0.85529286 -0.006182909
0001a0 26 a8 69 40 c0 07 2c 3d b2 c8 21 3f 81 09 85 be
       3.650888 0.04199958 0.6319686 -0.25983813
0001b0 8c da 3d 3e b2 a3 c5 3f 3a 25 15 bf ce 13 2c 40
       0.185404 1.5440581 -0.5825993 2.6887088
0001c0 ec af 00 40 43 ae 41 bf 40 2b 89 3c b4 31 ca 3f
       2.0107374 -0.7565653 0.016744256 1.5796418
0001d0 7b e4 08 40 a6 b7 06 40 60 a7 10 3e c0 24 8f 3c
       2.1389453 2.104959 0.14126348 0.017473578
0001e0 2c a0 04 be b0 cf 68 3d ac 40 c9 40 64 23 36 c1
       -0.12951726 0.05683869 6.2891445 -11.38364
0001f0 60 eb 36 3d d0 69 5c 3c a0 49 a4 bb 22 f0 47 40
       0.044658065 0.013452962 -0.0050136596 3.1240315
000200 19 6c ac 3f 40 2e 79 3d d0 a3 44 3d 10 df 4d 3e
       1.3470489 0.060835123 0.048007786 0.20104623
000210 60 db 8c 3d c4 4e ae 3d 27 66 bf 40 c2 14 ce 3f
       0.0687778 0.08511117 5.98122 1.6100085
000220 1d 5f 1e be ab a9 ef 3f 40 9e 47 bc c0 ff c8 bc
       -0.1546597 1.8723654 -0.012183726 -0.024536014
000230 80 71 bf 3d b9 4c bb 3f 08 d6 d6 be 8c 08 af 3f
       0.0934782 1.4632789 -0.41960168 1.3674483

sequential/model/block_4_expand_BN/FusedBatchNormV3 f4 [192]
000000 a4 2f eb 3f 1f d4 04 be 58 4b 02 c0 da bd 1b 40
       1.8373914 -0.12971543 -2.0358486 2.4334626
000010 ed 76 9b 3e a4 1b e4 3f ac 70 a3 3f 08 93 d7 3e
       0.3036417 1.7820935 1.276876 0.42104363
000020 4b 04 71 be d2 25 cb 3c f0 2b b8 be 73 1e d6 be
       -0.23536794 0.024798308 -0.35971022 -0.41820106
000030 71 f5 b4 bf 56 44 e0 3f 78 c5 ef 3f 9d 8f ad 3f
       -1.4137403 1.7520854 1.8732138 1.3559452
000040 94 a7 09 40 6e 8c f3 3f 64 2d c6 3f 75 87 9f 3f
       2.1508532 1.9027231 1.5482602 1.2463213
000050 37 a2 b7 3d 0c ef 75 bf 9a ea 8b 3f 82 0e 8c 3f
       0.08966487 -0.9606788 1.093097 1.0941927
000060 65 00 b1 3d 93 c4 36 bf a8 0b 67 bf 52 7a 32 3f
       0.086426534 -0.713937 -0.9025216 0.69717896
000070 fd b9 54 3f 64 de b5 3f f6 85 75 3f 37 79 e4 be
       0.83096296 1.4208493 0.95907533 -0.4462373
000080 ff ef b6 3f 4a 25 cd 3f 24 2a 0c 40 0e 1b 06 40
       1.4291991 1.6027005 2.190072 2.0954013
000090 9b 38 07 40 d4 84 29 bc 1f e9 e3 3f e1 cc 9f 3e
       2.11283 -0.01034661 1.7805518 0.31210998
0000a0 a4 de 51 3f 03 a7 b6 3f cd 7e d3 be b4 88 80 bf
       0.8198035 1.4269718 -0.4130768 -1.0041718
0000b0 e8 1c 65 3e 36 e0 bd be 88 4f f4 bb b3 04 f0 3f
       0.22374308 -0.37085122 -0.00745577 1.8751434
0000c0 30 ff 61 3d ec d4 9a 3e 69 9a 48 3f 7a ec bd 3f
       0.055175006 0.30240571 0.7836061 1.4837792
0000d0 4a 44 5c bf 50 f9 a5 3f 52 bb fa 3f d3 20 9b be
       -0.860417 1.2966709 1.9588416 -0.3029848
0000e0 09 67 b2 3e 64 db de be 30 83 81 be 25 80 35 3f
       0.34844235 -0.43526757 -0.252954 0.7089866
0000f0 2b 75 b6 3f 3d ae d0 3f 17 9f f8 3e d6 53 03 40
       1.4254507 1.6303173 0.48558876 2.051992
000100 7b c9 ce 3f 7d 62 ef 3f ed f8 fb 3f 0d b9 34 3f
       1.6155237 1.8701931 1.9685341 0.70594865
000110 78 ef 95 3f bb ae 72 3f d5 d2 25 3f e9 d8 32 bf
       1.1713705 0.9479787 0.6477483 -0.6986223
000120 7a b1 2f 3f 56 98 be 3f b9 f4 89 3f ec 47 e3 3f
       0.6863018 1.4890239 1.0777808 1.7756324
000130 b1 34 b2 3e ea 20 f3 3f d9 0f 90 3f 24 82 e4 3f
       0.34805825 1.899442 1.1254836 1.7852216
000140 93 bb 51 3e 4c 4b 32 3e 5b 3c bb 3f 2a 0c b7 3f
       0.2048171 0.17411536 1.4627794 1.4300587
000150 9f b6 a9 3f a6 af 9c 3e 52 a8 c3 bf 91 a9 88 3f
       1.3258857 0.3060276 -1.5285742 1.0676748
000160 eb 72 93 3f 98 e0 b9 3f 63 63 5d 3f ac e7 90 3f
       1.1519445 1.4521666 0.8647978 1.1320701
000170 8b cc 16 3f c3 3d 79 be c4 f5 09 bf 62 08 0e 40
       0.5890586 -0.24339966 -0.53890634 2.2192616
000180 8b 33 68 40 80 75 8c 3f a9 00 14 3f 53 af d9 3f
       3.628146 1.0973358 0.5781351 1.700663
000190 9b 5f 77 bf 22 6e 9f 3f 56 26 06 40 05 04 8e bf
       -0.9663026 1.2455485 2.0960898 -1.1094977
0001a0 3a 8f d2 3f e1 e9 62 3f ef f2 6b 3f b5 03 c6 3e
       1.6449959 0.8863812 0.9216756 0.38674703
0001b0 63 a2 0d bf f5 fb 10 40 dc 85 cd 3f 5e f7 d9 3f
       -0.5532591 2.2653782 1.6056476 1.7028615
0001c0 b3 92 bb 3f 54 da 03 40 bb a7 e2 3f 9d 55 7d bf
       1.4654144 2.0602007 1.7707437 -0.9895876
0001d0 d4 14 fb 3f 75 f9 4c 3e 63 78 c1 3f fd cc 4c 3f
       1.9615731 0.20017035 1.5114864 0.8000029
0001e0 b0 dd bb 3f 58 3b dd 3f d5 3c 34 3f bb 97 2b 3f
       1.4677029 1.7283735 0.7040532 0.670284
0001f0 ad 42 79 3f 45 42 8d 3f 12 12 d6 3f b4 f8 a1 3f
       0.97367364 1.1035849 1.6724265 1.2654023
000200 81 68 b6 3d 5b 35 91 3f e9 80 76 3f 2c b0 17 40
       0.08906651 1.1344408 0.9629045 2.3701277
000210 4f f8 e7 3f 56 ef 49 40 44 83 89 3e 48 2c f6 3f
       1.8122653 3.155233 0.2685796 1.9232264
000220 5f 4e e0 3f 4b a7 dc 3e d1 73 a1 3f 67 44 57 3f
       1.7523917 0.43096384 1.2613469 0.8408875
000230 e2 43 ef 3f ca ef 63 3f d5 ff 90 bf 0f 56 08 bf
       1.8692591 0.89037764 -1.1328074 -0.53256315
000240 d3 51 0f 3f 48 32 90 3f 4a 01 f1 3f 0c 9d 23 c0
       0.5598423 1.1265345 1.8828518 -2.5564604
000250 93 64 78 3f f1 03 d9 3e 9c a0 d9 3f 27 f9 dc 3f
       0.97028464 0.4238582 1.7002139 1.7263535
000260 fe d3 e7 3f 98 db f5 3f cb 62 ee 3f e4 ab a4 3f
       1.811157 1.920764 1.8623899 1.2864957
000270 83 03 f2 3f a2 85 d8 3f 14 23 a7 3f 7f 03 d9 3f
       1.8907322 1.6915781 1.305758 1.6954192
000280 1c 50 d6 3f 05 14 0a 3f 4c 20 e8 3f 34 2f d1 3f
       1.6743197 0.539368 1.8134856 1.634253
000290 cb 26 d6 3f 25 b7 11 40 79 b9 44 3f f8 07 b9 3f
       1.6730589 2.2768033 0.7684551 1.4455557
0002a0 f9 0d bc 3e ec 21 0b 40 20 eb bc 3f 46 30 b5 3f
       0.3672941 2.1739454 1.4759254 1.4155357
0002b0 0c f6 03 40 3a 33 ae 3f 8a 19 bc 3f 26 2a ae bf
       2.0618925 1.3609383 1.4695294 -1.3606613
0002c0 b6 c4 b9 3f 93 4e 12 40 45 4c bf 3f 50 de b0 3f
       1.4513156 2.2860458 1.4945151 1.3817844
0002d0 7f b1 18 be 27 24 ce 3f f6 a7 b7 3f 08 32 b4 3f
       -0.1491146 1.6104783 1.4348133 1.4077768
0002e0 cf f0 68 3f d7 96 c1 3f 0d df ae bf a1 ae 11 40
       0.90992445 1.5124158 -1.366182 2.2762835
0002f0 1f 19 df 3f e2 6f a1 3f 66 d7 d1 3f 8f 5f bc bf
       1.7429541 1.2612269 1.6393859 -1.4716662

sequential/model/block_4_depthwise_BN/FusedBatchNormV3 f4 [192]
000000 80 c5 8d bc d5 89 84 c0 f0 c0 2d bc 10 e5 dc 3c
       -0.01730609 -4.141825 -0.010605082 0.026964694
000010 7f 48 b8 bf b7 3b e1 3f 18 38 42 40 5a 4d 2e 40
       -1.4397124 1.7596349 3.0346737 2.7234712
000020 1c a8 12 c0 b7 db 80 3f 58 e8 80 bf a4 f4 df 3f
       -2.2915106 1.0067052 -1.0070906 1.7496533
000030 d3 32 5f 40 e2 a4 9e 3d a0 86 72 bd a8 49 95 c0
       3.487477 0.07746293 -0.05921042 -4.6652412
000040 f8 a3 bb bc fb 32 e9 40 78 d5 c9 bd 10 bf 87 bd
       -0.022905335 7.287473 -0.09855169 -0.06628239
000050 ac 67 8a bf f1 61 73 bf b0 f6 36 3b 93 12 98 bf
       -1.0812888 -0.9507132 0.0027918033 -1.1880668
000060 fe 60 49 40 2c 51 e3 bf 6f 84 3c 40 76 86 f1 be
       3.146545 -1.7759147 2.945583 -0.47172898
000070 60 c0 5a bd 00 70 67 ba 6e 26 0b bf fa c3 52 40
       -0.05340612 -0.000882864 -0.54355514 3.2932115
000080 00 f7 34 bd bb 24 db be 98 3d 55 bf 5f be ed bf
       -0.04418087 -0.4280146 -0.8329711 -1.8573722
000090 28 35 4d 3d 8f 50 76 bf 28 e5 1d 40 0e f9 eb be
       0.050099522 -0.9621667 2.4671116 -0.4608845
0000a0 18 eb 7c be f6 99 9d 3f e8 bf 95 c0 b6 f8 38 3f
       -0.24699056 1.231261 -4.679676 0.722545
0000b0 00 9f 35 bc e2 35 af bf 00 2d 8f bb 18 b3 b0 bd
       -0.011085272 -1.3688319 -0.004369378 -0.086279094
0000c0 34 97 6b 3f b0 c2 92 3f a4 b7 0d 3e c0 60 ff bc
       0.9202759 1.1465664 0.13839585 -0.031174064
0000d0 99 82 c7 3f 00 f0 44 bc 04 cb 8e 3c 47 9e 33 40
       1.558673 -0.012020111 0.01743079 2.8065355
0000e0 fa c9 4a 3e d4 87 4f 40 98 d1 28 c0 ef 56 66 3f
       0.1980361 3.2426653 -2.6377926 0.899764
0000f0 28 00 a2 bd 9d 7b 00 3f a0 97 28 3c b9 fc 2a be
       -0.07910186 0.5018862 0.0102900565 -0.16697969
000100 00 28 09 bb 80 b0 f0 be 14 98 26 bf c0 0c da bb
       -0.0020928383 -0.4700966 -0.650758 -0.006654352
000110 00 db 40 3a 08 54 5c bf 90 07 6d 3f 1f 95 62 be
       0.00073568523 -0.8606572 0.92589664 -0.22127198
000120 40 c1 2e bb d4 f1 33 bd 42 d9 29 bf 52 0f 5f bd
       -0.002666548 -0.043931797 -0.66347134 -0.05445797
000130 50 ed 31 40 a0 1f fa 3d 33 98 30 be 1b 87 88 bc
       2.7801094 0.12213063 -0.1724556 -0.016665986
000140 2c 3e 0d c0 2b 2e a8 bf fe 00 2a be 94 de bd 3f
       -2.2069197 -1.3139089 -0.16601941 1.483355
000150 c6 ae 36 40 5c 68 55 40 9b 32 92 3f 08 99 24 bc
       2.8544173 3.3344946 1.1421694 -0.010046251
000160 b6 fc 2a be de 9c b2 3d 2d 85 1a 40 00 70 63 bc
       -0.16697964 0.08721326 2.4143784 -0.013881683
000170 76 2c 35 be 18 03 47 40 6b b1 14 40 f8 10 bd 3d
       -0.17692742 3.1095638 2.3233287 0.09231752
000180 42 c2 8b 40 0e ac 6c bf 65 2b 0e 40 74 6c 00 3d
       4.367463 -0.92450035 2.2213986 0.03135343
000190 c0 eb c7 bf b6 43 e8 3f 8c b9 b4 3e 5d 53 03 be
       -1.561882 1.8145664 0.3529781 -0.1282477
0001a0 46 cf af 3c 2c 34 3e c0 bb f1 13 40 a6 2d 76 3f
       0.02146114 -2.9719343 2.311629 0.96163404
0001b0 1e e5 05 bf 94 de 57 41 c6 24 e5 bc 00 d0 60 ba
       -0.5230273 13.49184 -0.027971637 -0.0008575916
0001c0 e0 75 4d bd 81 d8 7e 40 50 71 cc 3e 4c 6d 0e bf
       -0.050161242 3.9819643 0.399302 -0.55635524
0001d0 3a f8 37 bf 8b 1a 32 c0 2b b9 3f bd 1a 21 c2 bf
       -0.7186314 -2.78287 -0.04680745 -1.5166352
0001e0 c5 a3 d0 3d 30 5c ee 3d 66 ce ed bf e8 80 ed bf
       0.101874866 0.11638677 -1.8578613 -1.8554964
0001f0 fe a8 8c be 18 38 03 40 e8 d7 99 be 55 65 e0 be
       -0.2747268 2.0502987 -0.30047536 -0.4382731
000200 5f 09 23 bf 76 2b e0 3d 3a 58 dc be 99 e1 b7 40
       -0.63686174 0.109457895 -0.43036062 5.746289
000210 b1 88 e7 be 02 c0 8e 3d 00 a5 31 ba b0 be 7b bd
       -0.45221475 0.06970216 -0.0006776601 -0.06146115
000220 e7 16 81 bd 9f 12 28 c0 e8 cd ac 3f 3c 3e 97 bf
       -0.063031964 -2.6261365 1.3500338 -1.1815867
000230 31 dd ce 3f 6a 72 34 c0 ff d2 18 c0 09 9a ed 3f
       1.6161252 -2.8194833 -2.3878782 1.8562633
000240 9c a7 54 3e ac 47 9a 3f 84 7a 9d c1 c3 09 16 c0
       0.20767063 1.2053123 -19.684822 -2.3443458
000250 67 40 95 c0 3f 8d 47 40 2e 8c 01 3e 2f 50 21 3f
       -4.6641116 3.117996 0.1265113 0.63012975
000260 02 21 2a 3d 90 ee ad 3c 42 43 00 40 60 69 4f 3c
       0.041535385 0.02123192 2.004105 0.012659401
000270 86 8c a8 3f 10 7a 0e be 96 68 b8 bf 7f 6b 3e be
       1.3167884 -0.1391375 -1.4406917 -0.18595694
000280 40 93 f2 3c 6f a6 e4 bf 3a ab 64 3e a2 2e 7d 40
       0.02961123 -1.7863292 0.22330943 3.9559712
000290 1b 37 05 3f b0 44 20 3c 00 cb 93 bc b7 3b 01 bf
       0.5203721 0.009782001 -0.018041134 -0.5048174
0002a0 a1 0e bc bf bb 7c 0d be ce 7d a7 bf 93 48 15 3d
       -1.4691964 -0.13817112 -1.3085268 0.036446165
0002b0 44 63 fd 3f e6 c6 e6 be 8a 04 88 3d 06 20 38 40
       1.9795918 -0.45073622 0.06641491 2.8769546
0002c0 f4 8f ad bd be e4 cd 40 c0 58 a7 3d e0 44 0f 3c
       -0.084747225 6.4341726 0.081712246 0.008744448
0002d0 59 64 0c bf f0 a9 67 3d 0d 73 e2 bf d0 3b 45 3c
       -0.5484062 0.05655855 -1.7691361 0.012038186
0002e0 20 d6 a2 3f 64 96 eb 3f 8c 8c 05 bf ae 82 34 40
       1.2721596 1.840527 -0.5216758 2.820476
0002f0 40 7c 04 3b 84 cf 28 bd 14 06 83 bd c3 43 b3 bf
       0.002021566 -0.041213527 -0.06397644 -1.4005054

sequential/model/block_5_expand_BN/FusedBatchNormV3 f4 [192]
000000 01 b4 a6 3f 28 24 bc 3f 22 6a 5c 3e 56 bd a1 3f
       1.3023683 1.4698534 0.21524861 1.2635906
000010 5d 7d 6e be 01 fb 4b 3f 01 b3 0e 3f 7a c1 a2 3f
       -0.2329001 0.79679877 0.5574189 1.2715294
000020 e5 d4 09 3f a0 a7 fb be 4e 4d 06 40 0e 4b 81 3f
       0.53840476 -0.49151325 2.0984683 1.010103
000030 b1 a9 c1 bd b0 9d 84 3f db 39 39 3f 11 f6 23 40
       -0.09456194 1.0360622 0.72353905 2.5618937
000040 0a 27 9c 3e 44 31 47 3f 07 5a ba be 12 3b c6 3f
       0.30498534 0.7780955 -0.3639681 1.5486777
000050 66 cc a8 be 56 99 35 3f a2 20 49 3f e8 a1 ce 3f
       -0.32968444 0.709371 0.7856542 1.614316
000060 04 8c c8 bf a9 a5 1f 3e 22 54 38 3f 81 a9 36 3f
       -1.5667729 0.15590538 0.72003376 0.7135239
000070 00 22 2e 3e 18 81 e0 be 1d 05 c7 be f3 95 a9 3f
       0.17005157 -0.4384849 -0.3887109 1.3248886
000080 76 e9 94 3f f3 d1 78 3f a2 0c 54 3e cd 5d 4b 3e
       1.1633747 0.9719536 0.20707944 0.19860001
000090 1c db 96 3f f7 ec 88 3f fd b5 94 3f 00 bf a0 3f
       1.1785617 1.0697316 1.1618038 1.2558289
0000a0 a6 1e 89 3f b8 31 1b bf 81 33 d9 3f 70 c5 7b 3e
       1.0712478 -0.6062274 1.6968843 0.24587035
0000b0 13 f5 4a bf 16 33 81 3f 65 39 1d bf 7d 3d d9 3e
       -0.79280204 1.0093715 -0.614157 0.42429724
0000c0 7c 87 c4 3f e3 da bc 3f ef 01 a4 3f 95 fa 4c bd
       1.5353847 1.4754299 1.281309 -0.05004366
0000d0 ea d9 3d be c2 8c 3f bf 54 6f db 3f dc d5 44 bf
       -0.18540159 -0.74824154 1.714335 -0.76888824
0000e0 65 f3 3c 3f 39 04 3e 40 7e a4 9a 3f 9f 9e c9 3e
       0.7380889 2.9690077 1.2081449 0.3937883
0000f0 ec 58 c3 be 49 fa 27 3f 33 11 9a bf 94 ec b2 3f
       -0.3815378 0.6561628 -1.2036499 1.3978448
000100 1d 39 8f bf 95 89 43 3f c0 53 8a 3e fb 7b b0 bf
       -1.1189305 0.7638181 0.2701702 -1.3787836
000110 93 b4 a6 3f 41 35 14 40 96 0d c3 3f 25 ec 84 be
       1.3023857 2.3157504 1.5238521 -0.25961414
000120 98 83 24 3f 76 28 35 3f f6 9f b1 3f 67 87 c2 3e
       0.64263296 0.70764863 1.3876941 0.3799393
000130 f7 d3 a4 3d 29 02 90 3f 62 96 ff 3d 7d 36 77 3f
       0.080482416 1.1250659 0.12479855 0.9656752
000140 f9 9a 89 3f dd 37 d3 3f d1 ce 08 40 a5 2a 09 40
       1.0750419 1.6501423 2.137623 2.1432278
000150 28 71 c0 3e 60 2c fd 3d 1d ed 4f 3e 14 92 cb 3f
       0.3758633 0.123619795 0.20305295 1.5903955
000160 2d c7 80 bd 23 03 f0 3e ed 65 21 3f c3 cb ca 3f
       -0.0628799 0.46877393 0.6304615 1.5843433
000170 e6 02 8e 3f d2 ff a2 3f f1 95 d4 be fc 3a 68 3f
       1.1094635 1.273432 -0.41520646 0.90715003
000180 8f 0a fa be 51 85 a8 3f 7d 32 b0 3f 35 54 8e 3f
       -0.4883618 1.3165685 1.3765408 1.1119448
000190 11 d4 97 3f 1b 51 3b 3f 45 31 27 3f 74 c5 b9 3e
       1.1861593 0.7317063 0.65309554 0.36283457
0001a0 f5 a7 ed be f9 21 c2 3f 56 29 a7 3f 7a 15 bc 3f
       -0.46417204 1.5166618 1.305949 1.4694054
0001b0 68 a9 57 3f e5 89 99 3f 11 a6 19 3f 8a ea 38 3e
       0.8424287 1.1995207 0.6001902 0.1805822
0001c0 41 d7 52 3f 2b 3e 8f 3e 11 2e a1 3f 64 31 b5 bf
       0.823597 0.27977118 1.2592183 -1.4155698
0001d0 97 29 be 3f aa 06 fd bd 3a b9 ab 3f 36 57 bd 3f
       1.4856442 -0.12354787 1.3415902 1.479224
0001e0 16 d1 bc 3f 51 76 be 3f b3 33 1f 3f 4b b3 ff 3e
       1.4751308 1.4879857 0.6218826 0.49941477
0001f0 94 0e 1c 3f 43 15 e8 3e 60 c6 97 3d 1b 02 7b 3f
       0.60959744 0.4532872 0.07410884 0.9805009
000200 ca 5b 8e bf d8 37 97 3f f7 d7 97 3f de 66 41 3e
       -1.1121762 1.1813917 1.1862782 0.18886897
000210 71 b8 c5 3f 50 d6 a3 3f b6 d8 09 3f 30 d3 2e 3f
       1.5446912 1.2799778 0.538463 0.68290997
000220 68 33 b4 be f1 e7 b0 be cd 80 c0 3f 52 20 69 bf
       -0.3519547 -0.34551957 1.5039307 -0.9106494
000230 16 d5 cc be b0 94 e9 be de ed bd 3f 0c ea bf 3e
       -0.40006322 -0.45621252 1.4838216 0.3748325
000240 95 09 41 be ad f3 c8 3f 8e ad 59 bf d2 c8 02 40
       -0.18851312 1.5699364 -0.8503045 2.043507
000250 1a 45 04 3f 0f 05 8b 3f 8e a6 79 3f 71 ca 6f 3d
       0.5166794 1.0860919 0.9751977 0.058542673
000260 c4 49 38 3e 5b 30 69 3f 32 cb 7b 3f 3a 1c 9d 3e
       0.1799689 0.9108941 0.98356926 0.30685598
000270 a6 c5 3c 40 e8 5e 09 3f 68 89 48 3f 34 b1 bd bd
       2.9495635 0.5366044 0.78334665 -0.092623144
000280 79 99 81 be 3c 8e 7b bf ab bd ce 3f 8a 3f 14 bf
       -0.25312403 -0.9826391 1.6151632 -0.5790945
000290 09 54 c1 3f 25 a7 cc 3f 5d a2 65 3f ef 1f 59 3f
       1.510377 1.5988508 0.8970087 0.8481435
0002a0 3f 75 3a be 95 f6 c0 3f 93 09 57 be 1c 53 a4 3f
       -0.18208788 1.5075251 -0.20999746 1.2837863
0002b0 82 ff dc 3f 5d 9a 17 bf ef a9 00 3f 6a 5d d5 3f
       1.7265475 -0.59219915 0.502593 1.6669133
0002c0 6a 18 9a 3f 34 4a c3 3f f1 e4 dc 3f 2b b5 2c bf
       1.20387 1.525702 1.7257367 -0.6746394
0002d0 72 e5 96 3f e3 f2 26 40 a1 bf 53 3f 0d d2 3d bf
       1.1788771 2.6085746 0.8271428 -0.7414864
0002e0 38 73 17 3f 39 1a cc 3f 9a 27 a8 3e 59 de 43 bf
       0.59160185 1.5945503 0.32842714 -0.7651115
0002f0 78 f3 bc 3f 96 63 79 3f 63 40 51 3e a1 56 05 bf
       1.4761801 0.9741758 0.20434718 -0.5208531

sequential/model/block_5_depthwise_BN/FusedBatchNormV3 f4 [192]
000000 e2 df 13 3f ac 0a 2f c0 14 ab 6c bf 42 75 b1 be
       0.57763493 -2.7350264 -0.92448545 -0.34659773
000010 78 3d ea bf 57 11 09 c0 48 34 fc 3c fa bd ca bd
       -1.8300009 -2.1416833 0.030786648 -0.098995164
000020 d7 b0 87 3f e5 f5 5f 40 d8 2d d3 40 40 1a be bc
       1.0600842 3.4993832 6.599346 -0.023205876
000030 00 6d dd 3a 67 97 10 40 80 23 39 ba 8c ae 9c 3f
       0.0016893446 2.2592409 -0.000706248 1.2240767
000040 0b 04 15 bf dd 52 51 40 3b 67 98 3f 1c e0 3d bf
       -0.58209294 3.2706826 1.1906503 -0.7417009
000050 e0 23 30 40 76 92 c7 bd e0 3e 59 3c 64 49 45 c0
       2.7521896 -0.09744732 0.0132596195 -3.0826044
000060 6e ea 44 3f 84 e0 35 40 dd cf 1a be 98 61 53 c0
       0.7692021 2.8418283 -0.15118356 -3.3028316
000070 a0 86 ca bd f1 58 bc 3f 4d d8 23 3f 34 06 a7 bd
       -0.09888959 1.4714643 0.64001924 -0.0815548
000080 20 d3 ef be bb 99 94 3e 98 4a 22 bf e0 ee 86 3f
       -0.46840763 0.29023537 -0.6339507 1.0541649
000090 4c 9b cf bd 72 6b 63 3e 5c 74 02 40 23 ad 24 bf
       -0.101370424 0.22208956 2.038352 -0.64326686
0000a0 41 1f 67 bf 02 a8 0c c0 e7 0e 96 be d2 05 2f 40
       -0.90282065 -2.1977544 -0.29308245 2.7347302
0000b0 00 09 f0 b9 8a 92 91 3f 1a 55 48 40 98 8b 0e 40
       -0.00045783073 1.1372845 3.1301942 2.2272701
0000c0 7e d4 34 bf 09 db 36 c0 5c a8 5c 3d 75 53 80 40
       -0.7063674 -2.8571188 0.053871498 4.0101876
0000d0 e2 43 44 40 86 0a 3a bf c4 68 12 be d1 b0 e7 3f
       3.0666432 -0.7267231 -0.14297777 1.8100835
0000e0 45 13 d8 bf f5 5c d0 3f be 3b 5a c0 16 96 30 c0
       -1.688088 1.6278368 -3.4098964 -2.7591605
0000f0 80 b3 87 bf 10 c1 15 3c d7 dc 65 40 0f 6d e6 be
       -1.0601654 0.009140268 3.591604 -0.4500508
000100 d7 57 bd be 50 b8 18 3d f4 4e 97 bd d4 10 be bf
       -0.3698108 0.03728515 -0.07388106 -1.4848886
000110 74 66 9e 3e 2d c3 c6 40 58 0f 72 3d 74 1e 93 3f
       0.3093754 6.211325 0.059096664 1.1493669
000120 68 43 03 c0 c0 28 82 3a f8 f5 ca bf 13 59 4e 40
       -2.0509892 0.0009930357 -1.5856314 3.2241867
000130 b2 45 92 3f b9 5d 94 bd 71 7a a7 3f 20 ca d5 bf
       1.1427519 -0.07244439 1.3084241 -1.6702309
000140 a4 ec b4 be 36 63 48 bf 57 87 35 c0 cc ed 68 3f
       -0.35336792 -0.78276384 -2.8363855 0.9098785
000150 40 52 96 3b 00 10 c8 3a 81 9f 5e 3f 66 a7 d5 be
       0.0045874417 0.0015263557 0.86962134 -0.41729277
000160 a0 f8 c2 bb c0 b8 52 bb ca e5 ed 3f 1e f1 b3 3e
       -0.0059500486 -0.0032153577 1.8585751 0.35144895
000170 02 6e cd 3d f5 5c 02 bf 14 1f b0 bf c8 11 94 3f
       0.10030748 -0.5092309 -1.3759484 1.1567926
000180 51 f3 85 bf d5 06 37 40 2a f2 1f 40 d3 c0 3f 3e
       -1.0464879 2.859792 2.4991555 0.187259
000190 e7 34 92 be ac 15 27 c0 90 71 de 3e 80 2f a7 bb
       -0.28555986 -2.6106977 0.43446016 -0.005102098
0001a0 4f 48 9c bf 08 ba 6c bd b8 95 11 be 8a b7 67 be
       -1.2209567 -0.0577946 -0.1421727 -0.22628608
0001b0 62 84 f8 3f d2 1f 37 be 30 6d 3f 3d fa 5e 52 40
       1.94154 -0.17883232 0.04673499 3.287047
0001c0 6b 34 c0 bf 80 32 0c 3b e9 a5 03 40 97 de ef bf
       -1.5015997 0.0021392405 2.0570014 -1.8739804
0001d0 2a 8c 89 be 3a 2a b7 bf 94 9e 5d 3f 3d 4d e9 3f
       -0.2686475 -1.4309762 0.86570096 1.8226696
0001e0 58 56 cc bd b2 90 a3 be fb ed 98 3f f0 73 cf bf
       -0.09977406 -0.3194633 1.1947626 -1.6207256
0001f0 59 b4 27 40 79 5c 70 bf 1d f9 26 40 6b dd 2e 40
       2.6203825 -0.938911 2.6089547 2.7322643
000200 0e 41 15 40 ba 63 a0 3e 2d a4 25 bf c0 e8 65 40
       2.3320956 0.31326085 -0.6470364 3.592331
000210 9a cc 2d bf 16 01 6b 3e f5 ec b0 3f 2f 5e d2 be
       -0.6789032 0.22949633 1.3822314 -0.4108748
000220 fc 7c bc be ef a0 51 40 23 0e 9f 40 d8 69 0a bf
       -0.36814106 3.2754476 4.9704757 -0.54067755
000230 d8 99 8f bf a0 a2 25 bf 30 53 21 c0 a0 58 14 c0
       -1.1218824 -0.6470127 -2.5207024 -2.3179092
000240 c6 6d 0e 40 d0 bc 1c 40 cf bd 07 bf 26 46 97 40
       2.22545 2.4490242 -0.53024 4.727313
000250 90 40 2f 3b ba 45 2a be 8b 58 c6 bf 43 2d 3a bf
       0.0026741363 -0.16628161 -1.5495771 -0.72725314
000260 54 27 13 3d f8 c6 3d c0 56 3f b8 3f 9c c6 13 bf
       0.035926178 -2.965269 1.4394329 -0.5772493
000270 1e 7c f2 3f 31 64 d7 bf e0 71 70 bc dc 0d d2 bf
       1.8944128 -1.6827451 -0.014675587 -1.641048
000280 18 ea 89 3f 01 b5 55 be 64 9d 85 c0 5a 19 1e c0
       1.0774565 -0.20869829 -4.1754627 -2.4702973
000290 20 c6 6e be ec 67 26 40 8e af c9 be a0 87 6f 3b
       -0.23317766 2.600093 -0.3939175 0.0036549345
0002a0 56 8f 1b 40 6c 12 60 3e 00 6a d9 3b 38 89 9e 3c
       2.4306235 0.21882027 0.0066349506 0.01935254
0002b0 ae 18 3e bf 47 c6 2b c0 de 77 a9 3f 20 f6 33 c0
       -0.7425641 -2.683977 1.3239706 -2.8118973
0002c0 a1 38 db 3c 30 62 d1 bc e4 79 d2 3f f8 f3 67 c0
       0.026760401 -0.025559515 1.6443448 -3.6242657
0002d0 d0 dc 22 3f 04 42 75 40 06 2b 06 40 c4 33 21 bf
       0.63618183 3.8321543 2.096376 -0.62969613
0002e0 cf 07 09 c0 c4 f5 15 be 34 a5 37 40 88 94 1f c0
       -2.1411016 -0.14644533 2.8694582 -2.4934406
0002f0 41 8d a2 bf 00 1c ca bb 14 c5 5b 40 98 f9 a9 bf
       -1.2699357 -0.0061678886 3.4339037 -1.3279295

sequential/model/block_6_expand_BN/FusedBatchNormV3 f4 [192]
000000 38 74 5b be 78 e9 f2 3e bc 9e a0 be 2c 79 63 bf
       -0.21431053 0.47443748 -0.31371105 -0.8885677
000010 12 49 c4 3e 50 39 a6 3d 93 b6 a7 3f 84 83 95 3f
       0.38336998 0.081164 1.3102592 1.168076
000020 8b bb d7 be 37 9a 4d bf 31 eb 0b bf 80 c3 c4 be
       -0.4213527 -0.8031344 -0.5465575 -0.38430405
000030 4a 48 83 bf 45 ec ca 3f 81 b7 d8 3f a5 88 d7 bf
       -1.0256436 1.5853354 1.6931001 -1.6838576
000040 de 8c dd bf a1 16 d5 3f 75 af 46 3f 1d dc 75 be
       -1.7308614 1.6647531 0.77611476 -0.24009748
000050 7b f9 01 3e 08 71 ef 3d f4 8f 95 bf fa 30 95 bf
       0.12692825 0.11691481 -1.1684556 -1.1655571
000060 f9 82 8c bf af c6 61 3f ea 05 94 3f 5a 12 04 3f
       -1.097747 0.8819379 1.1564305 0.515905
000070 92 9d 05 3f c0 92 39 3e fd 9f 1c 3f 5d d6 6a bb
       0.5219356 0.18122387 0.6118162 -0.0035833337
000080 19 00 0f 3f 21 33 63 3f c3 22 45 bf 9b 66 18 bf
       0.55859524 0.8874989 -0.7700617 -0.59531564
000090 ae 19 ad be 50 6a 55 be 51 55 2f 3f 9b a5 8c bf
       -0.33808655 -0.20841336 0.6848956 -1.0988039
0000a0 62 ec ca bd a1 79 ee 3f 6e 56 e7 be 7f 64 ce be
       -0.09908368 1.8630868 -0.45183128 -0.40311047
0000b0 12 df 25 3f e7 1e 98 be 0d 02 f5 3f 25 69 f5 3f
       0.64793503 -0.29711077 1.9141251 1.9172713
0000c0 ad 01 a4 3f 35 b2 ac bf 12 fd 7e 3d a3 40 ff 3d
       1.2813011 -1.3491884 0.062253065 0.124635
0000d0 de 5f 9a 3f 7a 89 f5 3f 30 fa 15 3e 80 19 2c bf
       1.2060506 1.918258 0.1464622 -0.6722641
0000e0 00 b5 07 bf 05 f5 9c bd 9c 78 1f 3f 91 db 38 be
       -0.5301056 -0.07663921 0.6229341 -0.18052508
0000f0 e1 49 82 be e2 09 2c bf fd f1 97 bf 5c ad a1 bf
       -0.2544699 -0.6720258 -1.1870724 -1.263103
000100 85 cc 7c be ee 53 ce 3f cf 88 26 bf 13 52 8d 3f
       -0.24687393 1.6119363 -0.65052503 1.1040672
000110 3b 85 2d be 5f 67 57 bf 27 e2 97 be ff 4f a9 bf
       -0.16945355 -0.84142107 -0.29664728 -1.3227538
000120 73 3b 14 3f 17 f5 4f bf 6c 42 d4 bd 39 d9 f7 3e
       0.5790321 -0.8123335 -0.103642315 0.48407915
000130 ef cf a4 3d 05 2c 91 be 5c 52 b6 bd 2f dc d3 3f
       0.08047473 -0.28353897 -0.089024276 1.655157
000140 c0 c8 56 3f 9d 60 3d c0 49 12 98 bf 2d 05 22 be
       0.8390007 -2.9590218 -1.188058 -0.15822287
000150 c9 f6 32 bf e4 b2 fc 3e 79 73 cc 3f f1 e3 76 bf
       -0.69907814 0.49355233 1.597274 -0.9644156
000160 1e 96 b3 3e c1 41 de 3e a6 34 a4 3d e2 f1 21 3f
       0.35075468 0.4340954 0.080178544 0.6325971
000170 39 80 b5 3f 00 2a 57 3f a6 03 9d be 09 40 88 bf
       1.4179755 0.8404846 -0.30666846 -1.0644542
000180 ed 57 f1 3e 71 b3 41 bf 91 16 ad 3f c9 c3 05 bf
       0.47137395 -0.7566443 1.3522512 -0.5225187
000190 09 a8 3c bf de 8b fa 3f 9a 4b 4c bd 31 96 d0 be
       -0.736939 1.9573934 -0.049876787 -0.40739587
0001a0 67 77 41 bf 83 fe d6 bf 80 bc 5a bf 41 3c a9 be
       -0.7557282 -1.6796421 -0.8544388 -0.33053783
0001b0 07 4b f1 3e a5 14 19 3f f1 ae 03 3f 86 c3 6c be
       0.47127554 0.59797126 0.51438814 -0.23121461
0001c0 a2 a8 42 3f 2f 90 a8 3f 37 8f 8f 3c 67 98 ad 3f
       0.76038563 1.3169001 0.017524345 1.3562135
0001d0 55 9f 8c be 34 ad 05 bf ef 68 2f bd f1 63 e6 bf
       -0.2746531 -0.5221741 -0.04282468 -1.799925
0001e0 42 41 06 be 9c 82 7d bf 49 56 27 3f 2e fa ba 3f
       -0.13110831 -0.9902742 0.65366036 1.4607599
0001f0 0c 81 71 3e 9f 2f 56 bb f5 8a 7f 3c 21 1d cc 3e
       0.23584384 -0.0032682193 0.015597095 0.39865974
000200 25 f4 23 be d4 06 af 3f 7d 56 69 3c 32 66 ee bd
       -0.16011102 1.3673959 0.014241812 -0.11640586
000210 d6 5b 89 bf 27 fb e7 3f a4 82 61 3f 05 a5 58 be
       -1.0731151 1.8123521 0.88089967 -0.211567
000220 71 e7 cc 3e cc 29 f7 be 4f 8f 6d bf d7 52 06 40
       0.40020326 -0.48274076 -0.92796797 2.0988061
000230 6d 0b 8c be dc f7 48 be 8f c2 a2 3f d6 85 01 40
       -0.27352467 -0.19625801 1.2715625 2.0237937
000240 c4 e9 d4 be 99 95 13 bf 0f 90 a3 3f a3 1d ad 3f
       -0.415846 -0.5765014 1.2778338 1.352467
000250 28 61 f6 be 49 62 22 bf 58 da 87 be a8 50 ab bf
       -0.48121 -0.6343122 -0.2653377 -1.3383989
000260 6c 3c 49 be 42 4a c1 3d 4d b0 08 3f 1e b4 e9 3e
       -0.19651955 0.09437992 0.53394014 0.4564523
000270 7c 7e 93 3f 3a cb 79 3e 92 80 f3 3f a4 d3 13 bf
       1.1522975 0.24393931 1.9023612 -0.5774481
000280 cc dd 02 bf d3 51 4c 3f e1 40 8f bf ce 3b 56 bf
       -0.51119685 0.79812354 -1.1191674 -0.83685005
000290 83 20 0f 3d 8b fb 9e bf d6 f6 0f bf dd e4 4a bd
       0.034943115 -1.2420515 -0.56236017 -0.049534667
0002a0 76 f1 f4 bf f3 c3 26 3f 28 e6 a0 be 0f 54 aa 3d
       -1.9136188 0.65142745 -0.31425595 0.08316814
0002b0 a1 b5 49 bf 20 52 ed 3f 08 a2 87 be 6a d6 8d 3e
       -0.7879277 1.8540688 -0.26490808 0.27702647
0002c0 5d ff 18 bf 19 66 59 3e 01 4d 59 bf ac 17 8e bf
       -0.59764653 0.21230353 -0.84883124 -1.1100974
0002d0 72 97 53 3f 29 65 e1 3f 84 06 91 bf 6b 93 63 bf
       0.8265296 1.7608997 -1.1330113 -0.88896817
0002e0 b1 69 5e 3e c8 72 b1 be b9 c3 0f be d6 1c 29 bf
       0.21720006 -0.34657884 -0.14039506 -0.66059625
0002f0 67 09 e5 3f 55 8e ce 3e e8 90 7a bd ef 6a 34 bf
       1.7893494 0.40342966 -0.06117335 -0.7047567
