src/detection/AI3/model/model.tflite (tflite, 214872 bytes, 47 tensors)

conv2d_1/bias f4 [32]
000000 ac 5d 0f bf 46 0b bb be 74 bf e2 bd 6d 32 7a be
       -0.56002307 -0.36532038 -0.11071673 -0.24433298
000010 49 f0 ee bd 50 a4 f3 be 35 a4 56 be e6 55 29 bf
       -0.116669245 -0.47586298 -0.20961078 -0.66146696
000020 bb ff 1d be a9 bc 3d 3e ab ee 00 3d ba 62 94 be
       -0.15429585 0.18529 0.03147761 -0.28981572
000030 4b f9 01 be e4 68 14 3f 85 f9 0e bf 89 ef a2 be
       -0.12692754 0.5797255 -0.55849487 -0.31823376
000040 2c e0 b2 be 5c 62 dd be 9e eb 03 3e 88 94 00 bf
       -0.34936655 -0.43239105 0.1288285 -0.5022664
000050 cd fd 9e be 99 60 fc be 72 ad d7 be 32 7e 02 be
       -0.3105301 -0.49292448 -0.42124516 -0.12743452
000060 bb 72 87 be eb bd 00 bf 1c 6c 21 be 9c 89 14 be
       -0.2645472 -0.5028979 -0.15763897 -0.14505619
000070 f7 4d 13 bf f0 6c 91 3d ed 9c 31 bf 73 07 c3 bd
       -0.5754084 0.07100856 -0.69380075 -0.09522905

conv2d/bias f4 [32]
000000 7c aa ba be bc 77 98 bd 0b 84 02 3f d8 b6 2f 3c
       -0.36458194 -0.074447125 0.5098273 0.010724746
000010 fd 8c 94 bd cf d6 86 be 63 42 36 bd 3d 5c 04 be
       -0.07253454 -0.2633576 -0.044496905 -0.12925811
000020 cc b2 d8 be 27 88 25 be d0 ce 69 be c1 82 b2 be
       -0.4232391 -0.16165219 -0.22832799 -0.34865382
000030 5f 61 8e bd ad 40 5c bd 5d a1 67 be 37 e6 1d bf
       -0.06952166 -0.053772617 -0.22620149 -0.61679405
000040 f5 b0 18 be 86 67 94 be d2 fd b2 3d e9 3a 2a 3e
       -0.14911254 -0.28985232 0.08739819 0.16624035
000050 2b 49 27 be 54 f8 11 bf 8a 29 8b 3e e0 02 39 be
       -0.16336505 -0.57019544 0.2718013 -0.18067503
000060 d8 7e e1 bd 7c f6 7a be 25 8c bd be 16 5e 88 be
       -0.11010522 -0.24508089 -0.37020984 -0.26634282
000070 4d d5 8d 3e da 2a ee 3e 7f 57 cb be 39 25 10 be
       0.27701798 0.46517068 -0.39715192 -0.140767

model_1/model/bn_Conv1/FusedBatchNormV3 f4 [24]
000000 85 00 ad bf d2 bb be be f2 78 27 3f 3c 88 c4 3f
       -1.3515784 -0.3725267 0.6541892 1.5354075
000010 ed 02 ce 3f a5 01 65 3e fa 26 41 bf 3b 74 04 bf
       1.6094643 0.22363909 -0.754501 -0.51739854
000020 24 e4 76 3f 80 a2 fe 3e 2d 83 d6 3f 12 e5 9e bf
       0.96441865 0.49733353 1.6758782 -1.2413657
000030 20 94 11 3f 89 bd 26 bf f1 59 59 bf bc a5 32 3f
       0.56866646 -0.6513296 -0.84902865 0.6978414
000040 21 dd d7 be 63 35 5b 3f 20 cb 0f 3e cf f2 b6 bf
       -0.42160895 0.85628337 0.1404233 -1.4292849
000050 8e 05 38 3f 19 79 1a bf b4 2e 87 3f a0 7c 2f 3f
       0.71883476 -0.6034103 1.0561128 0.6854954

model_1/model/expanded_conv_depthwise_BN/FusedBatchNormV3 f4 [24]
000000 14 df 33 bf 28 39 65 bd e4 96 4d bf 3e 08 f9 3e
       -0.70262265 -0.05596271 -0.80308366 0.486391
000010 3b 01 e1 3e f3 36 0c 3f b9 7f 77 3f b0 33 82 bc
       0.4394625 0.54771346 0.96679264 -0.015893787
000020 3e c3 34 be 9b c7 96 bd 8c 82 e5 bd dc 0d 94 3e
       -0.17652604 -0.073622905 -0.112065405 0.28916824
000030 9f 13 be 3e 43 db 18 3f c1 4e d1 be 26 41 76 3f
       0.37124345 0.59709567 -0.40880397 0.9619316
000040 c2 a3 fa 3e 90 c8 f5 bd e4 47 5d 3e 88 a7 e4 be
       0.48953062 -0.12001145 0.21609455 -0.44659066
000050 d9 a8 4d be 24 d4 92 3e 45 2c 4d 3f c2 5f 5b 3e
       -0.20083942 0.28677475 0.80145675 0.21423247

model_1/model/block_1_expand_BN/FusedBatchNormV3 f4 [96]
000000 7b f0 5d bd d2 30 85 3f a6 19 2e bf ab 85 43 be
       -0.05418442 1.0405524 -0.68007886 -0.19093959
000010 de 1d 67 be 33 29 b9 3e e9 ed 1d bd 88 0d 4c 3f
       -0.22569987 0.36164245 -0.038556967 0.7970815
000020 47 ba 4a 3f 23 24 bb 3d 79 e0 af 3e fd a1 be 3e
       0.79190487 0.09137752 0.34350947 0.37232962
000030 46 6c d4 bd 48 0a da 3c e5 90 05 3e 2c 48 a0 be
       -0.10372214 0.02661623 0.13043554 -0.31305063
000040 c2 90 05 3f fd 04 87 bd c6 a1 49 3e 29 8a 43 3e
       0.5217401 -0.06592748 0.19690618 0.19095673
000050 3d 51 02 3e d9 31 98 3e ac 3f 06 3f 2e 6d 69 3f
       0.12726302 0.2972553 0.52440906 0.9118222
000060 28 ef 44 3c dc 5f 10 bd 92 b9 ec 3e 8e a0 4c be
       0.01201991 -0.03524767 0.4623533 -0.19983122
000070 ef 76 9c 3e c2 c9 0f 3e 41 a7 96 3e 84 09 ec 3d
       0.3055949 0.14041808 0.2942448 0.115252525
000080 fd c5 c5 3e c7 8e be be 42 7f e9 3d d2 e1 2e be
       0.38627616 -0.37218305 0.114012256 -0.17078331
000090 54 58 c3 3e c1 c2 97 3e 90 8a f7 3d 82 0c 09 3f
       0.38153327 0.29640773 0.120869756 0.5353471
0000a0 0f e0 83 bd b0 1c 83 3b d1 d7 8f 3e f9 0a 72 3e
       -0.0643922 0.0040012226 0.28094342 0.23636998
0000b0 82 f5 6d 3e fc e8 4f be 58 71 7c 3d 8c 6c e4 3e
       0.23238185 -0.2030372 0.06163153 0.44614065
0000c0 be 51 d1 bd 34 da 8d 3e f1 bd 88 3e 6a 24 d2 3e
       -0.10220669 0.27705538 0.26707414 0.41043407
0000d0 50 f3 43 bb 80 a0 1b 3e 9e c7 53 3e 7f 46 20 3e
       -0.0029899664 0.15197945 0.20681617 0.15651892
0000e0 98 2e 8c 3d a6 00 e5 3e d6 e4 f5 be 0d 50 14 3d
       0.068448246 0.44727057 -0.4802615 0.036209155
0000f0 88 37 24 3e 5d f9 ad 3e 2c b8 c1 bb a2 51 ed bd
       0.16036808 0.33979312 -0.0059118476 -0.11587836
000100 9d c0 6f be c0 b7 56 3e 96 3c f7 bd 10 14 e2 bb
       -0.2341332 0.20968533 -0.12072103 -0.0068993643
000110 bd ec 19 3e c6 7a 82 3e d2 69 fc 3d fa 9c 1c be
       0.15031715 0.25484294 0.12324871 -0.15294257
000120 67 ea 76 bd fe eb 32 3e 00 cd b6 bd f6 5d e9 3e
       -0.060282137 0.17472836 -0.089258194 0.455795
000130 22 a5 9a bd 62 74 1c 3e 8c ec 52 3e dc c7 a5 3e
       -0.07551028 0.15278772 0.20598048 0.32379043
000140 3b 7a 7f 3d 60 b0 b6 3e 83 30 90 bd 60 38 f9 3e
       0.062372427 0.35681438 -0.07040503 0.48675823
000150 7b c4 ce be fd 48 0b 3f 49 89 04 3d 9a fa a1 be
       -0.40384278 0.54408246 0.032357488 -0.31636506
000160 42 64 54 3e a0 ba 82 3f ce ff 18 3e 09 81 d7 3e
       0.2074137 1.0213203 0.14941332 0.42090634
000170 c3 c5 26 3e 25 64 a3 3e e5 84 c2 3e 7d ae 61 3e
       0.16286378 0.31912342 0.37992015 0.22039218

model_1/model/block_1_depthwise_BN/FusedBatchNormV3 f4 [96]
000000 1a 1d 3b be 24 81 ca bd 01 2b 0c bf e8 7a 2d 3f
       -0.1827282 -0.09887913 -0.5475312 0.67765665
000010 3a 30 e8 bd e9 de 10 3f c7 4d 63 3f 94 73 0a 3e
       -0.113373235 0.56590134 0.88790554 0.13520652
000020 66 c5 69 be ec 8b a7 be 12 32 59 be 4a 34 39 be
       -0.22829208 -0.3272394 -0.21210507 -0.18086353
000030 77 2b 36 3f 6e 0c 77 be fb 92 99 3d 0c dd e2 be
       0.7116007 -0.24125835 0.074987374 -0.4430927
000040 39 3e 44 be 34 af 1e 3e 4c 87 a4 3e 25 11 79 3f
       -0.19164361 0.15496522 0.32134473 0.97291785
000050 bf 61 3d be 70 70 ba 3e 0e 09 00 be a2 8f 4b be
       -0.18494318 0.36413908 -0.12503454 -0.1987901
000060 8e 54 9f be d6 4f cb bd e5 58 c4 be ae ca 6d 3f
       -0.31119198 -0.09927337 -0.3834907 0.9288739
000070 64 3c 14 be 08 c2 59 bf 62 32 6a bf fe e6 ed 3e
       -0.14476162 -0.85061693 -0.9148313 0.46465296
000080 b0 3c 0f be a3 ba 50 be 67 86 42 bf 8c 01 8c be
       -0.13987994 -0.20383696 -0.7598633 -0.2734493
000090 be 0d 29 be e9 db 90 bf c8 a9 97 3c cd 9a 62 be
       -0.16509148 -1.1317111 0.018513575 -0.22129364
0000a0 e0 f9 17 bf 79 69 9e be 36 7d 4f be d2 2d 3b be
       -0.59365654 -0.30939844 -0.20262608 -0.18279198
0000b0 94 d9 15 3d 24 60 55 3f 98 90 91 be 7f 8d a5 be
       0.03658445 0.83349824 -0.2843063 -0.32334515
0000c0 8f 2b 98 3f d0 06 7f 3d a7 b1 da bd 26 3a 5c bd
       1.1888293 0.062262356 -0.10678416 -0.053766392
0000d0 80 d6 07 3d 00 3e f4 bc fc 42 cb bc 16 8a 8b 3f
       0.033163548 -0.02981472 -0.024812214 1.0901515
0000e0 a8 c5 81 bf 28 9e 71 bd 02 c7 37 bf 8c 96 c5 be
       -1.0138445 -0.05898872 -0.71788037 -0.3859142
0000f0 6c c2 2a bf 0b 2f 22 be 20 76 68 bc 0c 6a cc be
       -0.66702914 -0.15838258 -0.014188319 -0.39924657
000100 80 47 b0 be e2 90 cb bd 4f 60 46 be c1 2b 85 3f
       -0.3442955 -0.099397436 -0.19372676 1.0403978
000110 ba 3a e5 be 7a dc db be 64 37 39 3f 4d a8 84 be
       -0.44771367 -0.42941648 0.72350144 -0.25909653
000120 70 65 22 be ed a2 b5 be bf ca 2a bf bc 71 20 bc
       -0.15859008 -0.35475865 -0.66715616 -0.009792741
000130 3d 0d 77 3f 5c a0 2c 3f 5c ef 43 be c7 44 21 be
       0.96504575 0.6743219 -0.19134277 -0.15748893
000140 a4 92 72 be 2a 84 2f 3e 58 14 cd 3c 2a e0 76 be
       -0.23688751 0.1714026 0.025034115 -0.2410895
000150 95 8d 2e bf 3e 42 11 be 38 a2 9c 3f 42 80 dd be
       -0.6818479 -0.14185426 1.2237005 -0.43261915
000160 f3 44 7a bf 6a 63 12 3d 23 77 66 be f1 1f 08 be
       -0.9776146 0.03573934 -0.22506385 -0.13293435
000170 fd 07 fb bd 3c ae 96 3f a0 90 b2 3e 15 48 8c 3f
       -0.12257383 1.1771922 0.34875965 1.0959498

model_1/model/block_2_expand_BN/FusedBatchNormV3 f4 [144]
000000 f9 66 80 3e 2a 19 3c 3d 16 05 e0 bd 6c 65 80 3e
       0.25078562 0.045922436 -0.1093847 0.2507738
000010 80 92 a8 be 87 16 7f 3e e1 86 98 3c cd 09 8e 3e
       -0.3292427 0.24910937 0.018619003 0.27741852
000020 90 3d eb 3c c7 f9 4e be b3 79 2c 3e e5 ec 03 3e
       0.028715879 -0.2021247 0.168433 0.12883337
000030 84 b2 47 3d 2e 1c a1 be cc a4 f0 be 27 0b 7a 3e
       0.04875423 -0.31466812 -0.4700073 0.24418317
000040 52 11 7e bd 57 28 df 3d d8 96 97 be 85 df 4e 3e
       -0.062028237 0.10896366 -0.29607272 0.20202453
000050 0a 23 68 be 32 a8 d2 bd 59 b1 b4 3e 07 9e bf bd
       -0.22669616 -0.10285987 0.35291556 -0.09356313
000060 d6 30 98 3e d7 19 4a be 67 19 04 3e 35 c5 a0 3e
       0.2972476 -0.1973642 0.12900315 0.31400457
000070 3a b1 d7 bc c7 34 c2 be b9 47 1e be d6 0c b4 be
       -0.026329625 -0.3793089 -0.15457048 -0.35166043
000080 89 aa 1c be a1 54 c9 be 17 a3 85 bd 69 f9 c6 3e
       -0.15299429 -0.3932238 -0.065252475 0.3886216
000090 d3 e0 78 be 99 d1 c9 3d df a7 7a 3e c1 ad 9d be
       -0.24304514 0.09854431 0.244781 -0.30796626
0000a0 a2 04 d3 3d 44 06 9c bd 5f a4 a9 3d 54 ea b9 3d
       0.10303618 -0.076183826 0.082833044 0.09077898
0000b0 bd 4f 5f be d5 00 b4 3e ef b1 82 3e 5b 35 1d be
       -0.21807761 0.35156885 0.25526378 -0.15352385
0000c0 10 72 a2 bc 5f f9 bd 3d 42 20 d5 3d 54 e3 48 3e
       -0.01982978 0.092760794 0.10406543 0.19617969
0000d0 12 30 a1 3e e2 75 1e 3d 1f 6e 40 3e a3 f5 92 3c
       0.31481987 0.03868664 0.18792008 0.017939394
0000e0 45 86 c6 3e 15 78 f3 3e 1d 8f c7 3e 55 01 ba bd
       0.38774315 0.47552553 0.38976374 -0.09082285
0000f0 40 59 c2 be 5e eb 5e be f4 fe 0e 3e 24 b2 ea bd
       -0.37958717 -0.21769473 0.13964444 -0.11459759
000100 e0 5e 4e 3e 2e dd 07 bd 8e 17 b6 3c 47 53 ae 3e
       0.2015338 -0.033169918 0.022228029 0.3404791
000110 80 f4 1f 3d 38 c2 71 be 84 10 01 3e 9c 06 8a be
       0.039051533 -0.23609245 0.12603956 -0.26958168
000120 99 52 b8 bc 12 bc 6a be 0e e8 2c 3e fc b0 5a bb
       -0.022500323 -0.22923306 0.16885397 -0.003336965
000130 8b 6b f3 bc 54 e6 81 be 59 fe 13 be 4d cd b3 3d
       -0.029714366 -0.2537104 -0.14452495 0.087793924
000140 f1 0e c3 3e c7 16 a2 bd bc c5 20 be 4a 57 0e 3e
       0.38097337 -0.07914501 -0.1570043 0.13900486
000150 f2 32 3d be b1 eb 4a 3e ee cb 07 3d 44 ba f6 bd
       -0.18476465 0.19816472 0.033153467 -0.12047246
000160 48 0c 90 bd 22 a4 92 be 70 19 33 3e 68 e1 34 3b
       -0.070335925 -0.28640848 0.17490172 0.0027600173
000170 8e e8 6a be 93 ac 4c 3e 9d a8 a9 be 01 6d 83 be
       -0.22940275 0.19987707 -0.33136454 -0.256691
000180 8a dd 52 be 8e 8a d0 be e4 3f 45 be bc 15 ca 3b
       -0.20592323 -0.4073071 -0.19262654 0.0061671417
000190 e4 e2 3f 3c 44 4e b7 be 2e 57 f1 3e 30 24 61 3e
       0.01171181 -0.358019 0.47136825 0.2198646
0001a0 ff d7 29 be 7b a7 b6 be 60 70 93 3e 19 4c 89 bd
       -0.16586302 -0.35674652 0.28796673 -0.067039676
0001b0 fe f0 d1 be f6 dd 0a be 6c 94 09 3e fa b1 43 3e
       -0.41004175 -0.13561234 0.13435525 0.19110861
0001c0 8b 1d 87 be ff 48 f1 3d a5 cd b6 3e 94 7d 97 3d
       -0.26389727 0.11781501 0.3570377 0.07396999
0001d0 b1 37 9c 3e 24 68 d6 3e ff b1 6d bd 72 11 0c 3d
       0.3051124 0.41876328 -0.05803108 0.034196325
0001e0 3f 46 1f 3e 88 1d 9a 3e 3f 59 58 3e f2 c9 a6 3e
       0.1555414 0.30100656 0.21127795 0.32575947
0001f0 25 f2 88 bc de 55 59 be cf ed b9 be 98 01 61 be
       -0.016717026 -0.21224162 -0.36314246 -0.21973264
000200 5c c6 b2 bd c1 21 e0 bd 13 92 02 bf 48 e6 0c 3e
       -0.0872924 -0.10943938 -0.5100414 0.1375972
000210 92 76 51 be 5c c2 6b bd 3d 12 d0 3d 5b c9 83 3c
       -0.20455387 -0.057558402 0.10159729 0.016087225
000220 e6 ed 58 be 90 0a 5c 3e d9 aa 6d be a0 1c 9d be
       -0.21184501 0.21488404 -0.23209704 -0.30685902
000230 fe 6d 18 3e 53 1f 87 3e e0 1f a7 bd bc cd 32 bc
       0.14885709 0.26391086 -0.081603765 -0.010913309

model_1/model/block_2_depthwise_BN/FusedBatchNormV3 f4 [144]
000000 fb 90 92 bd a8 d5 b8 3f 69 e6 be bd 6d 52 45 bd
       -0.07156559 1.4440203 -0.09321291 -0.04817431
000010 b2 6c 46 bf bf aa d0 3e 01 5e c5 be 94 89 f1 3d
       -0.77509606 0.4075527 -0.38548282 0.11793819
000020 14 fa a2 3e 7d eb 7b be 9a 2b b6 bd fb b2 0a 3f
       0.3183142 -0.2460155 -0.08895035 0.5417935
000030 66 61 14 3f f2 4f 3d bf 36 39 4b bf 84 32 1c be
       0.5796112 -0.7395011 -0.7938417 -0.15253645
000040 8c 41 1c 3f 36 21 0c be 21 9f 44 be 68 ae 96 be
       0.61037517 -0.13684544 -0.19201328 -0.29429936
000050 dc 3c 45 3f d0 38 85 3f cc 01 df 3d b4 57 53 be
       0.7704599 1.0407963 0.108890146 -0.20638925
000060 14 53 89 3e ce ad d0 bd 5e 4f 15 3f b8 9d c6 bc
       0.26821196 -0.101894006 0.5832423 -0.024245128
000070 e8 c4 69 be 84 5f 32 bf 2c 5d 95 be 22 d4 d0 be
       -0.2282902 -0.69676995 -0.29172647 -0.40786844
000080 cc 37 be be 2c c7 1e bf c0 bc 90 be f2 fe 84 3e
       -0.37151945 -0.6202266 -0.28269005 0.25975758
000090 13 a0 89 3f 70 07 ff bb c1 93 01 bf 69 d9 5d bf
       1.0751976 -0.007782869 -0.5061608 -0.86659867
0000a0 7a 66 00 be a0 4f 2b be b0 be ed bc 54 7b 31 3f
       -0.12539092 -0.16729593 -0.029021591 0.6932881
0000b0 cb dc ee be 0f ef 5a 3e 88 43 ba 3f b5 17 34 be
       -0.46652827 0.21380256 1.4551859 -0.17587169
0000c0 fe 8e 07 3f 72 07 12 bf 1f 05 24 be 6c 45 8e be
       0.52952564 -0.5704261 -0.16017579 -0.2778734
0000d0 0c 0e d2 3d 4a 06 74 bf e3 ad ab 3d 90 e8 72 3d
       0.102565855 -0.95322096 0.08382776 0.05930382
0000e0 e8 8d 27 be 28 2f 07 bc 92 ea 6e 3e a5 5a 6c 3f
       -0.16362727 -0.008250989 0.23331669 0.9232581
0000f0 cc a9 fe 3e aa ba 04 be d8 b5 18 3f bd fe 36 3f
       0.4973892 -0.12961832 0.5965247 0.7148245
000100 82 fa 77 3f 0a 10 66 3e 18 d9 b8 3e dc 3a 32 3e
       0.9686662 0.22467056 0.3610313 0.17405266
000110 78 d4 ac 3f f5 3f 8e bd 49 a1 94 be 44 c3 2a 3f
       1.350234 -0.069457926 -0.290293 0.667042
000120 0c 83 b0 3c 53 05 7e bf f5 b3 a8 bf 30 59 7a 3f
       0.021546863 -0.99226874 -1.3179919 0.9779234
000130 ff 6a 97 3f d4 d4 43 bf 2c d6 46 be 7b 88 8f bf
       1.1829528 -0.76496625 -0.19417638 -1.1213526
000140 c0 d8 76 3e 1e 6d f5 be 6b 44 1d 3f 6c a7 06 3e
       0.24106121 -0.47934812 0.6143252 0.13149804
000150 e3 dc 44 3f de a2 40 3f 19 35 3a bf f3 ce 19 be
       0.76899546 0.75248516 -0.7273727 -0.15020351
000160 2c dd 2b bf 5e 2b be 3f 12 3a 14 bf 74 96 53 bf
       -0.67134356 1.4856985 -0.5790111 -0.8265145
000170 b6 0d 91 bd 93 5c 9c 3f 8a 61 90 bf 40 db 80 3f
       -0.07082693 1.2215751 -1.1279767 1.006691
000180 6b cb ae be 3c 09 bf be d6 9f c0 3e 2f ae 22 be
       -0.3413957 -0.37311733 0.37621945 -0.15886758
000190 a4 da 4e bd e8 ad fa be 6d 11 e2 be c6 25 00 be
       -0.05050148 -0.48960805 -0.4415392 -0.1251441
0001a0 53 62 aa be 62 b6 b2 bd 5d 47 0b 3e 32 44 83 be
       -0.3327814 -0.08726193 0.13601442 -0.25637966
0001b0 fe f4 3e bf 0b 88 94 bf 52 73 0f 3e 5e 66 0a 3f
       -0.7459258 -1.1604017 0.14008835 0.5406245
0001c0 82 f2 71 bf 22 16 cc bd 2a 44 9b be f5 c6 4e be
       -0.9451066 -0.09965159 -0.30325443 -0.20193084
0001d0 80 98 61 3d e2 4f 4d be de 45 24 bf d7 0c 1d be
       0.055077076 -0.20050004 -0.6416911 -0.1533693
0001e0 e5 c4 14 bf b2 28 47 bf 54 a0 e8 bd cc fe 9b 3e
       -0.5811294 -0.7779647 -0.11358705 0.30467832
0001f0 51 46 08 bf 46 86 4c bf 46 23 82 be 82 9c 53 be
       -0.53232294 -0.79892385 -0.25417536 -0.20665172
000200 bc f1 5c bd 04 4e f7 be cd da 38 bf 3b b0 db 3e
       -0.053941473 -0.4830171 -0.72208863 0.4290789
000210 2e 97 6e 3e 0c c9 35 bf d7 3f 1a 3f 13 80 8e 3f
       0.23299858 -0.710099 0.6025366 1.1132835
000220 62 1d 19 bd c9 cf 2a 3f 9e bc 64 be 60 49 e9 3b
       -0.037381537 0.66723305 -0.22337577 0.0071193427
000230 32 78 97 3f 18 8a 43 be d0 95 3c bf a7 ea 32 3f
       1.1833556 -0.19095647 -0.73666096 0.698893

model_1/model/block_3_expand_BN/FusedBatchNormV3 f4 [144]
000000 bb 99 4d bd 63 7d c0 be 5a f4 26 be c0 73 69 be
       -0.050195437 -0.37595662 -0.1630415 -0.22798061
000010 f9 20 5f 3d 51 ac f9 3d 78 08 2c 3e c1 af 92 be
       0.054474805 0.1219107 0.16800106 -0.28649715
000020 47 d8 9c be 5a da 67 3e cc 99 d4 bd 88 17 58 3e
       -0.30633757 0.22641888 -0.10380897 0.21102726
000030 68 a0 9e bd be 61 9c be 3e 87 3c 3e c5 5a 64 be
       -0.07745439 -0.3054332 0.18410966 -0.22300251
000040 ac 49 c9 3e 3b e9 44 3e f9 af 6f be 1e 58 ef be
       0.3931402 0.19229595 -0.23406972 -0.46746916
000050 e3 16 81 3e 2b 00 de be 77 c2 0b be 70 12 4a be
       0.25212774 -0.43359503 -0.13648401 -0.19733596
000060 66 71 b8 be a6 f4 9d be 6d c0 aa be 27 53 8e 3d
       -0.36024016 -0.30850714 -0.33349934 0.06949454
000070 e6 2e e7 be 06 e4 84 be cf a5 90 be a6 ae 12 3e
       -0.45152968 -0.25955218 -0.28251502 0.14324436
000080 a2 4b ad be 8a 66 a8 bd b6 a0 f4 bd 6b 02 de 3d
       -0.33846766 -0.08222683 -0.11944716 0.10840305
000090 44 b2 de be a2 f2 0e bf 5e bd 7f 3e a9 47 68 be
       -0.4349538 -0.5583898 0.24974582 -0.22683586
0000a0 56 8c ea bc 3a db 3e be a3 47 76 be c2 50 a0 3e
       -0.02863137 -0.18638316 -0.24050765 0.31311613
0000b0 21 a8 b1 be cc 6c 82 be 60 16 e0 3d 76 4f 84 3e
       -0.34698585 -0.2547363 0.10941768 0.25841874
0000c0 e0 04 ae 3e 16 7a c3 3d 3e a2 7d 3d 14 7d f9 bd
       0.33988094 0.095447704 0.061922304 -0.1218206
0000d0 92 f1 9f be 7a 0c db be 5d 6b ae bd b2 73 a1 3d
       -0.3123899 -0.42782956 -0.08516572 0.07883395
0000e0 a8 b7 28 3e 8b 22 e5 3d ec b7 ae be 8f 05 82 3e
       0.1647631 0.11188229 -0.34124696 0.25394866
0000f0 91 74 76 be 1c be 7c 3c 4e da 47 be 92 fb a5 be
       -0.24067904 0.015426185 -0.1951687 -0.32418495
000100 ef 56 da be f9 76 e1 3e 91 d8 72 be 4f ed 67 3e
       -0.4264445 0.4403608 -0.23715426 0.2264912
000110 a9 2a 4f 3e 4a be 96 3e 4f e4 ce be ca f6 8a be
       0.20231117 0.29442054 -0.4040856 -0.2714141
000120 96 d0 0d 3f 54 8e cd bd 52 55 9b be 47 9e 9d 3c
       0.553964 -0.100369126 -0.30338532 0.019240512
000130 55 3c 38 be 7b 9e f2 be ce a2 35 3e 7d d5 8d 3d
       -0.17991765 -0.47386536 0.17737886 0.06925485
000140 38 7a 01 bf 5a 4b fb bd 10 fe 14 3b a3 46 f2 be
       -0.50577116 -0.122702315 0.002273444 -0.47319517
000150 66 b8 a9 3d 1d b0 dd be 63 80 ac be 94 35 bf be
       0.08287124 -0.43298426 -0.336917 -0.37345564
000160 48 d0 03 3f cc b8 b1 be 27 03 81 3e 0f ac 22 be
       0.51489687 -0.347113 0.25197718 -0.15885948
000170 99 ad f9 bd 9c a6 42 be 4d 00 04 bf 2a 04 e7 be
       -0.12191314 -0.19008869 -0.5156296 -0.45120364
000180 98 95 aa be 18 ba 92 be 41 04 64 be 9e 4c 10 bf
       -0.33317256 -0.28657603 -0.22267248 -0.5636691
000190 ca 3c 31 3e 1d e8 1e 3e 73 ee ae be c0 ca d2 3c
       0.17308345 0.15518232 -0.34166297 0.025731444
0001a0 5a 5b 10 be 63 f1 19 be d7 a2 cd bd c2 68 28 be
       -0.14097348 -0.15033488 -0.10040825 -0.16446212
0001b0 a0 a1 ff be 2b 5f 82 3e 4c f4 fd bd a7 55 9f 3d
       -0.49927998 0.25463232 -0.124001116 0.07780009
0001c0 0e bf e0 3e fc ff 24 bf 78 f3 8a 3b c1 41 0c be
       0.43895763 -0.644531 0.0042404495 -0.13696958
0001d0 58 a1 f7 be 1d 3f 5f bd 5a 19 2b bd 4e 2c b5 3e
       -0.48365283 -0.05450355 -0.041772224 0.35385364
0001e0 e9 b7 01 be bf 92 40 be c0 81 d4 bd a5 98 8e be
       -0.12667812 -0.18805979 -0.1037631 -0.27850834
0001f0 d0 7e 53 be e1 69 af bc af 3d 69 be 83 db 99 3e
       -0.20653844 -0.021412792 -0.22777437 0.30050287
000200 a3 f9 52 3d 9d 55 d1 bd 4b 29 f8 3c 95 c2 f2 3e
       0.051507603 -0.102214076 0.030293128 0.4741408
000210 b2 dd 4a be 94 6f e2 be 14 ca f0 3d 4a 18 8f bd
       -0.19811133 -0.44225752 0.11757293 -0.06987055
000220 9a 05 97 3e 44 84 3d be e2 7b ab be 03 fc ca bc
       0.2949646 -0.18507487 -0.33492953 -0.024778372
000230 af cc 07 be df 82 cc be 9e b8 35 3d ee 5a 8f be
       -0.13261674 -0.39943597 0.044365518 -0.2799906

model_1/model/block_3_depthwise_BN/FusedBatchNormV3 f4 [144]
000000 39 f7 85 3f 1c 27 ac bd 2b 7c bf 3e 77 58 c6 be
       1.0466071 -0.08405897 0.3739942 -0.38739368
000010 0f a8 e3 be ed 3e 45 3d 8a 27 55 bf 56 10 39 be
       -0.44464156 0.048155714 -0.83263457 -0.18072638
000020 68 71 9e 3f 20 05 31 be d1 f6 91 bf d1 9f af bf
       1.2378359 -0.17287111 -1.1403447 -1.3720647
000030 c1 c0 ac 3f 8c 92 9a be 49 2f 25 be 2b fe 50 3f
       1.3496324 -0.3018993 -0.16131319 0.8163783
000040 83 39 d6 3f dc 51 8b be aa 24 31 3d 61 19 14 bf
       1.6736301 -0.2721089 0.043247856 -0.57851225
000050 16 b5 da 3e 70 b1 6c 3f b8 ff b5 be d1 e9 5b 3f
       0.42716283 0.9245825 -0.3554666 0.8590365
000060 10 a5 9a be d5 a6 38 bf ee e4 8a 3f d7 2a 0c bf
       -0.30204058 -0.72129565 1.0851114 -0.5475287
000070 3f 88 2f bf 16 69 86 bf 72 74 67 bf 2e 81 20 bf
       -0.6856727 -1.050082 -0.90412056 -0.6269711
000080 19 6c 37 bf e4 ca f0 be be f3 65 bf bb 7c 68 3f
       -0.7164932 -0.47029793 -0.89825046 0.90815324
000090 ba e0 10 bf e6 ec fd be 68 31 88 3f fb e2 4a bf
       -0.56592906 -0.49594802 1.0640078 -0.79252595
0000a0 07 95 2c 3f 24 90 28 3f 75 d7 88 3f 08 0a bc 3d
       0.674149 0.6584494 1.0690752 0.09181601
0000b0 da fa 80 bd 36 51 90 3f 14 a8 76 bf a8 de 9b 3f
       -0.06297846 1.1274784 -0.96350217 1.2177324
0000c0 a8 15 db 3f aa 4c 86 bf 12 2a 46 3f a2 26 a0 bf
       1.7115984 -1.0492146 0.77407944 -1.251179
0000d0 ad f7 83 be d3 44 2d bf b5 ed 5a 3f fd a9 90 3f
       -0.257749 -0.6768314 0.8551896 1.1301876
0000e0 32 e2 84 3e 11 a2 3d be 5d f8 42 bf 9a 41 56 bf
       0.25953823 -0.18518855 -0.7616022 -0.8369385
0000f0 77 aa a7 3f 74 bc 2f 3f 74 03 2f bf d2 de 10 bf
       1.3098897 0.6864693 -0.68364644 -0.56589997
000100 e9 99 85 3f d8 a7 b4 be be 20 e7 bd 3a 93 c5 3f
       1.0437595 -0.35284305 -0.11285542 1.5435555
000110 53 b2 37 3f 31 96 9d bf 88 64 cf be 7a 10 9b be
       0.71756476 -1.231146 -0.40506387 -0.30286008
000120 dc 48 26 3f a2 bf 98 bf c4 21 17 bf a0 f0 01 bf
       0.64954925 -1.1933482 -0.590359 -0.5075779
000130 1e 7e 6e be 6a ba 36 bf 67 db bc 3e 15 fb 4b 3f
       -0.23290297 -0.71378195 0.3688614 0.79679996
000140 8b f6 4e bf 54 5c 95 3f 43 2a 97 3f 62 3f da be
       -0.80844945 1.1668801 1.1809772 -0.42626482
000150 e4 6c 80 be b9 d7 01 bf ce f5 33 bf da 10 05 bf
       -0.25083077 -0.5071979 -0.70296943 -0.5197884
000160 1c e2 17 bf d2 44 c3 be 2c 70 7f 3f 78 25 42 3f
       -0.5932939 -0.38138443 0.99780536 0.7583842
000170 70 45 31 be 24 8d 8b be 03 60 4e bf 7b e3 3f bf
       -0.17311645 -0.2725612 -0.8061525 -0.7495648
000180 a6 30 81 bf dc 3c 25 bd 04 70 52 bf 22 c3 ca be
       -1.0092971 -0.040341243 -0.8220217 -0.39602
000190 3a f6 4e 3f a8 15 89 bf 74 2b 17 bf b7 bf b0 bd
       0.8084446 -1.0709734 -0.5905068 -0.08630317
0001a0 28 cd 78 3f 1f 46 a4 3f 8c 77 27 3f 23 82 ae bf
       0.97188044 1.2833899 0.6541679 -1.3633465
0001b0 26 bf f8 be ea 82 91 be b8 5a 6c bf 03 6e 27 be
       -0.48583335 -0.28420192 -0.92325926 -0.1635056
0001c0 a1 2e 07 40 0b df 08 bf f8 32 6d 3f 97 33 75 3f
       2.112221 -0.53465337 0.926559 0.95781845
0001d0 8a 88 00 bf 3b c9 64 be 5f 0e e5 be 3d 94 44 be
       -0.5020834 -0.22342388 -0.44737527 -0.19197173
0001e0 a4 57 97 3f 3d f0 38 bf a6 48 30 3f e5 7b 9d 3f
       1.1823621 -0.72241575 0.6886085 1.2303435
0001f0 ee 60 99 bf 5e 31 25 be b4 18 73 bf 18 45 f4 bd
       -1.1982706 -0.16132113 -0.9495957 -0.11927241
000200 ce 87 5d bf 8d 2f ba be 62 89 43 bf 41 45 1b 3e
       -0.86535347 -0.36364403 -0.76381505 0.15163137
000210 24 56 8a 3f 0f 81 54 bf 74 00 57 bf 70 4f 5e 3f
       1.0807538 -0.8300943 -0.83985066 0.8683996
000220 cf d5 94 be 13 f4 8c bf d4 39 a6 be d8 95 b7 be
       -0.29069373 -1.1011986 -0.32465994 -0.3585651
000230 3f 47 2d bf e6 ae 7f 3f 0e 2d 86 3f 5c 54 9f 3f
       -0.6768684 0.9987625 1.04825 1.244762

model_1/model/block_4_expand_BN/FusedBatchNormV3 f4 [144]
000000 9b 10 2a 3e f6 83 02 3e a7 dd 8b 3e 79 f4 e8 be
       0.16607897 0.12745652 0.27317545 -0.45499018
000010 1a af f5 3e 6c b3 29 be 91 ba 0a 3e 44 3c f7 3d
       0.47985154 -0.1657235 0.13547732 0.12072042
000020 fe d9 8f 3e 64 e4 14 be 18 1c a2 be 6b d1 42 3e
       0.28096002 -0.14540249 -0.3166206 0.19025199
000030 e2 f9 af be 46 ef c3 bd 68 6e 08 be e2 af 00 be
       -0.34370333 -0.09567122 -0.13323367 -0.12567094
000040 9e a1 33 3e 6e b2 1f 3e 2f 67 1d be b7 af 0b 3e
       0.17542121 0.1559541 -0.15371393 0.13641249
000050 d4 28 6e 3e 19 25 1e bd 89 8d 9e be e6 c0 37 3e
       0.23257762 -0.038609598 -0.30967358 0.17944679
000060 0c 3f d6 be fa 84 9b be 32 dc 41 3d 13 0d 6a 3d
       -0.41844976 -0.3037489 0.047329135 0.057141375
000070 80 5e 34 3d 2d 5b 60 be 1f 3d d5 be 80 34 55 3c
       0.044035435 -0.21909781 -0.41648194 0.013013005
000080 d0 34 2a bc 4d 0b c6 be 20 45 28 3d f3 30 1e 3e
       -0.010388568 -0.38680497 0.041081548 0.1544836
000090 46 e6 ff bb ea bf 30 3e 70 d6 50 bd 8f e0 c8 3d
       -0.007809433 0.1726071 -0.050985754 0.09808456
0000a0 a1 7a 66 3d 3b 97 5f be 8a f3 b6 3d 1e 64 9d 3e
       0.05626929 -0.21835034 0.0893317 0.30740446
0000b0 24 9e ea 3e 95 28 2f 3e bf d2 10 be 0e d1 8c be
       0.45823777 0.17105325 -0.14142893 -0.27503246
0000c0 89 db 08 3e e9 66 c0 be 71 39 c4 be 12 84 7a be
       0.13364996 -0.37578514 -0.38325074 -0.24464443
0000d0 f8 fd 90 be 61 92 b1 bd 56 84 78 3d 89 54 76 be
       -0.28318763 -0.08670498 0.06067308 -0.24055685
0000e0 a3 b6 69 3d f3 c6 ef bd 77 62 07 bf 0b 4a cd 3e
       0.05705894 -0.117078684 -0.5288462 0.40095553
0000f0 2d b5 22 ba 13 3b c0 3e 65 c5 12 3f a1 bf f3 be
       -0.0006206807 0.3754507 0.5733245 -0.4760714
000100 67 0f 8b 3e 75 47 20 be a7 97 b7 be 5c 1d 8a bd
       0.2716019 -0.15652259 -0.3585789 -0.06743881
000110 c9 33 b0 3e f8 b6 b4 3e e8 c8 af bd b9 d7 f4 bd
       0.3441451 0.35295844 -0.08583242 -0.11955208
000120 50 33 8a 3e 1b fe 30 be f6 4e 77 bd be 6e 49 3e
       0.26992273 -0.17284434 -0.060378037 0.19671151
000130 4a 45 0f 3f ab 53 ad 3e af e8 d4 be 28 ca f9 3b
       0.559651 0.33852896 -0.41583773 0.007622976
000140 04 65 23 be c9 f4 99 3e ca ca 1f bf 00 9e e1 3d
       -0.15956503 0.3006957 -0.62418807 0.11016464
000150 fd 9f 81 bd 75 f8 8f be 3e c3 74 3e 67 03 22 3d
       -0.063293435 -0.28119245 0.23902604 0.039554026
000160 9e 7d 64 be 65 0a ca be eb 13 7a 3e 82 c5 cf 3d
       -0.22313544 -0.39461055 0.2442166 0.101450935
000170 04 31 e6 3d 8e 5f 11 3e 10 53 48 3d fe 3c c1 be
       0.11239818 0.14196607 0.04890734 -0.37741846
000180 94 b5 c5 be 2c bb b6 be 7e 70 6c be e4 12 b2 3d
       -0.38615096 -0.35689676 -0.23089787 0.08695009
000190 96 f1 06 3e da a9 00 bf 32 94 3f be 9c 41 23 3e
       0.13178095 -0.5025917 -0.18708876 0.15942997
0001a0 b1 b5 a0 3e f8 ea f5 bd 70 d0 3d 3e 4c 17 e8 3c
       0.3138862 -0.12007707 0.18536544 0.028331421
0001b0 ec 51 9d 3e e4 0e 5b be 9d 50 b5 3d e7 88 a6 be
       0.30726564 -0.21392399 0.088532664 -0.32526323
0001c0 02 1d fa bd 24 6c 05 3f c5 fd a9 3e 6b 72 1b 3e
       -0.12212564 0.52118134 0.33201423 0.15180366
0001d0 be eb 9b 3e d3 64 8c 3d bd 80 1a bf 26 e3 8d 3e
       0.30453295 0.06855168 -0.6035269 0.27712363
0001e0 a1 4c 68 be 16 26 39 3e fe 45 05 be 62 7f ef 3d
       -0.22685482 0.18080935 -0.13014981 0.11694218
0001f0 20 5f 02 be 05 c2 85 3e a0 96 9c 3c 7d 01 49 be
       -0.127316 0.26124588 0.019114792 -0.19629474
000200 ac b5 8a be 37 63 80 bc ad ad 4d 3e 2b 3d 3e be
       -0.2709173 -0.01567231 0.20085783 -0.18578021
000210 7d ec 9f be 3c 95 bd 3a fd 30 8d 3d 5c 3f 2b be
       -0.31235114 0.0014464031 0.068941094 -0.16723388
000220 a5 e4 06 bf 43 c7 23 be 0c f1 fd 3d 05 a6 20 3e
       -0.52692634 -0.15993981 0.12399492 0.15688331
000230 0a 20 34 bd 9c 64 ef be 55 e6 46 3e d1 73 27 bf
       -0.043975867 -0.46756446 0.19423802 -0.65411097

model_1/model/block_4_depthwise_BN/FusedBatchNormV3 f4 [144]
000000 e3 70 93 be 44 21 f2 bd 32 e7 8b bf fb 38 07 bf
       -0.28797063 -0.11822751 -1.092993 -0.5282132
000010 0c f9 27 bf 6e 90 b0 3e 88 aa 8e be 7d f2 11 3f
       -0.6561439 0.3448519 -0.2786448 0.5701063
000020 b2 c8 f1 3e 28 c7 3c bf ca 05 35 bf 9a 78 0d 3f
       0.4722343 -0.7374139 -0.7071196 0.5526215
000030 75 6b 70 bf e1 15 77 bf 3a b6 da bf 90 7f 82 be
       -0.93913966 -0.9651776 -1.7086861 -0.25487947
000040 99 0c ae 3f 32 11 6d bf c6 05 b9 be d0 d4 9d bf
       1.3597594 -0.9260436 -0.36137217 -1.233057
000050 e4 28 3f 3e ab f4 ce bd 2d 3c a3 3d 20 95 30 3c
       0.18667942 -0.101052605 0.07970462 0.010777742
000060 f0 1d 93 bf 95 58 21 bf 3b df 58 3f 54 41 c0 3e
       -1.1493511 -0.6302579 0.8471562 0.3754984
000070 62 e7 50 3f 8f 1b b5 3f 9b c6 f4 3d 9e fd 49 be
       0.8160306 1.4149035 0.119519435 -0.19725654
000080 48 32 a7 3e 44 ea ec bd 09 ad 5a be 06 30 9f be
       0.3265555 -0.1156812 -0.2135507 -0.31091326
000090 8c c7 2a 3f 90 07 ea 3c 3a 11 fe 3e 46 cf e8 be
       0.66710734 0.02856806 0.49622518 -0.45470637
0000a0 80 68 ef 3b ea 42 63 bf ac b2 cf 3d 4e 2f 88 3d
       0.0073061585 -0.8877398 0.10141501 0.06649648
0000b0 1b d4 d6 3f 67 c7 0f bf 4e 82 ec 3e e5 ba 03 be
       1.678348 -0.5616364 0.46193165 -0.12864263
0000c0 e3 fc 93 bf 1c 4b 17 bf cc 03 92 bd 4b ed 75 bf
       -1.156155 -0.5909898 -0.071296304 -0.96065205
0000d0 a5 03 a7 3d 67 25 80 be 58 7f 0d be 3e 8d 13 bf
       0.08154992 -0.25028536 -0.13818109 -0.57637393
0000e0 ea b9 cb 3e a4 35 11 bf 10 c6 d7 bd e5 fa 44 be
       0.3979028 -0.56722474 -0.10535824 -0.19236334
0000f0 a3 06 31 3e 47 ca 5a 3f 7a 38 3e be 7e 41 48 3f
       0.17287688 0.854649 -0.18576232 0.78224933
000100 2e cc b0 be 16 79 a5 bd a3 ca 71 be e4 ae 8d be
       -0.34530777 -0.08079736 -0.23612456 -0.27672493
000110 5c 9d 91 3f d2 25 fc be d0 21 2d 3f 71 8f ac 3f
       1.1376147 -0.49247605 0.6762972 1.3481275
000120 70 18 18 bf d4 2a 56 bf f6 de 35 be 9d 66 a4 3f
       -0.5941229 -0.836591 -0.17760834 1.2843815
000130 b1 87 da 3e 98 9a 27 be 92 08 e3 be 5b 4d 66 3f
       0.4268165 -0.16367567 -0.44342476 0.89961785
000140 95 91 1b bf 10 7e 8e 3f b8 07 e4 bd 74 a3 cf 3f
       -0.60769016 1.1132221 -0.11134285 1.6221757
000150 7c b4 cd bd a5 95 1f be 38 37 56 3d 08 ae ad bb
       -0.1004419 -0.15584429 0.052298754 -0.005300287
000160 e8 a3 92 3f fa 21 fb 3c cf 45 1d 3f f7 07 0f bf
       1.145627 0.03065585 0.61434644 -0.5587153
000170 3f 52 93 3f a5 d3 32 3f d8 8a 2b 3f a7 7f ea be
       1.1509475 0.69854194 0.67008734 -0.45800516
000180 05 17 0e bf 59 95 23 3f 15 59 29 bf 5c 59 80 bd
       -0.55503875 0.6389976 -0.66151553 -0.06267044
000190 28 07 0c bd a8 5f 96 be 52 b7 01 bf 14 3c db 3c
       -0.034186512 -0.29369855 -0.5067035 0.026762046
0001a0 18 1e 2b bf a7 e4 28 3f 58 6b a0 3f b4 ec c7 3f
       -0.66842794 0.65973896 1.2532759 1.5619111
0001b0 4e 0b ee bd ce 79 28 bf 35 fc 4c 3f 2a c7 36 bf
       -0.1162325 -0.6581086 0.8007234 -0.7139765
0001c0 94 d6 5b bd 6a ad f9 bd 63 bb a7 3e 20 46 ac 3f
       -0.053671435 -0.12191279 0.32760152 1.34589
0001d0 3a 96 65 3f 15 18 86 be a3 3e 9d bd bb f0 07 3f
       0.8968235 -0.26190248 -0.07677963 0.531017
0001e0 ce a4 4a bf 2c a3 25 3f 05 46 09 bf c0 ea 75 3d
       -0.7915772 0.64702106 -0.53622466 0.06003833
0001f0 2e 1d 68 bf 52 dc 16 be 58 c8 21 bf 97 b2 1f 3f
       -0.90669525 -0.14732483 -0.63196325 0.6238188
000200 cc aa ee 3e 11 ec 87 3f ca 69 19 be a0 fe 44 bf
       0.46614683 1.0618917 -0.14981762 -0.76951027
000210 fb 78 8a be 92 34 65 3f 3b 3a c5 be 39 6d 20 3f
       -0.27045426 0.8953334 -0.3852099 0.6266666
000220 78 f6 4b be 1e 75 7c bf 2e 92 bf be 0d 29 3e 3f
       -0.19918239 -0.98616207 -0.37416214 0.7428139
000230 28 f8 e4 be 3f 57 c1 be 02 76 16 be 36 dd 47 be
       -0.44720578 -0.37761876 -0.14693454 -0.19517979

model_1/model/block_5_expand_BN/FusedBatchNormV3 f4 [144]
000000 95 9e 83 be 7b 3f b4 bd 48 36 6f be 0a 07 2e bf
       -0.25706926 -0.088011704 -0.2336055 -0.6797949
000010 b9 b3 97 3e b8 68 b4 be a0 09 66 be f9 c9 d7 bd
       0.29629305 -0.35236144 -0.22464609 -0.1053657
000020 12 ef 7d be 0b bf 66 be c5 ab ef be 92 a7 a8 3e
       -0.2479823 -0.22533815 -0.46810737 0.32940346
000030 74 86 de be 7b b1 b8 be 92 53 c2 3e fa 37 04 be
       -0.43461955 -0.36072907 0.37954384 -0.12911978
000040 64 5a 22 bf 13 95 5e 3e d1 e1 93 be 3a 6e e7 be
       -0.63419175 0.21736555 -0.28883222 -0.45201284
000050 30 98 0a bf 2c 53 59 3d db c8 cf be 81 d8 5d be
       -0.5413847 0.053057835 -0.40582928 -0.21664621
000060 9a 22 96 be e2 85 e1 3e 14 6e 6b bc df 7f 76 be
       -0.29323274 0.44047457 -0.014369506 -0.24072216
000070 17 63 06 bf 89 46 9b bd 8b 8b 85 3e 6a d6 b0 3e
       -0.5249495 -0.07581813 0.26083025 0.34538585
000080 80 62 25 bf a8 33 fa 3d 98 44 a7 be d2 1a 89 3e
       -0.64603424 0.12216884 -0.3266952 0.26778275
000090 77 1b 5c 3d 44 bf f6 be 01 9e c9 bd 09 a9 32 be
       0.05373713 -0.481928 -0.0984459 -0.17447294
0000a0 01 ed 14 bf 74 2a 94 be 17 4a 50 be d0 fb 0a bf
       -0.5817414 -0.2893864 -0.20340763 -0.54290485
0000b0 ef b6 84 3e 7e 5d 6f 3e fd 70 cb 3e 8a de e4 be
       0.25920817 0.23375508 0.3973464 -0.44701034
0000c0 50 2c 14 3e bd 0c d7 3e eb 76 9c 3e 22 ec e3 3d
       0.14470029 0.42001906 0.30559477 0.11129023
0000d0 a3 06 42 be 4b 8a 34 be 8b 2e f6 3e 3b bb da be
       -0.18947844 -0.1763088 0.48082384 -0.4272097
0000e0 95 ba 3b bc 33 24 2f be 26 ff 90 be 98 df 46 3d
       -0.011458059 -0.17103653 -0.28319663 0.04855308
0000f0 eb 41 0f bf 90 4c 06 3b 25 f6 74 be 09 da 1f 3e
       -0.5595996 0.0020492412 -0.23922022 0.15610518
000100 92 bc 95 bd 1c a7 a2 be 21 b9 8a 3e cf 2f 07 bf
       -0.073113576 -0.3176812 0.27094367 -0.52807325
000110 dc 7a 74 be 2f ed 03 be 7e 0a 45 be 94 1c a5 be
       -0.23874992 -0.12883447 -0.19242284 -0.32248366
000120 72 07 1a 3f 4c ad b1 3c ba 16 ca bc 19 cf 0a 3d
       0.6016761 0.02168908 -0.02466904 0.03388891
000130 f4 0e 71 be 3c d4 49 be c6 8d 16 3e 49 79 ef be
       -0.2354086 -0.19709867 0.1470252 -0.4677222
000140 16 c9 09 bf 1e 46 64 be 65 68 a5 bd 30 df 1a be
       -0.5382246 -0.22292373 -0.08076552 -0.15124202
000150 9d ed f6 3b ba ed a5 bd 75 cd 8b be 45 90 a0 3e
       0.00753565 -0.08101983 -0.2730519 0.3136007
000160 9d 1d e8 be 65 08 ea 3e 4f 78 1a bf 76 56 db be
       -0.45335093 0.4570953 -0.60339826 -0.42839402
000170 26 27 5f 3d 54 08 98 3d 17 7f e2 3d 3b 53 e2 3c
       0.054480694 0.074234635 0.11059397 0.027627578
000180 25 71 36 be 4b 80 04 3f 68 b8 51 be c3 5b 81 3e
       -0.17816599 0.5175826 -0.20480502 0.2526532
000190 4e db 9e be 2b 28 90 bd d9 8d 40 3e 83 88 80 3e
       -0.3102669 -0.070389114 0.1880411 0.2510415
0001a0 fa 78 b3 be 02 f4 71 be 82 63 fc 3e e6 bb 6f be
       -0.35053235 -0.23628238 0.49294668 -0.23411521
0001b0 04 3d fb 3b 83 88 fb bd b4 ae 9c 3b da c6 79 be
       0.0076671857 -0.12281897 0.0047815684 -0.24392262
0001c0 7c 85 e2 3d 0b 04 a9 3d 46 f1 4a be 72 25 a5 be
       0.110606164 0.08252724 -0.19818601 -0.3225513
0001d0 b7 2f a4 3e 33 c8 e1 bc 89 4e 85 3e 9f a1 00 bf
       0.32067654 -0.027561283 0.2603648 -0.50246614
0001e0 1f c2 0f bf 6b c7 27 bd ba 28 5b 3c 9c 6b 82 bd
       -0.5615558 -0.040961664 0.013376409 -0.06368181
0001f0 b6 bc 53 be 76 3c c8 3a a2 d7 fa be 32 de ab be
       -0.20677456 0.0015276808 -0.4899264 -0.3356796
000200 ad 8f 53 3e bd e4 03 3e 96 ae 7f bd ef c9 05 bf
       0.20660277 0.12880225 -0.062422357 -0.5226125
000210 ee 6b f5 be d3 a0 6e 3b 46 51 be 3e 23 7a 06 3f
       -0.47933906 0.0036411777 0.37171382 0.52530116
000220 65 0f 0f bf f0 21 4f be 4f 21 fd be 9f a1 dc bc
       -0.55882865 -0.2022779 -0.49439475 -0.026932536
000230 f9 f0 30 be c8 ab ec 3e a9 af 0a 3d 89 e7 fc be
       -0.17279424 0.4622481 0.03385893 -0.49395397

model_1/model/block_5_depthwise_BN/FusedBatchNormV3 f4 [144]
000000 77 20 89 3f 36 4b ae 3f 65 48 66 bf b7 a0 87 be
       1.0713032 1.3616703 -0.89954215 -0.26489803
000010 3d ff 2e be 0f 6f 73 bf a5 27 ef be 58 9a e8 be
       -0.17089553 -0.95091337 -0.46709934 -0.45430255
000020 a3 50 a4 be ba 84 57 3f 4d 91 54 be 19 9a 11 bf
       -0.3209277 0.841869 -0.20758553 -0.5687576
000030 2e 2d 7e bf d8 28 a7 bf 14 5a 04 3f 09 8f 4b bf
       -0.9928769 -1.305934 0.5169995 -0.7951513
000040 9c b3 80 be 4a 8a 71 3f ff 50 7b be e2 b5 17 be
       -0.2513703 0.9435164 -0.24542616 -0.14815477
000050 13 88 1b bf 4c ae 30 3f fa 0e 64 be 6d 2d 95 3f
       -0.6075451 0.69015956 -0.22271338 1.1654488
000060 ca a0 8f be 34 57 cf bd b8 ab 72 bf 34 d9 47 bf
       -0.2805236 -0.101240546 -0.9479327 -0.780658
000070 4a fa f4 be aa ba a1 bf 15 1c 48 3f 1a 65 ae 3f
       -0.47847205 -1.263509 0.7816785 1.3624604
000080 b6 28 59 bf 5d 73 e2 be 87 45 2e be e5 86 73 3f
       -0.84827745 -0.4422864 -0.1701871 0.9512771
000090 8f 81 01 3f c4 57 90 3e 5b 7c 13 3f 4e b3 66 be
       0.50588316 0.2819196 0.57611626 -0.22529337
0000a0 8f d9 df be da 2b a8 be 4a 4b e4 be a4 c4 12 bf
       -0.43720672 -0.32845956 -0.4458869 -0.573313
0000b0 c4 fc a7 3f a0 ed ab 3f 8f 64 b9 3f 99 b6 62 3d
       1.3124013 1.3431892 1.4483813 0.05534992
0000c0 6c 00 91 bf 86 f9 f4 3d d2 87 3d bf 5a 78 67 3e
       -1.1328254 0.11961655 -0.7403537 0.22604504
0000d0 d0 b3 63 bd e0 59 74 bc 8e c7 0c bf 72 60 97 3f
       -0.055591404 -0.014914006 -0.54991996 1.1826308
0000e0 e0 8d 75 be 70 8f 9f bf 68 6d 88 3f 66 89 51 bf
       -0.23979902 -1.2465649 1.0658388 -0.8185028
0000f0 46 22 9b be 64 59 2c bf 08 ce 1d bf d7 66 68 bf
       -0.30299586 -0.673239 -0.61642504 -0.9078192
000100 70 f3 f8 bc cc 50 97 bf e3 de a0 3f 83 06 82 bf
       -0.030389518 -1.1821532 1.256802 -1.0158237
000110 14 a1 f0 be c7 75 41 bf 7f 80 14 be 78 11 89 3f
       -0.46997893 -0.7557034 -0.14502142 1.0708456
000120 de ce 37 3f b2 cc 04 be 77 89 3c be 14 13 ba 3f
       0.7180003 -0.1296871 -0.18411814 1.4537072
000130 d8 b7 4a be 6c b7 a0 bf 36 93 e3 3f 64 ef 79 bd
       -0.19796693 -1.2555976 1.77793 -0.061019316
000140 e2 44 7c be c0 9f a6 be 8f ad 70 be 0e 22 1a bf
       -0.24635652 -0.32543755 -0.23503707 -0.60208213
000150 42 d9 d5 be 4f bc 2a bf 72 d3 7c bf 4b b9 a2 3f
       -0.41767317 -0.66693586 -0.9876014 1.2712797
000160 32 c3 77 bf 03 b7 05 40 c4 cf ef be 0c 0b 18 bf
       -0.9678222 2.0892951 -0.468382 -0.59391856
000170 60 26 50 bc 76 13 3e be 36 0b 9d 3f a6 62 0b 3f
       -0.012704462 -0.18562111 1.2269046 0.544474
000180 76 c2 98 bf 42 4a 08 3f 45 af 6e bf 52 20 c4 3e
       -1.1934345 0.5323831 -0.9323619 0.38305908
000190 d2 0d 71 bd 00 75 33 bf f6 a1 be 3c 14 ea ab 3f
       -0.05885107 -0.701004 0.023270588 1.343081
0001a0 da 54 e2 be 94 1a 45 bd 37 36 c1 3f 5c 6f 76 bf
       -0.44205362 -0.04812105 1.509467 -0.9626367
0001b0 5b ce f5 3e 17 7e 89 3f 5e 56 92 3f 38 8f 44 3f
       0.48009 1.0741605 1.1432607 0.76781034
0001c0 aa 5f bd be 43 23 d2 3f d4 46 ea be 4e 78 c4 be
       -0.36987048 1.6417011 -0.45757163 -0.38373035
0001d0 eb cc 8b 3f 6e 92 7e 3f 0e 49 8c 3f 01 52 2e bf
       1.0921911 0.99442184 1.0959795 -0.6809388
0001e0 32 73 25 bd a6 ab 17 bf c1 f5 3c 3f 0a f3 0c bf
       -0.040393062 -0.5924629 0.7381249 -0.5505835
0001f0 18 a4 9e bf d9 ce 1e bf ab 61 c3 be 85 bc 81 bf
       -1.2393827 -0.62034374 -0.38160452 -1.0135657
000200 e6 99 61 3f fc d6 1b 3f 80 0b c5 be 8a e1 a3 bd
       0.88125455 0.60874915 -0.38485336 -0.080020025
000210 34 4a 6c be 8f 1b 81 3f 97 ce 1e bf 31 dc 8c 3d
       -0.23075181 1.0086535 -0.6203398 0.06877936
000220 48 4a df bd 88 66 01 be 19 70 4c bf 18 c5 37 bf
       -0.1090284 -0.12636769 -0.7985855 -0.71785116
000230 dd 5f 3e be 5c eb 55 be 9a 40 0c bf 24 fc 42 bf
       -0.18591256 -0.20890564 -0.54786074 -0.76165986

model_1/model/block_6_expand_BN/FusedBatchNormV3 f4 [144]
000000 96 5a 12 3e d4 d5 ec be 1d d5 40 3e 21 80 80 3e
       0.14292368 -0.46256888 0.18831296 0.25097755
000010 63 c5 61 3c 2c a8 15 3d fc cf 10 bf 08 9e 21 be
       0.013779971 0.036537334 -0.5656736 -0.1578294
000020 c0 03 9c bd 6b e6 8a 3e dd 79 ea 3e ed fc a9 3e
       -0.07617903 0.2712892 0.457961 0.3320078
000030 98 ec dc 3e 05 ac 09 bf b4 3a 01 3e 2d 3b 5e 3d
       0.43149257 -0.53778106 0.1262005 0.054255653
000040 d6 01 a2 be dc 25 80 3e 27 d2 7a bd 4c 69 94 3e
       -0.31642026 0.25028884 -0.061235573 0.28986585
000050 2e c3 a6 be 7a 75 03 bf 3d c4 9d 3d 02 d6 29 bf
       -0.32570785 -0.5135113 0.07703445 -0.66342175
000060 b5 0f e0 3d 1b a8 1a bf 40 39 2b be a1 be e1 be
       0.10940496 -0.6041276 -0.16721058 -0.4409075
000070 4f e3 0e bf c1 28 99 be 04 28 1b bf e5 82 f2 be
       -0.55815595 -0.29913905 -0.60607934 -0.4736549
000080 51 49 88 3e 43 f3 df be 25 20 38 bf d1 68 89 be
       0.26618436 -0.4374028 -0.7192405 -0.2683778
000090 ca ef 4d 3e 0a 59 29 be ca 03 ed 3e 32 5f 64 3e
       0.20111004 -0.16537872 0.46291953 0.22301939
0000a0 78 9b 5a 3e 18 58 ca 3e f3 6f 8a 3e 8e ab 4a bc
       0.21348369 0.39520335 0.27038535 -0.012370003
0000b0 3b 37 51 3e d4 69 1b bf f2 72 14 3e 19 87 b8 3e
       0.20431225 -0.60708356 0.14496973 0.3604057
0000c0 80 0e 12 bf a4 f3 6b 3e c0 31 0f bf 38 8c fb bd
       -0.57053375 0.2304216 -0.5593529 -0.12282604
0000d0 68 18 a0 3d 19 92 0d 3e ab 95 4c 3e 86 86 0d bf
       0.07817155 0.13825263 0.19978969 -0.5528339
0000e0 9c 7c b7 be e4 5c e6 3d 53 cc 7e 3e 2a e6 a5 be
       -0.35837257 0.11248186 0.24882631 -0.32402164
0000f0 e8 1a 77 bc 0f fa 91 3e a0 ab 9c 3e c6 18 b4 be
       -0.015082099 0.28511092 0.3059969 -0.3517515
000100 b4 51 a5 3d 9d 30 0a 3e a7 e5 d7 be 42 b5 47 3e
       0.08072224 0.13495107 -0.42167398 0.19502738
000110 78 c8 9d be db 49 aa bd 40 ea fd be 10 e0 0c 3e
       -0.30817008 -0.08314868 -0.4959278 0.13757348
000120 e2 f4 dd 3e 1d 68 18 3f f6 d8 9b 3e 54 c5 2d bf
       0.43350893 0.59533864 0.30438966 -0.67879224
000130 d8 d0 42 3d 35 08 aa bd cc e5 c4 3d c6 99 b9 3e
       0.04756245 -0.083023466 0.09614143 0.36250132
000140 48 0f cf be 5b 9e b2 be 31 81 66 3e 41 58 b0 3e
       -0.40441346 -0.3488644 0.2251022 0.34442332
000150 ca 4a 75 3e c2 3c 7e 3e d4 58 39 be 80 e8 c3 be
       0.23954311 0.24827865 -0.18100291 -0.3826332
000160 dc 99 32 3e 89 f1 e1 be 90 22 65 3d 88 f2 06 3f
       0.17441505 -0.4412959 0.055941164 0.52713823
000170 45 28 55 be ef d8 be be 0c d3 b9 be f3 ff a8 3e
       -0.20816143 -0.37274882 -0.36293828 0.33007774
000180 bb b7 6a 3e 40 a1 04 bf 75 ed 39 3e 9c 56 68 be
       0.2292165 -0.5180855 0.18156989 -0.22689289
000190 bf 79 24 3e cb 2a e3 3e 24 62 89 3c 01 7f c3 be
       0.16062067 0.44368586 0.01677043 -0.38182834
0001a0 f7 4e 85 be 87 dd 33 bd f0 1d c9 3e 80 ee be bd
       -0.26036808 -0.043912437 0.39280653 -0.09322834
0001b0 ab 8d c1 3d 47 c8 78 be 2f f5 d6 be 89 5a f6 be
       0.09450849 -0.2429515 -0.41983935 -0.48115948
0001c0 f7 80 2a bf 60 4c 0d 3f d5 5f 85 bd 5f d0 ac 3e
       -0.66603035 0.55194664 -0.06512419 0.33752725
0001d0 f0 2d b5 3e 6c 9a de bd d0 a2 d2 be 73 4f f5 be
       0.3538661 -0.108692974 -0.4113984 -0.47912177
0001e0 0a d8 19 bd f6 c9 84 3e 9a c2 2b 3d a3 02 86 be
       -0.037559547 0.25935334 0.041933633 -0.26173887
0001f0 df 93 78 3e 58 4b 0b bf 8f bf a0 be 81 4a 9f 3e
       0.24275158 -0.5441184 -0.31396148 0.3111153
000200 7b a7 c1 be 63 7c 0e 3e 07 97 8b be 84 8f 86 be
       -0.3782309 0.13914637 -0.27263662 -0.2628137
000210 27 61 0a 3e 62 d4 ac 3e a4 d1 8a be e3 9b 0b bf
       0.13513623 0.33755785 -0.27113068 -0.5453474
000220 12 2e f3 bd a7 09 8f bd fa be eb be 59 98 a4 be
       -0.118740216 -0.06984263 -0.4604414 -0.32147482
000230 4d 07 ef 3d 85 ab c4 bd b7 25 63 bd 27 3c 95 3e
       0.116713144 -0.09603027 -0.05545589 0.29147455

model_1/batch_normalization/FusedBatchNormV3 f4 [32]
000000 19 ab c0 40 a6 53 6f 40 93 6c 2c 3e ee 24 4f 3e
       6.020886 3.7394805 0.16838293 0.20228931
000010 c3 cd 50 3f 1d cc e1 3f b7 52 9d 3e 20 ec eb 41
       0.8156397 1.7640415 0.3072717 29.490295
000020 d2 8e 22 3f 16 78 09 3e 1c 53 b0 3e 92 30 f9 3f
       0.63499177 0.13424715 0.34438407 1.9467947
000030 8a bb 84 3e ee c1 4c 3f 8b 55 68 41 0f 28 7f 40
       0.2592433 0.79983413 14.5208845 3.98682
000040 bd ff dc 3e 9c 8d c0 3e af c1 b7 3e 84 5a 3c 3e
       0.43163863 0.3760804 0.35889956 0.18393904
000050 73 85 b5 3f 93 71 01 3f d0 e0 97 3e 46 cf b1 40
       1.418135 0.50563926 0.29663706 5.556552
000060 a4 84 c8 3e 41 32 d3 41 d0 b0 7c 3f c7 db f7 3f
       0.39163697 26.399538 0.98707294 1.9363946
000070 0a e9 a5 3e 2f 2a 9f 3f 00 a4 5d 3f 8b 40 50 3f
       0.32404357 1.2434748 0.8657837 0.81348485

model_1/batch_normalization/FusedBatchNormV31 f4 [32]
000000 34 b6 df 3c 0f 46 85 bd 80 67 83 3b 58 b1 cc be
       0.02730856 -0.06507503 0.004010141 -0.39979053
000010 42 dc de be 67 1d 85 be 07 18 d9 bd 86 65 d7 ba
       -0.43527418 -0.25998995 -0.10600286 -0.0016433455
000020 b4 de 10 bd 96 31 83 bf 8d fd 46 be d9 d6 72 be
       -0.035368636 -1.0249507 -0.1943266 -0.2371477
000030 e6 99 42 bf 5c e4 2d 3d 60 93 d0 b9 54 04 9c be
       -0.7601608 0.04245411 -0.00039782654 -0.30472052
000040 08 91 82 be 94 d6 56 bd 8f d1 8e bd 4b 92 49 bf
       -0.25501275 -0.05245073 -0.06973564 -0.7873885
000050 48 b8 eb 3b 3c dc 96 3d a0 35 4c 3d 00 32 a0 3b
       0.007193599 0.07366225 0.04985583 0.004888773
000060 d0 dd b9 bc 3e d5 cd 3b ec 5a 0e be ea 57 79 be
       -0.022688776 0.006281524 -0.13901871 -0.24349943
000070 7a 78 5c be 90 39 50 3c 8e de 99 be 89 b4 b1 be
       -0.21530333 0.0127090365 -0.30052608 -0.3470805

model_1/batch_normalization_1/FusedBatchNormV3 f4 [32]
000000 11 44 50 3f 92 73 8f 3e 3d c8 11 3e e5 f1 83 3f
       0.8135386 0.2801786 0.14236541 1.0308195
000010 1b f2 81 3e 39 2d 77 3f df c6 a1 3e 20 56 0d 3f
       0.25380024 0.9655338 0.3159704 0.5520954
000020 4c 6f bc 3e ef a0 1d 3e 43 c3 84 3e d3 5c 64 3e
       0.36803663 0.15393423 0.25930223 0.22301035
000030 47 b2 e1 3e a3 ef e1 3e cd 2e 64 40 6f b9 8a 3e
       0.44081327 0.4412814 3.5653565 0.270946
000040 91 ed 8b 3e b5 80 a8 3e d1 9e 41 3e 83 79 b6 3f
       0.27329686 0.32910696 0.1890824 1.4255832
000050 45 23 ce 3e 64 b6 04 3f 60 c5 85 40 0c 0a 8a 3e
       0.40261284 0.51840806 4.1803436 0.2696079
000060 9a f2 d2 3e 11 69 af 40 8e 50 60 3e bf 9e a1 3e
       0.41200715 5.4815755 0.21905729 0.31566426
000070 90 3d ca 3f ae 58 4b 3e ad f7 25 3f 12 68 db b8
       1.5800037 0.19858047 0.6483105 -0.000104621184

model_1/batch_normalization_1/FusedBatchNormV31 f4 [32]
000000 67 8a 8e 3e 4c 86 e0 3e 9c 44 b0 be 36 07 fc 3e
       0.27839968 0.4385246 -0.34427345 0.49224252
000010 bb 9e 92 3e 52 80 d0 3e 97 22 26 bf b0 5a de 3e
       0.28636727 0.407229 -0.6489653 0.43428564
000020 21 62 9f 3e 9c 28 10 bf 30 33 eb be bf 41 c7 3d
       0.31129554 -0.56311965 -0.4593749 0.09729337
000030 7c 5d e8 3e bc 85 0d 3e c8 9b c3 3e b8 29 0f bf
       0.45383823 0.13820547 0.3820479 -0.5592303
000040 cd e6 cf 3e d0 69 b9 3e da 82 23 bf 51 b7 94 3c
       0.40605775 0.3621354 -0.6387154 0.018153818
000050 32 2c b5 3e 30 43 0c bf 64 3f 05 3f 26 95 0f bf
       0.3538528 -0.5479002 0.5204985 -0.5608696
000060 60 8a 2b 3e fc 75 9c 3e 8c 7d 89 3e 5a dd 12 bf
       0.16752005 0.30558765 0.26853597 -0.57369006
000070 45 97 0c bf 0c f1 00 bf 40 13 d3 3e 26 37 9c 39
       -0.5491832 -0.5036781 0.41225624 0.00029795727
