src/detection/AI3/model/model_quant.tflite (tflite, 115896 bytes, 26 tensors)

sequential/model/Conv1/Conv2D i1 [24, 3, 3, 3]
0 0 0 0 0 0 0 0
0 0 0 0 0 0 0 0
0 0 0 0 0 0 0 0
0 0 0 66 127 36 22 51
11 0 13 0 49 75 24 -11
-31 5 5 1 -4 5 7 1
9 19 2 -4 -1 2 24 7
-29 66 -3 -61 113 -2 -127 40
4 -48 105 -13 -101 36 0 -40
63 -2 -69 77 -5 -67 -24 0
26 -23 2 21 -98 16 86 -75
4 73 -26 6 21 -127 26 108
-82 7 79 -7 -1 8 -32 7
26 -9 -4 15 0 0 0 0
0 0 0 0 0 0 0 0
0 0 0 0 0 0 0 0
0 0 0 0 0 0 0 -10
-15 -4 -1 -5 -1 -1 -1 -1
75 127 45 -2 -3 1 4 7
3 -56 -93 -36 -3 -5 -4 -5
-9 -2 -31 3 21 -102 -50 -9
-30 7 17 -13 8 3 -127 -46
-36 -18 10 2 -12 9 1 -12
12 -2 -20 23 -4 72 116 44
-2 -6 -5 5 9 0 -71 -127
-37 1 6 3 -5 -5 -4 2
10 -2 -1 -1 -2 1 0 2
71 127 37 18 29 17 -1 -11
2 28 26 10 1 -14 -2 -6
-9 -2 3 9 2 -10 -12 -3
-1 5 0 77 127 31 -2 -7
2 -1 -2 1 -72 -116 -35 0
00000000: 0000 0000 0000 0000 0000 0000 0000 0000
00000010: 0000 0000 0000 0000 0000 0042 7f24 1633
00000020: 0b00 0d00 314b 18f5 e105 0501 fc05 0701
00000030: 0913 02fc ff02 1807 e342 fdc3 71fe 8128
00000040: 04d0 69f3 9b24 00d8 3ffe bb4d fbbd e800
00000050: 1ae9 0215 9e10 56b5 0449 e606 1581 1a6c
00000060: ae07 4ff9 ff08 e007 1af7 fc0f 0000 0000
00000070: 0000 0000 0000 0000 0000 0000 0000 0000
00000080: 0000 0000 0000 00f6 f1fc fffb ffff ffff
00000090: 4b7f 2dfe fd01 0407 03c8 a3dc fdfb fcfb
000000a0: f7fe e103 159a cef7 e207 11f3 0803 81d2
000000b0: dcee 0a02 f409 01f4 0cfe ec17 fc48 742c
000000c0: fefa fb05 0900 b981 db01 0603 fbfb fc02
000000d0: 0afe ffff fe01 0002 477f 2512 1d11 fff5
000000e0: 021c 1a0a 01f2 fefa f7fe 0309 02f6 f4fd
000000f0: ff05 004d 7f1f fef9 02ff fe01 b88c dd00

sequential/model/expanded_conv_depthwise_BN/FusedBatchNormV3;sequential/model/expanded_conv_depthwise/depthwise;sequential/model/block_5_project/Conv2D i1 [1, 3, 3, 24]
127 3 -63 11 15 -3 32 -3
17 1 9 39 -5 -68 30 -5
-4 -16 -47 -7 -34 16 0 21
81 -7 68 -8 -127 127 -10 1
-24 2 -17 -6 15 -40 -35 -30
0 -27 -127 34 21 -7 -4 -20
120 4 -40 -5 -75 -10 -6 -4
7 -1 -51 -18 -4 -52 5 -10
0 54 8 -10 10 -81 0 -1
34 127 38 127 -2 0 127 -7
-31 1 -33 127 52 18 127 -19
127 -127 56 5 -127 -56 -15 127
97 -116 127 -59 -28 1 -21 127
-82 -127 64 -10 127 1 -120 127
1 -97 98 -127 29 -127 127 -55
-6 -6 -7 -2 -71 -2 -14 -20
0 5 -31 -23 -5 -127 -5 -5
0 -67 -3 45 13 -91 -6 -4
87 -8 -60 -83 -83 0 -42 -2
-3 2 -73 -75 -5 5 -15 -5
-19 30 -5 9 75 -69 -1 -86
124 4 -99 24 -41 0 -1 -9
127 2 -22 3 -9 -59 10 -4
-2 -53 19 29 2 -89 0 16
112 2 -55 -1 38 0 0 -3
-5 -1 -127 -2 -1 41 3 -7
0 -125 -3 -5 5 -104 -2 2
00000000: 7f03 c10b 0ffd 20fd 1101 0927 fbbc 1efb
00000010: fcf0 d1f9 de10 0015 51f9 44f8 817f f601
00000020: e802 effa 0fd8 dde2 00e5 8122 15f9 fcec
00000030: 7804 d8fb b5f6 fafc 07ff cdee fccc 05f6
00000040: 0036 08f6 0aaf 00ff 227f 267f fe00 7ff9
00000050: e101 df7f 3412 7fed 7f81 3805 81c8 f17f
00000060: 618c 7fc5 e401 eb7f ae81 40f6 7f01 887f
00000070: 019f 6281 1d81 7fc9 fafa f9fe b9fe f2ec
00000080: 0005 e1e9 fb81 fbfb 00bd fd2d 0da5 fafc
00000090: 57f8 c4ad ad00 d6fe fd02 b7b5 fb05 f1fb
000000a0: ed1e fb09 4bbb ffaa 7c04 9d18 d700 fff7
000000b0: 7f02 ea03 f7c5 0afc fecb 131d 02a7 0010
000000c0: 7002 c9ff 2600 00fd fbff 81fe ff29 03f9
000000d0: 0083 fdfb 0598 fe02

sequential/model/expanded_conv_project/Conv2D i1 [16, 1, 1, 24]
0 -22 -5 -5 0 7 2 -27
-22 127 0 3 7 0 2 1
8 0 5 -42 -8 0 12 -2
0 -4 76 -127 0 0 13 0
21 1 0 -5 -1 0 19 -13
17 0 3 10 6 0 13 8
0 67 -72 -17 0 -28 44 7
-42 6 0 84 1 0 -43 36
-8 0 37 4 -12 0 -8 127
0 -62 18 25 0 107 5 4
-81 -17 0 -2 -4 0 27 17
24 0 127 -7 -8 0 6 12
0 0 -2 -6 0 -14 -2 -127
-9 5 0 -2 -2 0 -1 -12
-3 0 12 -8 0 0 8 1
0 36 -45 -6 0 10 0 -13
-78 -7 0 4 -15 0 127 2
-17 0 -66 -23 3 0 3 3
0 16 -96 -11 0 5 -40 1
-59 7 0 -88 -4 0 -52 -66
-19 0 -17 -21 -18 0 -27 127
0 -127 -61 -80 0 -15 -32 29
-57 -17 0 -13 -4 0 29 -4
15 0 87 23 -10 0 19 -29
0 85 27 -5 0 -12 39 3
-78 7 0 12 -1 0 -50 -27
-21 0 15 -17 56 0 -28 -127
0 2 -3 -1 0 -11 0 6
-31 12 0 -7 127 0 -33 12
2 0 18 95 5 0 -1 -1
0 -16 4 -1 0 -6 -1 -6
-12 50 0 -10 -107 0 25 32
00000000: 00ea fbfb 0007 02e5 ea7f 0003 0700 0201
00000010: 0800 05d6 f800 0cfe 00fc 4c81 0000 0d00
00000020: 1501 00fb ff00 13f3 1100 030a 0600 0d08
00000030: 0043 b8ef 00e4 2c07 d606 0054 0100 d524
00000040: f800 2504 f400 f87f 00c2 1219 006b 0504
00000050: afef 00fe fc00 1b11 1800 7ff9 f800 060c
00000060: 0000 fefa 00f2 fe81 f705 00fe fe00 fff4
00000070: fd00 0cf8 0000 0801 0024 d3fa 000a 00f3
00000080: b2f9 0004 f100 7f02 ef00 bee9 0300 0303
00000090: 0010 a0f5 0005 d801 c507 00a8 fc00 ccbe
000000a0: ed00 efeb ee00 e57f 0081 c3b0 00f1 e01d
000000b0: c7ef 00f3 fc00 1dfc 0f00 5717 f600 13e3
000000c0: 0055 1bfb 00f4 2703 b207 000c ff00 cee5
000000d0: eb00 0fef 3800 e481 0002 fdff 00f5 0006
000000e0: e10c 00f9 7f00 df0c 0200 125f 0500 ffff
000000f0: 00f0 04ff 00fa fffa f432 00f6 9500 1920

sequential/model/block_1_expand/Conv2D i1 [96, 1, 1, 16]
24 11 -3 14 38 127 -15 -14
-7 -46 21 -80 74 -4 -105 -8
17 -127 28 -2 -4 -8 78 8
64 19 4 -30 -58 3 -21 -36
-3 -127 -5 5 -1 10 -8 -21
11 11 14 3 16 -2 -1 -118
46 33 -16 -127 36 36 -33 -18
-55 20 -32 106 -20 -93 -24 -37
27 -2 -12 7 127 12 16 -1
9 -16 14 -39 -24 -8 25 -5
17 -7 5 -95 -32 104 46 -2
21 -83 -127 56 -113 -35 -6 38
6 -21 18 -20 42 13 9 -51
34 -1 -39 7 54 47 -127 33
42 0 -27 15 35 57 14 -33
-11 -54 15 29 -42 127 -16 -6
2 126 4 12 2 -15 17 0
-22 -9 -13 -3 -20 -4 -3 127
-35 -74 84 -83 -12 -79 49 14
98 -90 6 -127 44 87 -22 113
3 127 21 26 2 -16 -5 -14
-32 12 21 3 -28 -11 -13 110
-17 -12 -22 17 2 -8 6 13
-15 -61 93 -127 -53 -32 49 6
-127 -30 45 27 -26 27 4 -6
55 -27 -44 33 19 21 -92 48
63 -22 37 -20 24 -74 33 50
50 -19 50 120 -127 -62 19 19
-47 -51 90 -82 17 -13 -10 -94
96 -18 121 6 127 28 45 106
-13 -10 59 2 -11 0 -75 -13
-27 55 127 13 -16 17 -27 18
00000000: 180b fd0e 267f f1f2 f9d2 15b0 4afc 97f8
00000010: 1181 1cfe fcf8 4e08 4013 04e2 c603 ebdc
00000020: fd81 fb05 ff0a f8eb 0b0b 0e03 10fe ff8a
00000030: 2e21 f081 2424 dfee c914 e06a eca3 e8db
00000040: 1bfe f407 7f0c 10ff 09f0 0ed9 e8f8 19fb
00000050: 11f9 05a1 e068 2efe 15ad 8138 8fdd fa26
00000060: 06eb 12ec 2a0d 09cd 22ff d907 362f 8121
00000070: 2a00 e50f 2339 0edf f5ca 0f1d d67f f0fa
00000080: 027e 040c 02f1 1100 eaf7 f3fd ecfc fd7f
00000090: ddb6 54ad f4b1 310e 62a6 0681 2c57 ea71
000000a0: 037f 151a 02f0 fbf2 e00c 1503 e4f5 f36e
000000b0: eff4 ea11 02f8 060d f1c3 5d81 cbe0 3106
000000c0: 81e2 2d1b e61b 04fa 37e5 d421 1315 a430
000000d0: 3fea 25ec 18b6 2132 32ed 3278 81c2 1313
000000e0: d1cd 5aae 11f3 f6a2 60ee 7906 7f1c 2d6a
000000f0: f3f6 3b02 f500 b5f3 e537 7f0d f011 e512

sequential/model/block_1_depthwise_BN/FusedBatchNormV3;sequential/model/block_1_depthwise/depthwise i1 [1, 3, 3, 96]
-78 -66 103 -33 -69 58 -52 49
-32 28 -76 -44 -34 54 -44 107
5 -4 -37 106 113 -68 -38 -34
83 -57 43 79 127 56 -85 84
-35 -74 -28 53 81 -86 -32 -49
2 -48 -8 -15 -84 -83 -80 84
75 -64 77 -26 -50 32 39 -69
36 -83 -78 53 -13 -90 -60 28
-40 -87 54 68 -40 18 25 41
-73 32 43 111 2 64 -47 -46
-54 54 93 -74 -54 16 -76 -41
-94 -6 1 -47 83 47 65 47
-111 -107 122 -29 -99 -32 -77 61
-20 -51 74 -79 -95 93 82 127
-39 20 -76 127 -99 127 -48 -45
-35 -41 115 3 -65 52 -127 97
-71 -78 -67 89 87 71 -99 -76
66 -67 -63 -31 100 -127 -127 -127
87 -103 105 -111 -83 84 54 -95
91 127 -106 65 -63 -127 -98 70
-74 45 88 121 -97 1 73 3
-97 46 91 113 -80 103 -84 -127
-78 52 117 80 -83 44 -98 -74
69 -71 -69 -81 117 92 91 95
-41 -46 35 -19 -37 -21 -30 22
81 9 -9 -25 -62 38 -26 61
107 -25 -51 58 -46 -59 -15 -4
-43 5 20 -85 -20 -120 -60 33
-41 -26 -54 53 24 6 -76 -42
-68 -26 81 -1 -16 -75 -63 44
26 -51 36 -81 -60 50 17 -37
33 -44 -43 12 -50 -77 -8 23
00000000: b2be 67df bb3a cc31 e01c b4d4 de36 d46b
00000010: 05fc db6a 71bc dade 53c7 2b4f 7f38 ab54
00000020: ddb6 e435 51aa e0cf 02d0 f8f1 acad b054
00000030: 4bc0 4de6 ce20 27bb 24ad b235 f3a6 c41c
00000040: d8a9 3644 d812 1929 b720 2b6f 0240 d1d2
00000050: ca36 5db6 ca10 b4d7 a2fa 01d1 532f 412f
00000060: 9195 7ae3 9de0 b33d eccd 4ab1 a15d 527f
00000070: d914 b47f 9d7f d0d3 ddd7 7303 bf34 8161
00000080: b9b2 bd59 5747 9db4 42bd c1e1 6481 8181
00000090: 5799 6991 ad54 36a1 5b7f 9641 c181 9e46
000000a0: b62d 5879 9f01 4903 9f2e 5b71 b067 ac81
000000b0: b234 7550 ad2c 9eb6 45b9 bbaf 755c 5b5f
000000c0: d7d2 23ed dbeb e216 5109 f7e7 c226 e63d
000000d0: 6be7 cd3a d2c5 f1fc d505 14ab ec88 c421
000000e0: d7e6 ca35 1806 b4d6 bce6 51ff f0b5 c12c
000000f0: 1acd 24af c432 11db 21d4 d50c ceb3 f817

sequential/model/block_1_project/Conv2D i1 [24, 1, 1, 96]
63 -12 37 -45 -77 3 35 -94
41 24 74 -8 -21 -10 51 -9
30 9 -2 -13 -80 27 127 101
37 -3 -1 -30 50 -25 -92 -2
4 -26 12 9 -65 23 -15 -44
31 103 12 -32 46 17 28 13
-111 -6 -27 -41 -32 26 -15 -8
26 36 -22 -3 -25 -44 19 102
53 59 -45 47 0 -19 37 9
-26 9 25 39 23 102 -36 -28
-41 109 -106 56 -2 -53 60 -7
75 26 -12 31 -80 80 -20 14
-5 45 17 -101 -50 -11 3 46
-38 -43 -39 13 -46 37 -29 -10
-16 58 44 6 11 42 1 18
-33 11 58 3 10 -5 54 97
17 -123 -53 -46 -36 10 -9 -101
-49 15 -19 4 -24 0 26 67
54 -10 -5 -2 -94 -28 -53 -69
74 -41 -53 -29 19 45 10 26
-28 -14 36 -9 10 14 -61 -20
52 -2 127 33 0 49 -69 -33
-59 -48 -17 -2 18 -7 9 53
-24 19 14 -11 -41 -94 -54 -23
5 -8 -2 0 12 -5 -6 -3
-1 -4 2 -4 -4 -12 2 -46
3 -3 -1 -7 11 -4 -23 -39
2 1 7 5 -3 -2 11 7
-5 7 0 2 -16 0 3 10
-2 10 2 1 -2 -3 -11 -4
15 -7 20 2 6 2 -20 -2
1 -2 -1 4 -9 4 -4 127
00000000: 3ff4 25d3 b303 23a2 2918 4af8 ebf6 33f7
00000010: 1e09 fef3 b01b 7f65 25fd ffe2 32e7 a4fe
00000020: 04e6 0c09 bf17 f1d4 1f67 0ce0 2e11 1c0d
00000030: 91fa e5d7 e01a f1f8 1a24 eafd e7d4 1366
00000040: 353b d32f 00ed 2509 e609 1927 1766 dce4
00000050: d76d 9638 fecb 3cf9 4b1a f41f b050 ec0e
00000060: fb2d 119b cef5 032e dad5 d90d d225 e3f6
00000070: f03a 2c06 0b2a 0112 df0b 3a03 0afb 3661
00000080: 1185 cbd2 dc0a f79b cf0f ed04 e800 1a43
00000090: 36f6 fbfe a2e4 cbbb 4ad7 cbe3 132d 0a1a
000000a0: e4f2 24f7 0a0e c3ec 34fe 7f21 0031 bbdf
000000b0: c5d0 effe 12f9 0935 e813 0ef5 d7a2 cae9
000000c0: 05f8 fe00 0cfb fafd fffc 02fc fcf4 02d2
000000d0: 03fd fff9 0bfc e9d9 0201 0705 fdfe 0b07
000000e0: fb07 0002 f000 030a fe0a 0201 fefd f5fc
000000f0: 0ff9 1402 0602 ecfe 01fe ff04 f704 fc7f

sequential/model/block_2_expand/Conv2D i1 [144, 1, 1, 24]
-67 27 -127 105 -17 -17 -13 37
-6 -2 40 4 -35 112 18 -13
-83 -24 122 -4 -22 14 -53 -13
-74 14 127 56 -2 -21 57 23
-83 -13 5 13 8 41 -1 22
-104 31 -89 6 13 -18 -60 13
-49 -47 -127 5 97 7 -38 94
10 -89 57 31 51 -13 -25 -10
-40 -20 -2 24 19 43 13 -3
-34 -30 66 13 13 -26 -40 6
-113 -39 13 -78 22 96 -31 -2
-3 25 39 -36 127 43 -1 -2
61 -12 5 45 19 54 -9 -11
65 -111 46 30 -42 127 -33 -13
80 -90 -94 95 32 5 27 -12
35 -26 -27 127 -73 57 3 9
-12 8 -27 -78 33 27 -9 -20
-42 51 -7 -40 -111 -4 -42 -13
-120 -109 -127 -19 -3 38 -68 26
28 -8 68 25 17 39 -28 -23
-87 12 -84 24 93 4 14 -11
-26 6 -127 2 6 24 -42 33
40 43 32 -33 23 -18 38 9
-24 -3 15 0 37 5 6 -13
24 51 22 50 29 6 -3 7
39 5 3 18 -75 -114 -59 -21
18 35 -127 -56 -4 33 -10 -14
5 7 -62 57 -23 -20 -14 48
-53 36 12 -38 1 -89 -44 2
-33 -20 -127 -10 61 -14 -11 2
-13 -92 -24 11 -33 33 -39 -50
127 -8 0 -30 16 0 58 -12
00000000: bd1b 8169 efef f325 fafe 2804 dd70 12f3
00000010: ade8 7afc ea0e cbf3 b60e 7f38 feeb 3917
00000020: adf3 050d 0829 ff16 981f a706 0dee c40d
00000030: cfd1 8105 6107 da5e 0aa7 391f 33f3 e7f6
00000040: d8ec fe18 132b 0dfd dee2 420d 0de6 d806
00000050: 8fd9 0db2 1660 e1fe fd19 27dc 7f2b fffe
00000060: 3df4 052d 1336 f7f5 4191 2e1e d67f dff3
00000070: 50a6 a25f 2005 1bf4 23e6 e57f b739 0309
00000080: f408 e5b2 211b f7ec d633 f9d8 91fc d6f3
00000090: 8893 81ed fd26 bc1a 1cf8 4419 1127 e4e9
000000a0: a90c ac18 5d04 0ef5 e606 8102 0618 d621
000000b0: 282b 20df 17ee 2609 e8fd 0f00 2505 06f3
000000c0: 1833 1632 1d06 fd07 2705 0312 b58e c5eb
000000d0: 1223 81c8 fc21 f6f2 0507 c239 e9ec f230
000000e0: cb24 0cda 01a7 d402 dfec 81f6 3df2 f502
000000f0: f3a4 e80b df21 d9ce 7ff8 00e2 1000 3af4

sequential/model/block_2_depthwise_BN/FusedBatchNormV3;sequential/model/block_2_depthwise/depthwise;sequential/model/block_6_expand/Conv2D i1 [1, 3, 3, 144]
-127 1 3 4 27 24 14 -31
19 -70 -1 -15 -76 24 60 47
-10 -8 19 -3 18 45 29 50
-3 1 -24 38 -6 23 -122 13
-20 0 81 18 35 -43 -17 -7
-44 -1 -67 -7 -27 -115 -36 -62
-6 -17 29 -127 -42 15 -20 -24
127 2 40 22 -32 -17 5 -15
-24 43 70 3 -19 -14 -12 -34
1 24 0 25 -38 41 8 -9
-80 49 -61 55 -7 -127 -3 -6
12 9 3 -127 16 -34 3 -39
-8 58 18 24 27 12 -14 1
-1 12 26 13 -8 -13 9 -18
-54 -83 -27 54 -51 14 -75 3
20 1 7 -1 -11 -17 14 -17
-80 7 -7 -14 -34 -99 -104 10
14 -3 22 10 -9 66 20 64
117 30 57 -1 -26 -33 93 -76
-12 127 -29 38 -127 93 -22 -23
-73 6 -127 -37 103 127 -89 -17
-17 3 85 15 42 -67 15 -9
113 -47 76 -34 -82 100 -37 16
-127 126 9 -86 9 29 -67 45
40 -75 4 64 9 21 92 1
-119 17 -6 -25 54 -59 80 -22
-127 70 -117 -7 -95 49 79 -32
-106 -33 -1 85 21 49 -34 -90
-14 76 80 127 -48 61 -16 -127
120 -10 42 -46 -74 -86 -26 91
12 127 -14 7 127 -127 27 12
-22 101 37 -44 -7 -25 -46 -15
00000000: 8101 0304 1b18 0ee1 13ba fff1 b418 3c2f
00000010: f6f8 13fd 122d 1d32 fd01 e826 fa17 860d
00000020: ec00 5112 23d5 eff9 d4ff bdf9 e58d dcc2
00000030: faef 1d81 d60f ece8 7f02 2816 e0ef 05f1
00000040: e82b 4603 edf2 f4de 0118 0019 da29 08f7
00000050: b031 c337 f981 fdfa 0c09 0381 10de 03d9
00000060: f83a 1218 1b0c f201 ff0c 1a0d f8f3 09ee
00000070: caad e536 cd0e b503 1401 07ff f5ef 0eef
00000080: b007 f9f2 de9d 980a 0efd 160a f742 1440
00000090: 751e 39ff e6df 5db4 f47f e326 815d eae9
000000a0: b706 81db 677f a7ef ef03 550f 2abd 0ff7
000000b0: 71d1 4cde ae64 db10 817e 09aa 091d bd2d
000000c0: 28b5 0440 0915 5c01 8911 fae7 36c5 50ea
000000d0: 8146 8bf9 a131 4fe0 96df ff55 1531 dea6
000000e0: f24c 507f d03d f081 78f6 2ad2 b6aa e65b
000000f0: 0c7f f207 7f81 1b0c ea65 25d4 f9e7 d2f1

sequential/model/block_2_project/Conv2D i1 [24, 1, 1, 144]
16 -66 -28 -9 2 23 13 22
25 23 -42 56 21 -37 -35 36
31 38 8 -27 -13 50 15 -24
39 -87 -34 -30 3 -7 -1 63
13 -105 1 -12 6 11 5 127
-1 24 25 19 -54 34 31 24
9 -51 -9 -29 22 43 -62 52
6 -117 52 -32 40 21 -42 -17
-22 -13 12 87 83 22 -25 6
10 53 52 19 -16 -57 61 3
3 22 9 38 -16 38 -1 25
-26 50 40 -2 22 -21 22 13
21 64 48 -114 -17 50 -70 4
-58 -29 -62 9 54 -44 52 20
14 8 -34 22 33 33 10 21
51 -10 -47 9 -15 -9 14 17
-5 -28 37 24 88 -28 -5 29
-75 61 49 9 -21 11 26 47
-7 25 -17 -4 -33 10 -26 -12
-7 -24 -88 -18 16 47 -6 -9
28 -9 -15 30 33 -6 -16 -21
3 10 -45 5 -17 16 80 -36
-55 -11 -82 -48 -44 -16 -76 -9
-19 5 81 -57 -29 33 -35 -76
14 -14 -14 -82 -75 6 -48 11
3 3 -34 8 -22 -26 -68 -21
2 0 -8 -4 -17 -71 30 43
-10 -19 -16 11 14 -17 -19 -4
-10 -11 -17 10 4 -9 -17 8
18 -6 -2 69 -28 -40 -6 10
-72 5 10 24 12 -8 19 -2
-37 33 24 -17 46 40 -80 45
00000000: 10be e4f7 0217 0d16 1917 d638 15db dd24
00000010: 1f26 08e5 f332 0fe8 27a9 dee2 03f9 ff3f
00000020: 0d97 01f4 060b 057f ff18 1913 ca22 1f18
00000030: 09cd f7e3 162b c234 068b 34e0 2815 d6ef
00000040: eaf3 0c57 5316 e706 0a35 3413 f0c7 3d03
00000050: 0316 0926 f026 ff19 e632 28fe 16eb 160d
00000060: 1540 308e ef32 ba04 c6e3 c209 36d4 3414
00000070: 0e08 de16 2121 0a15 33f6 d109 f1f7 0e11
00000080: fbe4 2518 58e4 fb1d b53d 3109 eb0b 1a2f
00000090: f919 effc df0a e6f4 f9e8 a8ee 102f faf7
000000a0: 1cf7 f11e 21fa f0eb 030a d305 ef10 50dc
000000b0: c9f5 aed0 d4f0 b4f7 ed05 51c7 e321 ddb4
000000c0: 0ef2 f2ae b506 d00b 0303 de08 eae6 bceb
000000d0: 0200 f8fc efb9 1e2b f6ed f00b 0eef edfc
000000e0: f6f5 ef0a 04f7 ef08 12fa fe45 e4d8 fa0a
000000f0: b805 0a18 0cf8 13fe db21 18ef 2e28 b02d

sequential/model/block_3_expand/Conv2D i1 [144, 1, 1, 24]
29 -11 17 -74 14 34 54 -61
18 127 -38 -77 -88 -1 -31 20
29 3 -117 5 -8 84 -92 -9
25 5 -24 30 38 -20 57 -12
14 18 52 6 39 3 -2 17
7 -23 -22 -9 -13 127 -70 15
2 -8 -36 -16 15 -6 64 -36
17 35 33 -18 23 0 -5 2
-13 11 -13 -11 3 127 -78 -9
51 18 -24 4 -127 -36 -17 66
-64 52 -12 -24 13 21 78 -66
-13 36 -16 -87 97 -11 -80 52
81 -1 15 -57 -33 17 -36 19
20 -24 -29 8 -30 2 37 9
-127 7 -9 -16 15 54 28 16
-38 -64 18 -86 29 69 10 -11
26 -57 48 -5 16 -12 -52 24
56 8 13 127 77 -61 98 -18
34 -10 5 -3 20 127 35 9
-5 -10 -1 34 16 0 4 16
-64 -4 8 -5 4 -13 -5 12
20 7 -28 -46 -33 -27 -18 28
47 -7 -34 4 1 16 -31 0
28 1 28 16 127 33 39 -2
-44 57 -7 -57 8 29 -50 -41
21 -21 87 49 -98 -36 37 -47
-44 -127 10 21 30 59 -80 -29
-1 7 36 -47 47 35 -127 -46
45 -30 17 21 51 -7 -59 -13
23 10 40 89 -20 23 3 -40
21 -17 127 -62 11 -22 6 29
-19 -32 15 70 7 48 -36 -21
00000000: 1df5 11b6 0e22 36c3 127f dab3 a8ff e114
00000010: 1d03 8b05 f854 a4f7 1905 e81e 26ec 39f4
00000020: 0e12 3406 2703 fe11 07e9 eaf7 f37f ba0f
00000030: 02f8 dcf0 0ffa 40dc 1123 21ee 1700 fb02
00000040: f30b f3f5 037f b2f7 3312 e804 81dc ef42
00000050: c034 f4e8 0d15 4ebe f324 f0a9 61f5 b034
00000060: 51ff 0fc7 df11 dc13 14e8 e308 e202 2509
00000070: 8107 f7f0 0f36 1c10 dac0 12aa 1d45 0af5
00000080: 1ac7 30fb 10f4 cc18 3808 0d7f 4dc3 62ee
00000090: 22f6 05fd 147f 2309 fbf6 ff22 1000 0410
000000a0: c0fc 08fb 04f3 fb0c 1407 e4d2 dfe5 ee1c
000000b0: 2ff9 de04 0110 e100 1c01 1c10 7f21 27fe
000000c0: d439 f9c7 081d ced7 15eb 5731 9edc 25d1
000000d0: d481 0a15 1e3b b0e3 ff07 24d1 2f23 81d2
000000e0: 2de2 1115 33f9 c5f3 170a 2859 ec17 03d8
000000f0: 15ef 7fc2 0bea 061d ede0 0f46 0730 dceb

sequential/model/block_3_depthwise_BN/FusedBatchNormV3;sequential/model/block_3_depthwise/depthwise;sequential/model/block_6_expand/Conv2D i1 [1, 3, 3, 144]
64 -85 -63 -79 66 58 54 92
88 -54 96 -29 76 65 16 123
-57 -33 -85 -82 -99 -94 73 -103
65 -113 56 57 52 -53 -61 -77
127 69 85 65 60 -115 60 -67
-110 89 -85 63 -66 -55 -71 -96
-59 -71 71 -80 -52 -96 53 -76
-97 -76 122 57 45 116 -75 -33
-81 66 -43 -78 70 -77 -77 48
91 59 -75 -71 65 53 -61 -111
-106 -72 -36 66 -83 69 -95 75
-71 -58 68 -66 77 111 109 59
66 65 -39 59 83 -59 65 79
-101 72 61 -99 -127 -67 -79 84
-28 127 82 73 53 65 -77 91
111 -59 59 81 117 127 63 70
-77 -88 61 51 67 56 61 108
127 85 96 44 69 -74 50 78
82 -101 -97 -106 92 86 79 114
96 127 119 109 93 91 -97 -87
-87 -84 -99 68 36 13 103 -127
95 -1 89 76 76 -91 -95 -104
96 108 127 98 83 -127 74 -101
-115 101 27 77 91 -73 -98 28
-84 -103 93 -100 -66 -127 76 -103
-93 -79 126 78 109 127 -96 -102
-95 91 -58 -101 80 -100 -97 70
111 89 -100 -113 92 84 50 -101
29 -105 86 95 -89 84 34 92
-93 -79 89 -95 -70 127 92 87
94 91 -58 84 106 -86 92 95
-116 79 93 34 -122 -85 -127 127
00000000: 40ab c1b1 423a 365c 58ca 60e3 4c41 107b
00000010: c7df abae 9da2 4999 418f 3839 34cb c3b3
00000020: 7f45 5541 3c8d 3cbd 9259 ab3f bec9 b9a0
00000030: c5b9 47b0 cca0 35b4 9fb4 7a39 2d74 b5df
00000040: af42 d5b2 46b3 b330 5b3b b5b9 4135 c391
00000050: 96b8 dc42 ad45 a14b b9c6 44be 4d6f 6d3b
00000060: 4241 d93b 53c5 414f 9b48 3d9d 81bd b154
00000070: e47f 5249 3541 b35b 6fc5 3b51 757f 3f46
00000080: b3a8 3d33 4338 3d6c 7f55 602c 45b6 324e
00000090: 529b 9f96 5c56 4f72 607f 776d 5d5b 9fa9
000000a0: a9ac 9d44 240d 6781 5fff 594c 4ca5 a198
000000b0: 606c 7f62 5381 4a9b 8d65 1b4d 5bb7 9e1c
000000c0: ac99 5d9c be81 4c99 a3b1 7e4e 6d7f a09a
000000d0: a15b c69b 509c 9f46 6f59 9c8f 5c54 329b
000000e0: 1d97 565f a754 225c a3b1 59a1 ba7f 5c57
000000f0: 5e5b c654 6aaa 5c5f 8c4f 5d22 86ab 817f

sequential/model/block_3_project/Conv2D i1 [24, 1, 1, 144]
-10 13 -6 57 49 -26 -30 67
3 -14 -31 16 59 -23 -58 -3
-19 -26 27 13 47 -76 -20 -25
-45 52 79 9 -35 44 19 -17
12 3 -25 5 69 -70 -25 -5
-29 72 7 -41 11 5 23 22
-29 69 -56 -27 -13 -10 -5 36
45 -105 71 -15 30 -52 21 0
-3 -55 49 81 11 35 -3 19
104 -89 52 -7 -51 -35 30 -28
-47 48 26 -61 -1 50 28 -39
36 -100 -68 23 -5 15 58 -12
-7 -19 5 83 10 -37 5 -63
6 34 -52 20 -8 -15 -1 -17
-66 -3 70 -2 50 -127 21 9
29 82 -88 -2 -5 -14 -9 20
-15 -14 1 61 90 17 -9 51
-28 29 15 -35 9 26 123 -22
-48 -17 -1 -10 -127 43 -2 -25
-27 13 -2 19 6 11 17 25
-13 -2 -4 27 16 23 23 -8
-41 3 73 -19 -5 -55 70 6
-26 15 7 -73 58 -5 -2 21
-31 -21 13 96 23 1 -10 20
34 18 7 19 -13 29 -4 5
34 6 -32 0 33 6 11 -26
-8 -8 20 -6 23 -47 27 -37
-15 15 -5 13 -41 -26 1 -10
18 8 2 18 -36 3 7 4
-1 46 40 16 -2 -6 53 53
47 17 -11 35 36 -29 34 -17
-32 21 -26 14 -38 -52 3 -7
00000000: f60d fa39 31e6 e243 03f2 e110 3be9 c6fd
00000010: ede6 1b0d 2fb4 ece7 d334 4f09 dd2c 13ef
00000020: 0c03 e705 45ba e7fb e348 07d7 0b05 1716
00000030: e345 c8e5 f3f6 fb24 2d97 47f1 1ecc 1500
00000040: fdc9 3151 0b23 fd13 68a7 34f9 cddd 1ee4
00000050: d130 1ac3 ff32 1cd9 249c bc17 fb0f 3af4
00000060: f9ed 0553 0adb 05c1 0622 cc14 f8f1 ffef
00000070: befd 46fe 3281 1509 1d52 a8fe fbf2 f714
00000080: f1f2 013d 5a11 f733 e41d 0fdd 091a 7bea
00000090: d0ef fff6 812b fee7 e50d fe13 060b 1119
000000a0: f3fe fc1b 1017 17f8 d703 49ed fbc9 4606
000000b0: e60f 07b7 3afb fe15 e1eb 0d60 1701 f614
000000c0: 2212 0713 f31d fc05 2206 e000 2106 0be6
000000d0: f8f8 14fa 17d1 1bdb f10f fb0d d7e6 01f6
000000e0: 1208 0212 dc03 0704 ff2e 2810 fefa 3535
000000f0: 2f11 f523 24e3 22ef e015 e60e dacc 03f9

sequential/model/block_4_expand/Conv2D i1 [144, 1, 1, 24]
-42 -54 127 -25 24 -5 9 81
-34 12 -16 -8 74 87 127 12
82 -23 -31 96 -14 -52 125 5
13 -10 52 122 35 52 -25 -34
-77 -99 -41 0 127 71 -27 54
58 12 103 5 -26 -13 66 -23
-7 -18 -46 25 -7 -20 -127 86
16 57 43 -84 94 32 -32 10
42 60 -37 -64 -75 -32 36 -41
3 -12 -52 28 83 21 6 -59
-2 -62 -70 127 35 -28 24 17
-40 -1 -39 -33 30 17 -28 0
-69 -59 -26 -6 18 -44 19 -6
127 22 37 -19 48 -90 113 -8
13 -6 -51 -43 -6 14 75 6
1 -38 -119 -78 45 10 53 23
-67 1 -55 127 -42 -12 14 9
-37 -48 -22 -18 36 -15 64 0
-56 -7 -52 -6 7 58 -67 -11
-45 40 -4 3 59 55 79 -92
-127 28 17 -29 62 62 -28 -9
42 -27 75 36 34 37 -30 -53
-77 44 40 48 112 65 -47 37
-12 13 127 -34 -36 -39 114 -19
53 113 43 -52 34 -41 -127 7
-83 106 -53 -38 88 -24 -6 72
84 -109 32 20 36 14 31 119
125 106 40 -8 11 3 -34 -14
49 -32 -40 25 -120 95 78 -61
59 27 -127 -52 -64 -85 -78 -80
-10 -75 1 -48 74 4 21 37
-127 55 7 53 -107 -5 58 58
00000000: d6ca 7fe7 18fb 0951 de0c f0f8 4a57 7f0c
00000010: 52e9 e160 f2cc 7d05 0df6 347a 2334 e7de
00000020: b39d d700 7f47 e536 3a0c 6705 e6f3 42e9
00000030: f9ee d219 f9ec 8156 1039 2bac 5e20 e00a
00000040: 2a3c dbc0 b5e0 24d7 03f4 cc1c 5315 06c5
00000050: fec2 ba7f 23e4 1811 d8ff d9df 1e11 e400
00000060: bbc5 e6fa 12d4 13fa 7f16 25ed 30a6 71f8
00000070: 0dfa cdd5 fa0e 4b06 01da 89b2 2d0a 3517
00000080: bd01 c97f d6f4 0e09 dbd0 eaee 24f1 4000
00000090: c8f9 ccfa 073a bdf5 d328 fc03 3b37 4fa4
000000a0: 811c 11e3 3e3e e4f7 2ae5 4b24 2225 e2cb
000000b0: b32c 2830 7041 d125 f40d 7fde dcd9 72ed
000000c0: 3571 2bcc 22d7 8107 ad6a cbda 58e8 fa48
000000d0: 5493 2014 240e 1f77 7d6a 28f8 0b03 def2
000000e0: 31e0 d819 885f 4ec3 3b1b 81cc c0ab b2b0
000000f0: f6b5 01d0 4a04 1525 8137 0735 95fb 3a3a

sequential/model/block_4_depthwise_BN/FusedBatchNormV3;sequential/model/block_4_depthwise/depthwise;sequential/model/block_6_expand/Conv2D i1 [1, 3, 3, 144]
-6 -3 46 -11 -3 51 -5 -23
26 44 -12 -48 -37 -18 52 8
-22 -51 -48 -1 5 14 -10 22
-7 -11 14 -10 -9 -58 -1 -29
21 52 -13 -2 -5 -35 -12 8
-18 10 -3 -77 29 0 4 18
62 -71 1 44 -38 0 12 31
41 -5 35 20 -2 25 26 -21
47 -6 -127 -5 17 32 -44 9
-22 5 -18 9 -56 -13 11 -49
9 16 -5 -8 -109 -10 20 12
10 -13 -8 -3 18 2 -69 -8
14 127 2 -28 32 -16 1 4
-11 -23 -49 2 -5 -3 -18 20
-5 28 -67 -23 13 0 -4 -110
15 -4 -29 64 127 -10 18 -4
-29 -62 -35 28 -14 11 3 -14
35 13 127 12 14 -22 37 24
-49 -19 -91 -38 41 127 31 -19
-42 10 -26 0 -60 -31 72 -36
25 -114 -69 3 -12 10 46 -115
-25 -115 -17 111 10 63 -3 -18
11 -52 11 0 -81 16 4 -21
-127 -127 -127 -105 -50 9 28 23
127 -57 -38 48 24 25 -5 -36
108 -47 119 24 127 85 31 127
-127 -6 -76 -33 15 -15 -61 120
-19 -11 -10 -13 65 12 127 19
41 3 -31 18 4 -51 -9 -32
-127 48 -21 83 -1 0 -124 -20
-8 -32 6 -107 -9 -1 79 16
-26 14 -81 -7 0 -4 -35 85
00000000: fafd 2ef5 fd33 fbe9 1a2c f4d0 dbee 3408
00000010: eacd d0ff 050e f616 f9f5 0ef6 f7c6 ffe3
00000020: 1534 f3fe fbdd f408 ee0a fdb3 1d00 0412
00000030: 3eb9 012c da00 0c1f 29fb 2314 fe19 1aeb
00000040: 2ffa 81fb 1120 d409 ea05 ee09 c8f3 0bcf
00000050: 0910 fbf8 93f6 140c 0af3 f8fd 1202 bbf8
00000060: 0e7f 02e4 20f0 0104 f5e9 cf02 fbfd ee14
00000070: fb1c bde9 0d00 fc92 0ffc e340 7ff6 12fc
00000080: e3c2 dd1c f20b 03f2 230d 7f0c 0eea 2518
00000090: cfed a5da 297f 1fed d60a e600 c4e1 48dc
000000a0: 198e bb03 f40a 2e8d e78d ef6f 0a3f fdee
000000b0: 0bcc 0b00 af10 04eb 8181 8197 ce09 1c17
000000c0: 7fc7 da30 1819 fbdc 6cd1 7718 7f55 1f7f
000000d0: 81fa b4df 0ff1 c378 edf5 f6f3 410c 7f13
000000e0: 2903 e112 04cd f7e0 8130 eb53 ff00 84ec
000000f0: f8e0 0695 f7ff 4f10 e60e aff9 00fc dd55

sequential/model/block_4_project/Conv2D i1 [24, 1, 1, 144]
8 27 -10 -7 17 -17 14 -9
24 -19 -33 -2 11 -25 -59 -12
36 -14 38 10 -22 19 -94 -19
-62 -62 18 4 29 9 5 -22
-11 85 29 -17 -24 -10 14 30
-13 -16 -1 28 7 -45 12 -8
-34 46 7 -26 -2 0 26 -16
-12 -40 -21 30 -10 -58 -37 26
-7 11 50 -47 33 19 -4 -9
17 -20 -7 40 -38 37 -41 -11
-18 25 -17 56 3 -47 3 -8
-13 -10 -127 -12 33 26 -44 12
34 -24 3 -4 24 14 -2 16
-4 -15 40 39 52 49 -6 -12
0 19 54 3 -22 -15 29 25
-13 22 -15 -18 31 23 24 -19
-7 7 1 17 38 38 -32 -23
-46 39 -8 -9 -23 35 6 16
27 -19 21 14 40 -26 27 -24
56 -11 -72 31 -1 30 -19 34
-13 42 -5 29 -15 -31 -7 26
24 -36 -13 -14 -1 -44 -14 -55
-59 6 -19 16 -45 -14 43 0
8 8 -42 25 -12 33 -6 -13
1 4 2 9 22 5 -17 -41
-13 12 -28 1 9 38 -79 127
-5 -20 27 43 22 -20 75 2
81 47 -91 13 8 -64 22 -18
5 5 56 -24 -29 -12 19 30
44 -47 -29 -19 -2 -5 0 71
-26 -5 97 -60 -23 6 -23 -27
8 47 6 -41 6 -39 -13 -3
00000000: 081b f6f9 11ef 0ef7 18ed dffe 0be7 c5f4
00000010: 24f2 260a ea13 a2ed c2c2 1204 1d09 05ea
00000020: f555 1def e8f6 0e1e f3f0 ff1c 07d3 0cf8
00000030: de2e 07e6 fe00 1af0 f4d8 eb1e f6c6 db1a
00000040: f90b 32d1 2113 fcf7 11ec f928 da25 d7f5
00000050: ee19 ef38 03d1 03f8 f3f6 81f4 211a d40c
00000060: 22e8 03fc 180e fe10 fcf1 2827 3431 faf4
00000070: 0013 3603 eaf1 1d19 f316 f1ee 1f17 18ed
00000080: f907 0111 2626 e0e9 d227 f8f7 e923 0610
00000090: 1bed 150e 28e6 1be8 38f5 b81f ff1e ed22
000000a0: f32a fb1d f1e1 f91a 18dc f3f2 ffd4 f2c9
000000b0: c506 ed10 d3f2 2b00 0808 d619 f421 faf3
000000c0: 0104 0209 1605 efd7 f30c e401 0926 b17f
000000d0: fbec 1b2b 16ec 4b02 512f a50d 08c0 16ee
000000e0: 0505 38e8 e3f4 131e 2cd1 e3ed fefb 0047
000000f0: e6fb 61c4 e906 e9e5 082f 06d7 06d9 f3fd

sequential/model/block_5_expand/Conv2D i1 [144, 1, 1, 24]
40 -38 -10 127 35 109 14 -12
-62 7 23 6 107 -15 -45 104
-36 10 59 -36 -15 -48 46 37
-12 -55 5 -13 -46 -45 -74 29
127 65 -27 30 41 -13 -70 -73
16 -31 -22 20 -5 -10 -30 -84
-52 -17 -86 -17 32 -42 44 47
-44 29 22 20 -6 32 -43 -40
60 15 6 8 127 15 75 -13
-115 67 -127 16 15 -55 63 -20
-96 25 -31 108 -95 52 70 38
-19 -81 19 48 21 27 104 -109
-52 -42 99 -40 17 -80 -41 -61
127 12 -18 -40 78 20 16 -21
-13 6 -29 -7 14 -62 -25 8
-79 -3 -19 -127 -22 -8 14 -36
82 39 -12 -40 71 23 -28 31
11 -12 -30 -47 15 -4 -5 9
10 -19 28 -33 -4 19 9 -7
-127 -39 -11 27 -14 57 -11 74
1 -42 -53 -19 17 -7 -19 -16
-12 14 14 8 30 16 18 39
-87 -26 -17 -54 -18 42 -52 19
12 46 -16 127 -18 -30 -105 21
2 18 26 127 -7 9 22 53
58 -16 55 13 49 -34 70 -9
45 20 1 2 -10 -19 -5 -15
34 69 21 -28 -121 -8 21 9
-7 -56 -7 47 68 -51 92 -109
66 61 -26 -36 -28 38 127 -89
-69 60 69 127 65 -8 -13 -39
-18 -53 -2 -7 125 37 -6 56
00000000: 28da f67f 236d 0ef4 c207 1706 6bf1 d368
00000010: dc0a 3bdc f1d0 2e25 f4c9 05f3 d2d3 b61d
00000020: 7f41 e51e 29f3 bab7 10e1 ea14 fbf6 e2ac
00000030: ccef aaef 20d6 2c2f d41d 1614 fa20 d5d8
00000040: 3c0f 0608 7f0f 4bf3 8d43 8110 0fc9 3fec
00000050: a019 e16c a134 4626 edaf 1330 151b 6893
00000060: ccd6 63d8 11b0 d7c3 7f0c eed8 4e14 10eb
00000070: f306 e3f9 0ec2 e708 b1fd ed81 eaf8 0edc
00000080: 5227 f4d8 4717 e41f 0bf4 e2d1 0ffc fb09
00000090: 0aed 1cdf fc13 09f9 81d9 f51b f239 f54a
000000a0: 01d6 cbed 11f9 edf0 f40e 0e08 1e10 1227
000000b0: a9e6 efca ee2a cc13 0c2e f07f eee2 9715
000000c0: 0212 1a7f f909 1635 3af0 370d 31de 46f7
000000d0: 2d14 0102 f6ed fbf1 2245 15e4 87f8 1509
000000e0: f9c8 f92f 44cd 5c93 423d e6dc e426 7fa7
000000f0: bb3c 457f 41f8 f3d9 eecb fef9 7d25 fa38

sequential/model/block_5_depthwise_BN/FusedBatchNormV3;sequential/model/block_5_depthwise/depthwise;sequential/model/block_6_expand/Conv2D i1 [1, 3, 3, 144]
-14 78 51 8 -38 -13 -5 6
9 18 8 29 -39 -24 -4 58
12 -31 6 -1 20 58 -89 -87
-33 -24 49 10 -106 -23 127 17
-116 -14 127 -24 -4 10 21 -26
-14 -50 -16 -44 37 -8 -83 31
-1 -56 44 -42 -20 -10 -38 -9
5 -75 -4 -31 11 -4 -18 -1
45 94 -15 51 -111 42 -37 -9
-19 -38 -88 15 12 50 -3 15
-22 7 -77 -21 65 50 60 -96
3 8 -20 34 -4 58 0 4
-13 -127 -3 61 10 -14 13 -20
-127 16 -127 127 47 26 -36 -9
27 7 -7 -94 46 21 -18 -9
79 116 127 13 15 -57 0 3
15 5 -25 -22 -127 61 20 8
-82 -90 -2 63 72 16 15 -35
-67 62 -98 127 127 -21 5 116
16 26 20 -33 65 -64 89 -66
127 -45 -43 -127 -12 127 -127 82
81 -90 49 127 -27 30 -33 42
-107 29 -92 48 4 127 127 11
-24 -52 54 -1 118 -68 -99 100
-37 -112 5 53 127 -61 -127 98
48 39 58 -50 127 89 -8 -51
-34 127 -14 -127 -33 108 -127 30
-13 100 -90 64 113 -48 11 41
-17 25 -80 45 24 119 -17 68
2 -12 -61 127 44 -127 -102 26
-80 -91 22 -47 127 6 41 -62
-38 127 -62 95 103 19 -7 68
00000000: f24e 3308 daf3 fb06 0912 081d d9e8 fc3a
00000010: 0ce1 06ff 143a a7a9 dfe8 310a 96e9 7f11
00000020: 8cf2 7fe8 fc0a 15e6 f2ce f0d4 25f8 ad1f
00000030: ffc8 2cd6 ecf6 daf7 05b5 fce1 0bfc eeff
00000040: 2d5e f133 912a dbf7 edda a80f 0c32 fd0f
00000050: ea07 b3eb 4132 3ca0 0308 ec22 fc3a 0004
00000060: f381 fd3d 0af2 0dec 8110 817f 2f1a dcf7
00000070: 1b07 f9a2 2e15 eef7 4f74 7f0d 0fc7 0003
00000080: 0f05 e7ea 813d 1408 aea6 fe3f 4810 0fdd
00000090: bd3e 9e7f 7feb 0574 101a 14df 41c0 59be
000000a0: 7fd3 d581 f47f 8152 51a6 317f e51e df2a
000000b0: 951d a430 047f 7f0b e8cc 36ff 76bc 9d64
000000c0: db90 0535 7fc3 8162 3027 3ace 7f59 f8cd
000000d0: de7f f281 df6c 811e f364 a640 71d0 0b29
000000e0: ef19 b02d 1877 ef44 02f4 c37f 2c81 9a1a
000000f0: b0a5 16d1 7f06 29c2 da7f c25f 6713 f944

sequential/model/block_5_project/Conv2D i1 [24, 1, 1, 144]
0 -14 16 -63 47 70 54 -6
-27 -5 99 -25 -20 3 1 -5
-38 39 19 34 -127 -33 2 16
5 74 57 -13 -7 53 -12 -59
16 -24 -25 38 -1 34 71 -89
31 -39 34 -2 12 10 -19 37
52 -70 -2 -22 42 -11 -33 20
1 -18 7 -12 2 -18 -41 -24
29 40 -74 29 -28 -7 23 -5
-31 7 58 42 35 -17 36 24
-15 64 35 -42 47 -32 -14 -8
14 -51 75 3 35 -14 0 67
4 -31 22 52 69 -17 -4 7
30 29 2 -3 -22 -24 3 59
16 1 -5 -11 26 12 11 -35
30 32 -42 -45 -54 -3 -14 22
-11 -20 18 36 2 -15 98 19
-4 12 30 -1 11 -16 18 40
-5 -32 -19 49 29 -21 -48 2
-85 36 -16 30 28 -26 31 31
-22 -44 1 72 -44 -9 -61 -58
9 21 -55 30 28 53 17 -12
-27 30 17 -41 -8 42 11 10
-34 58 5 27 14 -5 -43 -27
96 -101 -40 30 -11 -48 56 -23
-51 -20 -63 -16 54 19 -90 -20
-19 127 -8 40 22 -66 50 7
6 14 -23 21 -28 -41 42 -77
23 -25 -10 17 -28 8 20 -30
1 7 -105 -43 -97 5 -15 -7
-21 -5 34 2 -3 -51 -5 -23
-1 16 22 68 -40 -40 -49 -17
00000000: 00f2 10c1 2f46 36fa e5fb 63e7 ec03 01fb
00000010: da27 1322 81df 0210 054a 39f3 f935 f4c5
00000020: 10e8 e726 ff22 47a7 1fd9 22fe 0c0a ed25
00000030: 34ba feea 2af5 df14 01ee 07f4 02ee d7e8
00000040: 1d28 b61d e4f9 17fb e107 3a2a 23ef 2418
00000050: f140 23d6 2fe0 f2f8 0ecd 4b03 23f2 0043
00000060: 04e1 1634 45ef fc07 1e1d 02fd eae8 033b
00000070: 1001 fbf5 1a0c 0bdd 1e20 d6d3 cafd f216
00000080: f5ec 1224 02f1 6213 fc0c 1eff 0bf0 1228
00000090: fbe0 ed31 1deb d002 ab24 f01e 1ce6 1f1f
000000a0: ead4 0148 d4f7 c3c6 0915 c91e 1c35 11f4
000000b0: e51e 11d7 f82a 0b0a de3a 051b 0efb d5e5
000000c0: 609b d81e f5d0 38e9 cdec c1f0 3613 a6ec
000000d0: ed7f f828 16be 3207 060e e915 e4d7 2ab3
000000e0: 17e7 f611 e408 14e2 0107 97d5 9f05 f1f9
000000f0: ebfb 2202 fdcd fbe9 ff10 1644 d8d8 cfef

sequential/model/block_6_expand/Conv2D i1 [144, 1, 1, 24]
-27 6 -21 -12 -56 -8 -34 35
0 43 -28 -127 -1 47 -7 -16
27 28 66 9 -33 6 27 -9
-13 67 -38 -127 -54 -31 29 -18
-85 22 -63 75 7 48 20 -48
-7 -18 2 29 -43 -8 93 -56
-52 -15 49 -18 89 -127 3 -74
58 32 -5 -87 -1 -12 36 74
-59 44 -66 25 62 40 6 -1
19 3 -17 6 -27 -7 7 -16
-16 11 -16 127 -5 -15 11 21
-14 17 -51 -7 22 -2 -11 8
-24 -38 -17 33 19 14 -25 74
52 -48 -127 -25 -33 79 -34 -49
-8 38 21 33 -50 -18 94 53
-81 16 -58 -24 5 1 34 -28
22 65 63 -6 -82 28 -60 80
3 16 -22 44 -2 127 -24 -5
-71 18 -3 -44 -22 -11 -37 33
4 -127 -55 -7 2 82 -3 -11
48 76 36 52 61 -31 71 -52
2 24 -9 -11 6 -41 -23 19
-54 -1 -52 5 38 54 17 -15
1 24 38 -21 -18 -127 35 -12
41 67 30 -127 -13 -14 -7 -22
-62 18 28 59 24 73 35 -4
65 8 -16 -28 -29 -40 75 -55
108 50 61 -95 -16 16 49 22
2 -2 -74 -37 -127 7 63 -71
-6 -45 -95 28 32 76 81 -27
-7 7 -13 -9 -89 -48 11 -23
-81 -104 -35 20 127 23 -47 8
00000000: e506 ebf4 c8f8 de23 002b e481 ff2f f9f0
00000010: 1b1c 4209 df06 1bf7 f343 da81 cae1 1dee
00000020: ab16 c14b 0730 14d0 f9ee 021d d5f8 5dc8
00000030: ccf1 31ee 5981 03b6 3a20 fba9 fff4 244a
00000040: c52c be19 3e28 06ff 1303 ef06 e5f9 07f0
00000050: f00b f07f fbf1 0b15 f211 cdf9 16fe f508
00000060: e8da ef21 130e e74a 34d0 81e7 df4f decf
00000070: f826 1521 ceee 5e35 af10 c6e8 0501 22e4
00000080: 1641 3ffa ae1c c450 0310 ea2c fe7f e8fb
00000090: b912 fdd4 eaf5 db21 0481 c9f9 0252 fdf5
000000a0: 304c 2434 3de1 47cc 0218 f7f5 06d7 e913
000000b0: caff cc05 2636 11f1 0118 26eb ee81 23f4
000000c0: 2943 1e81 f3f2 f9ea c212 1c3b 1849 23fc
000000d0: 4108 f0e4 e3d8 4bc9 6c32 3da1 f010 3116
000000e0: 02fe b6db 8107 3fb9 fad3 a11c 204c 51e5
000000f0: f907 f3f7 a7d0 0be9 af98 dd14 7f17 d108

sequential/conv2d/Conv2D i1 [32, 1, 1, 144]
-16 -15 58 47 -2 33 16 -2
-30 26 -10 -13 -85 -20 10 3
-44 -44 28 18 -35 18 36 -41
16 1 52 15 59 38 -52 1
-122 14 93 12 -84 8 55 -41
27 25 108 21 11 -56 24 -49
31 -18 -28 -18 91 -27 40 43
-26 24 50 14 -51 22 -8 85
58 -58 -18 -8 -18 6 -52 -3
27 -36 53 -15 -39 27 -44 4
-103 47 -6 32 4 38 20 1
39 18 50 14 -16 -22 17 44
-51 -72 -59 -25 49 22 -62 -3
-102 -60 -29 15 -23 61 15 67
40 44 127 6 -27 4 -43 -48
-61 47 -38 -104 -41 -70 54 32
-15 3 12 43 7 -57 -59 -30
-14 -15 -44 34 -4 -52 23 32
74 64 -66 -40 -44 11 34 28
-89 -2 57 13 76 1 -33 -65
-59 47 38 -46 36 -88 -7 58
-3 -32 -34 -11 -39 -109 36 22
24 -31 -40 -21 51 -68 -29 27
48 -1 17 -98 4 -41 -34 30
-93 -21 13 -6 -59 13 -31 12
-16 52 -52 2 43 -28 45 54
-89 26 -31 35 63 2 -85 77
62 34 -93 102 90 7 -22 47
-33 8 -21 -25 -43 10 -43 -12
-27 -35 43 -25 25 44 72 97
18 -48 42 -64 -48 -18 51 42
0 -84 -55 71 -48 42 -46 30
00000000: f0f1 3a2f fe21 10fe e21a f6f3 abec 0a03
00000010: d4d4 1c12 dd12 24d7 1001 340f 3b26 cc01
00000020: 860e 5d0c ac08 37d7 1b19 6c15 0bc8 18cf
00000030: 1fee e4ee 5be5 282b e618 320e cd16 f855
00000040: 3ac6 eef8 ee06 ccfd 1bdc 35f1 d91b d404
00000050: 992f fa20 0426 1401 2712 320e f0ea 112c
00000060: cdb8 c5e7 3116 c2fd 9ac4 e30f e93d 0f43
00000070: 282c 7f06 e504 d5d0 c32f da98 d7ba 3620
00000080: f103 0c2b 07c7 c5e2 f2f1 d422 fccc 1720
00000090: 4a40 bed8 d40b 221c a7fe 390d 4c01 dfbf
000000a0: c52f 26d2 24a8 f93a fde0 def5 d993 2416
000000b0: 18e1 d8eb 33bc e31b 30ff 119e 04d7 de1e
000000c0: a3eb 0dfa c50d e10c f034 cc02 2be4 2d36
000000d0: a71a e123 3f02 ab4d 3e22 a366 5a07 ea2f
000000e0: df08 ebe7 d50a d5f4 e5dd 2be7 192c 4861
000000f0: 12d0 2ac0 d0ee 332a 00ac c947 d02a d21e

sequential/batch_normalization/FusedBatchNormV3 i1 [32] scale=0.12459906 zero_point=-128
3.2395756 1.993585 1.1213915 2.8657784 1.993585 30.900568 4.7347646 1.1213915
0.9967925 3.2395756 0.9967925 29.405378 1.8689859 3.7379718 1.3705897 0.9967925
0.9967925 30.40217 31.149765 1.7443869 0.87219346 31.77276 1.2459906 30.40217
0.87219346 0.9967925 1.2459906 0.6229953 1.1213915 0.87219346 3.1149766 6.2299533
00000000: 9a90 8997 9078 a689 889a 886c 8f9e 8b88
00000010: 8874 7a8e 877f 8a74 8788 8a85 8987 99b2

sequential/batch_normalization/FusedBatchNormV31 i1 [32] scale=0.016669076 zero_point=107
-0.33338153 -0.20002891 -0.3500506 0.0 -0.56674856 -0.28337428 -0.51674134 -1.8502674
-1.100159 -0.58341765 -1.5002168 -0.21669799 -0.7167703 -0.43339598 -0.7334393 -0.7501084
-1.9169438 -0.26670521 0.33338153 -0.36671966 -0.81678474 -0.36671966 -2.0336273 -0.16669077
-3.9172328 -1.533555 -0.26670521 -1.9336128 -0.7001012 -1.1501663 -0.23336706 -0.4167269
00000000: 575f 566b 495a 4cfc 2948 115e 4051 3f3e
00000010: f85b 7f55 3a55 f161 800f 5bf7 4126 5d52

sequential/conv2d_1/Conv2D i1 [32, 1, 1, 32]
68 -90 43 -29 4 18 70 51
41 1 -23 45 33 10 -2 -64
33 123 -69 -51 20 127 40 90
-47 105 -116 7 -62 33 63 16
-103 50 105 7 6 4 -44 47
-12 22 9 42 -14 -23 59 -18
-24 -88 -37 -21 -11 -127 86 -80
64 65 -52 -13 102 -20 -12 -46
-44 47 -109 -73 70 2 47 -14
45 32 72 84 -5 81 -127 -61
-64 17 -83 -64 -70 92 35 93
74 31 14 -99 -13 56 -65 34
87 90 118 -21 -18 42 -43 39
-73 2 -65 67 6 -117 -80 78
3 69 1 105 121 -26 5 -68
-49 -30 -14 97 114 127 76 -10
23 -56 62 -87 34 84 127 49
-27 23 64 26 26 37 -92 11
53 87 30 -15 -40 -17 22 -77
-24 -27 -4 65 -68 21 79 13
-55 53 -73 -11 -1 27 43 50
37 26 35 18 -28 72 -87 -30
26 -8 -127 -1 -1 66 42 -11
45 -34 49 31 -50 19 -63 85
38 -83 -13 -127 88 38 39 89
8 -9 91 -63 35 59 -75 -6
-99 79 -38 -86 -38 45 47 5
-45 -49 -74 -37 -20 55 -49 -6
-3 -11 -51 -49 1 -4 -12 5
68 32 21 -15 63 8 25 -104
61 77 -62 -40 -31 127 69 55
-60 53 -80 66 -80 -31 -47 -8
00000000: 44a6 2be3 0412 4633 2901 e92d 210a fec0
00000010: 217b bbcd 147f 285a d169 8c07 c221 3f10
00000020: 9932 6907 0604 d42f f416 092a f2e9 3bee
00000030: e8a8 dbeb f581 56b0 4041 ccf3 66ec f4d2
00000040: d42f 93b7 4602 2ff2 2d20 4854 fb51 81c3
00000050: c011 adc0 ba5c 235d 4a1f 0e9d f338 bf22
00000060: 575a 76eb ee2a d527 b702 bf43 068b b04e
00000070: 0345 0169 79e6 05bc cfe2 f261 727f 4cf6
00000080: 17c8 3ea9 2254 7f31 e517 401a 1a25 a40b
00000090: 3557 1ef1 d8ef 16b3 e8e5 fc41 bc15 4f0d
000000a0: c935 b7f5 ff1b 2b32 251a 2312 e448 a9e2
000000b0: 1af8 81ff ff42 2af5 2dde 311f ce13 c155
000000c0: 26ad f381 5826 2759 08f7 5bc1 233b b5fa
000000d0: 9d4f daaa da2d 2f05 d3cf b6db ec37 cffa
000000e0: fdf5 cdcf 01fc f405 4420 15f1 3f08 1998
000000f0: 3d4d c2d8 e17f 4537 c435 b042 b0e1 d1f8

sequential/batch_normalization_1/FusedBatchNormV3 i1 [32] scale=0.04939212 zero_point=-128
4.840428 2.2226453 3.704409 0.9878424 1.7781162 2.2720375 4.544075 12.594991
1.7781162 3.753801 1.7287241 3.1117034 3.5562325 3.803193 1.679332 3.9513695
4.988604 3.358664 6.717328 3.2104878 4.939212 3.358664 6.124623 6.8161125
4.0501537 2.469606 5.1861725 1.7781162 4.395899 2.3708217 3.2104878 1.8275084
00000000: e2ad cb94 a4ae dc7f a4cc a3bf c8cd a2d0
00000010: e5c4 08c1 e4c4 fc0a d2b2 e9a4 d9b0 c1a5

sequential/batch_normalization_1/FusedBatchNormV31 i1 [32] scale=0.005169672 zero_point=108
-0.7030754 -0.615191 -0.6565483 -0.09822377 -0.85816556 -0.6875664 -0.78062046 -0.6979057
-0.45493114 -0.6823967 -0.6048516 -0.17059918 -0.9667286 -0.6823967 -1.0546131 -0.77545077
-0.6307 -0.5324762 -0.8891836 -0.74443275 -0.8891836 -0.25331393 -0.7547721 -0.7185844
-0.14475082 -1.0235951 0.09822377 -1.2200426 0.056866392 -0.046527047 -0.72375405 -0.6255303
00000000: e4f5 ed59 c6e7 d5e5 14e8 f74b b1e8 a0d6
00000010: f205 c0dc c03b dae1 50a6 7f80 7763 e0f3

sequential/conv2d_2/Conv2D i1 [1, 1, 1, 32] scale=0.0075437347 zero_point=0
0.70156735 -0.76191723 0.79209214 -0.57332385 0.55823636 0.739286 0.68647987 0.8448983
-0.9429668 0.6336737 -0.73174226 -0.6336737 0.5054302 0.83735454 -0.79209214 0.8147234
0.7694609 -0.9580543 0.6487612 0.6110425 0.5356052 -0.66384864 0.7845484 0.64121747
-0.70156735 0.5356052 -0.74682975 -0.43753663 -0.7241985 -0.6487612 0.8901607 -0.46016783
00000000: 5d9b 69b4 4a62 5b70 8354 9fac 436f 976c
00000010: 6681 5651 47a8 6855 a347 9dc6 a0aa 76c3
