src/detection/AI3/model/model_quant.tflite (tflite, 115152 bytes, 26 tensors)

model_1/model/Conv1/Conv2D i1 [24, 3, 3, 3]
0	0x03	3
1	0xf2	-14
2	0xf4	-12
3	0x08	8
4	0x03	3
5	0xf1	-15
6	0x0e	14
7	0x0b	11
8	0x14	20
9	0x7b	123
10	0x6f	111
11	0x7f	127
12	0x2f	47
13	0x2f	47
14	0x27	39
15	0x05	5
16	0x0a	10
17	0xfe	-2
18	0x0a	10
19	0x0a	10
20	0x11	17
21	0xf5	-11
22	0xf6	-10
23	0x01	1
24	0x02	2
25	0xf2	-14
26	0xf9	-7
27	0xde	-34
28	0xd2	-46
29	0xe1	-31
30	0x05	5
31	0xff	-1
32	0x0a	10
33	0xf9	-7
34	0xe1	-31
35	0x00	0
36	0xd1	-47
37	0xf1	-15
38	0xe3	-29
39	0x5c	92
40	0x71	113
41	0x7f	127
42	0xf2	-14
43	0xe6	-26
44	0xed	-19
45	0xfa	-6
46	0x04	4
47	0x04	4
48	0x3d	61
49	0x47	71
50	0x55	85
51	0x0e	14
52	0xe7	-25
53	0xfe	-2
54	0x04	4
55	0xff	-1
56	0x09	9
57	0xd8	-40
58	0xae	-82
59	0xc8	-56
60	0xed	-19
61	0x02	2
62	0x14	20
63	0x01	1
64	0x14	20
65	0x00	0
66	0xad	-83
67	0xa3	-93
68	0x91	-111
69	0xd1	-47
70	0xe9	-23
71	0xf9	-7
72	0x06	6
73	0x03	3
74	0x09	9
75	0x81	-127
76	0x81	-127
77	0x8e	-114
78	0xcd	-51
79	0xce	-50
80	0xe3	-29
81	0x2b	43
82	0x21	33
83	0x20	32
84	0xd3	-45
85	0xd4	-44
86	0xf4	-12
87	0x1d	29
88	0x17	23
89	0x08	8
90	0x03	3
91	0x2b	43
92	0x14	20
93	0xa1	-95
94	0x81	-127
95	0x9e	-98
96	0x06	6
97	0x0a	10
98	0x02	2
99	0x23	35
100	0x0c	12
101	0x0d	13
102	0xfe	-2
103	0xf4	-12
104	0xdc	-36
105	0x22	34
106	0xf7	-9
107	0x0b	11
108	0x11	17
109	0x0f	15
110	0x38	56
111	0x0b	11
112	0x14	20
113	0x3b	59
114	0x34	52
115	0x39	57
116	0x0e	14
117	0xda	-38
118	0xca	-54
119	0xe0	-32
120	0xdb	-37
121	0xde	-34
122	0xd5	-43
123	0xef	-17
124	0xca	-54
125	0xf5	-11
126	0x81	-127
127	0x89	-119
128	0x9d	-99
129	0xa4	-92
130	0x90	-112
131	0x99	-103
132	0xc4	-60
133	0xd5	-43
134	0xbb	-69
135	0xef	-17
136	0x13	19
137	0x20	32
138	0xb1	-79
139	0xe9	-23
140	0xc8	-56
141	0x8a	-118
142	0x84	-124
143	0x81	-127
144	0x15	21
145	0x47	71
146	0x1a	26
147	0x48	72
148	0x08	8
149	0x14	20
150	0xa4	-92
151	0xac	-84
152	0xc6	-58
153	0x4b	75
154	0x29	41
155	0x60	96
156	0x6e	110
157	0x53	83
158	0x43	67
159	0x4d	77
160	0x05	5
161	0x15	21
162	0x04	4
163	0x23	35
164	0x19	25
165	0x44	68
166	0x32	50
167	0x42	66
168	0x6b	107
169	0x7f	127
170	0x71	113
171	0x0c	12
172	0xda	-38
173	0xfc	-4
174	0x1d	29
175	0x10	16
176	0xea	-22
177	0x28	40
178	0x1d	29
179	0x1e	30
180	0xc7	-57
181	0xb7	-73
182	0xc5	-59
183	0xd7	-41
184	0xe6	-26
185	0xfa	-6
186	0xf6	-10
187	0xda	-38
188	0xe8	-24
189	0x6b	107
190	0x6c	108
191	0x76	118
192	0x78	120
193	0x50	80
194	0x75	117
195	0x35	53
196	0x06	6
197	0x41	65
198	0x7f	127
199	0x6d	109
200	0x61	97
201	0x01	1
202	0x15	21
203	0x38	56
204	0xd7	-41
205	0xdb	-37
206	0xc9	-55
207	0x3a	58
208	0x16	22
209	0x15	21
210	0xed	-19
211	0xe5	-27
212	0xe3	-29
213	0xc6	-58
214	0x00	0
215	0xc6	-58
216	0x8c	-116
217	0x94	-108
218	0x9d	-99
219	0xed	-19
220	0xfb	-5
221	0xe4	-28
222	0x13	19
223	0x13	19
224	0x05	5
225	0x81	-127
226	0x89	-119
227	0x8c	-116
228	0x15	21
229	0xeb	-21
230	0x09	9
231	0xfc	-4
232	0x26	38
233	0x28	40
234	0x06	6
235	0x0c	12
236	0x23	35
237	0x25	37
238	0x01	1
239	0xf7	-9
240	0xf7	-9
241	0xf0	-16
242	0x00	0
243	0xf1	-15
244	0xd5	-43
245	0x0f	15
246	0xe0	-32
247	0x0d	13
248	0x02	2
249	0x07	7
250	0xeb	-21
251	0xe9	-23
252	0x37	55
253	0x20	32
254	0x5a	90
255	0x7f	127

model_1/model/expanded_conv_depthwise_BN/FusedBatchNormV3;model_1/model/expanded_conv_depthwise/depthwise;model_1/model/block_5_project/Conv2D i1 [1, 3, 3, 24]
0	0xe8	-24
1	0xd1	-47
2	0x26	38
3	0x06	6
4	0x7f	127
5	0x03	3
6	0x81	-127
7	0x1e	30
8	0x0f	15
9	0xb2	-78
10	0x16	22
11	0x03	3
12	0xf5	-11
13	0x31	49
14	0x26	38
15	0xfe	-2
16	0x82	-126
17	0xe1	-31
18	0xab	-85
19	0x5c	92
20	0xd9	-39
21	0xe2	-30
22	0x1e	30
23	0xf2	-14
24	0x1f	31
25	0x03	3
26	0xe8	-24
27	0xc1	-63
28	0x62	98
29	0x3a	58
30	0xb5	-75
31	0x02	2
32	0x64	100
33	0xf0	-16
34	0xc1	-63
35	0xd6	-42
36	0x78	120
37	0xca	-54
38	0x34	52
39	0x2e	46
40	0x41	65
41	0xbe	-66
42	0x9f	-97
43	0x7f	127
44	0xa1	-95
45	0xb1	-79
46	0xd5	-43
47	0xf6	-10
48	0xf7	-9
49	0xf6	-10
50	0xfa	-6
51	0x1a	26
52	0x2a	42
53	0xfd	-3
54	0x13	19
55	0xf5	-11
56	0x46	70
57	0x24	36
58	0xeb	-21
59	0xe1	-31
60	0x0f	15
61	0x13	19
62	0xc8	-56
63	0xf8	-8
64	0xf6	-10
65	0xfb	-5
66	0x04	4
67	0xdd	-35
68	0x14	20
69	0x8c	-116
70	0xed	-19
71	0xd4	-44
72	0xf5	-11
73	0xe3	-29
74	0x7f	127
75	0x3f	63
76	0x20	32
77	0x81	-127
78	0x20	32
79	0x7f	127
80	0x01	1
81	0x7f	127
82	0x7f	127
83	0x17	23
84	0x17	23
85	0x81	-127
86	0xb6	-74
87	0x46	70
88	0x81	-127
89	0x1e	30
90	0xe3	-29
91	0xea	-22
92	0xba	-70
93	0x4e	78
94	0xc5	-59
95	0xfb	-5
96	0xd6	-42
97	0x7f	127
98	0xd6	-42
99	0x81	-127
100	0xaf	-81
101	0x0b	11
102	0x06	6
103	0x02	2
104	0x81	-127
105	0x23	35
106	0x0e	14
107	0x07	7
108	0x81	-127
109	0xb7	-73
110	0xb6	-74
111	0x81	-127
112	0x20	32
113	0x7f	127
114	0xa8	-88
115	0x20	32
116	0x14	20
117	0xe2	-30
118	0xa6	-90
119	0x7f	127
120	0x44	68
121	0xdf	-33
122	0x09	9
123	0xff	-1
124	0x8c	-116
125	0x03	3
126	0xe4	-28
127	0xcd	-51
128	0x61	97
129	0xe7	-25
130	0xde	-34
131	0x01	1
132	0x0e	14
133	0x14	20
134	0x07	7
135	0x10	16
136	0xd2	-46
137	0xd4	-44
138	0x5d	93
139	0xfa	-6
140	0x7f	127
141	0xa8	-88
142	0x7f	127
143	0xfd	-3
144	0x2e	46
145	0xf3	-13
146	0x1a	26
147	0x10	16
148	0xde	-34
149	0x41	65
150	0x34	52
151	0x45	69
152	0xfc	-4
153	0xe8	-24
154	0x16	22
155	0x24	36
156	0xdc	-36
157	0xfd	-3
158	0xc7	-57
159	0x09	9
160	0xde	-34
161	0x39	57
162	0xe9	-23
163	0x82	-126
164	0xbb	-69
165	0x7f	127
166	0xfc	-4
167	0xfc	-4
168	0x7f	127
169	0x19	25
170	0xfd	-3
171	0x05	5
172	0xb2	-78
173	0xcc	-52
174	0xff	-1
175	0xb5	-75
176	0xa9	-87
177	0xbf	-65
178	0x19	25
179	0x93	-109
180	0x1d	29
181	0x00	0
182	0x7f	127
183	0x00	0
184	0xec	-20
185	0x07	7
186	0x62	98
187	0xf5	-11
188	0x5d	93
189	0x6a	106
190	0x10	16
191	0xd4	-44
192	0xfd	-3
193	0x11	17
194	0xf3	-13
195	0x2b	43
196	0xf2	-14
197	0x05	5
198	0xc6	-58
199	0xd4	-44
200	0x04	4
201	0xf0	-16
202	0xe7	-25
203	0x81	-127
204	0xdc	-36
205	0x16	22
206	0xdc	-36
207	0xf0	-16
208	0x60	96
209	0xe2	-30
210	0x7f	127
211	0x24	36
212	0x7f	127
213	0x44	68
214	0xfb	-5
215	0x0c	12

model_1/model/expanded_conv_project/Conv2D i1 [16, 1, 1, 24]
0	0x7f	127
1	0x1a	26
2	0xac	-84
3	0xe0	-32
4	0xfe	-2
5	0x05	5
6	0xef	-17
7	0x1d	29
8	0x3a	58
9	0x21	33
10	0xd0	-48
11	0x48	72
12	0xfb	-5
13	0xd5	-43
14	0xc4	-60
15	0xca	-54
16	0xc8	-56
17	0xb7	-73
18	0x8a	-118
19	0xf4	-12
20	0x66	102
21	0x05	5
22	0x55	85
23	0x2b	43
24	0x56	86
25	0x7d	125
26	0x55	85
27	0x7f	127
28	0x1c	28
29	0xd4	-44
30	0x2c	44
31	0xaa	-86
32	0x96	-106
33	0x01	1
34	0xf5	-11
35	0x84	-124
36	0xa0	-96
37	0xb2	-78
38	0x0f	15
39	0x6b	107
40	0x0a	10
41	0x41	65
42	0x2d	45
43	0x05	5
44	0x17	23
45	0xf3	-13
46	0xdc	-36
47	0xbe	-66
48	0xd2	-46
49	0x39	57
50	0x03	3
51	0x21	33
52	0x47	71
53	0x00	0
54	0xed	-19
55	0x81	-127
56	0x07	7
57	0xbd	-67
58	0x14	20
59	0xd1	-47
60	0xf2	-14
61	0x1e	30
62	0xca	-54
63	0xd0	-48
64	0x3c	60
65	0x9c	-100
66	0x71	113
67	0x1e	30
68	0xa7	-89
69	0x32	50
70	0xa3	-93
71	0x37	55
72	0x97	-105
73	0x32	50
74	0x3b	59
75	0x3f	63
76	0xf0	-16
77	0x29	41
78	0xe0	-32
79	0xe3	-29
80	0x15	21
81	0xf7	-9
82	0x2e	46
83	0xc8	-56
84	0x91	-111
85	0xbe	-66
86	0xde	-34
87	0x81	-127
88	0x23	35
89	0x4b	75
90	0xf7	-9
91	0x30	48
92	0xbd	-67
93	0x37	55
94	0x51	81
95	0xa1	-95
96	0x10	16
97	0xb0	-80
98	0xf3	-13
99	0x81	-127
100	0x9d	-99
101	0xee	-18
102	0x31	49
103	0x18	24
104	0x8f	-113
105	0x07	7
106	0xe8	-24
107	0xb5	-75
108	0x19	25
109	0x20	32
110	0xc8	-56
111	0xfb	-5
112	0xfb	-5
113	0x3f	63
114	0xf5	-11
115	0xe1	-31
116	0xf2	-14
117	0x40	64
118	0x1f	31
119	0xa7	-89
120	0x29	41
121	0xef	-17
122	0x51	81
123	0xdd	-35
124	0x0c	12
125	0xc6	-58
126	0xa9	-87
127	0x19	25
128	0xe3	-29
129	0xcb	-53
130	0x22	34
131	0x07	7
132	0xe7	-25
133	0x23	35
134	0xe8	-24
135	0x7f	127
136	0x37	55
137	0xce	-50
138	0x11	17
139	0xea	-22
140	0xc9	-55
141	0xbd	-67
142	0xb1	-79
143	0xc7	-57
144	0xb7	-73
145	0xfe	-2
146	0x6b	107
147	0x19	25
148	0x3e	62
149	0x1b	27
150	0x22	34
151	0xce	-50
152	0xe8	-24
153	0xf5	-11
154	0xba	-70
155	0xed	-19
156	0xc0	-64
157	0xf7	-9
158	0xda	-38
159	0xf1	-15
160	0x5d	93
161	0x97	-105
162	0x9a	-102
163	0xb7	-73
164	0xb9	-71
165	0x96	-106
166	0x04	4
167	0x81	-127
168	0x4a	74
169	0x5b	91
170	0x2d	45
171	0x27	39
172	0xc3	-61
173	0xe8	-24
174	0xcd	-51
175	0xad	-83
176	0x10	16
177	0xf3	-13
178	0x30	48
179	0x08	8
180	0x05	5
181	0x02	2
182	0x03	3
183	0x81	-127
184	0xfd	-3
185	0xcd	-51
186	0xe2	-30
187	0x4f	79
188	0xad	-83
189	0xc9	-55
190	0xae	-82
191	0xb9	-71
192	0xff	-1
193	0xd6	-42
194	0xc8	-56
195	0xb7	-73
196	0x3b	59
197	0xce	-50
198	0x3a	58
199	0x1a	26
200	0x66	102
201	0x4b	75
202	0xd4	-44
203	0x03	3
204	0xbd	-67
205	0x14	20
206	0xe0	-32
207	0x55	85
208	0xfa	-6
209	0x5c	92
210	0x7f	127
211	0x26	38
212	0x96	-106
213	0xe7	-25
214	0x46	70
215	0xf0	-16
216	0x44	68
217	0xff	-1
218	0xb6	-74
219	0xf0	-16
220	0x22	34
221	0xaa	-86
222	0xc6	-58
223	0x09	9
224	0x3d	61
225	0xea	-22
226	0x27	39
227	0xe2	-30
228	0xf8	-8
229	0xc9	-55
230	0xf2	-14
231	0x93	-109
232	0xb0	-80
233	0xe9	-23
234	0x7f	127
235	0xcc	-52
236	0xf4	-12
237	0xc7	-57
238	0xfc	-4
239	0xd9	-39
240	0x13	19
241	0xcc	-52
242	0x2e	46
243	0xe0	-32
244	0x3a	58
245	0xa8	-88
246	0xf0	-16
247	0x0b	11
248	0xeb	-21
249	0x1c	28
250	0xe9	-23
251	0x15	21
252	0x7f	127
253	0x10	16
254	0x18	24
255	0xe7	-25

model_1/model/block_1_expand/Conv2D i1 [96, 1, 1, 16]
0	0xe7	-25
1	0x0e	14
2	0x47	71
3	0x19	25
4	0x29	41
5	0x49	73
6	0x2a	42
7	0x26	38
8	0x2c	44
9	0xe6	-26
10	0xdf	-33
11	0xfd	-3
12	0xf8	-8
13	0x81	-127
14	0x12	18
15	0xde	-34
16	0xf9	-7
17	0xed	-19
18	0x12	18
19	0xf3	-13
20	0xfc	-4
21	0x07	7
22	0xfe	-2
23	0x16	22
24	0xc8	-56
25	0x11	17
26	0x7f	127
27	0xd7	-41
28	0x1f	31
29	0xea	-22
30	0x09	9
31	0xfa	-6
32	0x7f	127
33	0x63	99
34	0xdd	-35
35	0xb4	-76
36	0x17	23
37	0x00	0
38	0xef	-17
39	0x6f	111
40	0x00	0
41	0x21	33
42	0xff	-1
43	0x21	33
44	0x13	19
45	0x08	8
46	0x14	20
47	0x03	3
48	0x0e	14
49	0xf5	-11
50	0xeb	-21
51	0xeb	-21
52	0x7f	127
53	0xd0	-48
54	0x60	96
55	0xa7	-89
56	0xaa	-86
57	0x8f	-113
58	0xf3	-13
59	0x0f	15
60	0xd4	-44
61	0x2a	42
62	0x90	-112
63	0xff	-1
64	0xc0	-64
65	0x11	17
66	0x33	51
67	0x22	34
68	0xcb	-53
69	0x7f	127
70	0x11	17
71	0x0f	15
72	0x16	22
73	0xf2	-14
74	0x3a	58
75	0xec	-20
76	0x31	49
77	0x4f	79
78	0x53	83
79	0x64	100
80	0xea	-22
81	0x9d	-99
82	0x2c	44
83	0x1d	29
84	0xe6	-26
85	0x78	120
86	0x4d	77
87	0x09	9
88	0x4d	77
89	0x5c	92
90	0x3c	60
91	0xb3	-77
92	0x68	104
93	0x7f	127
94	0xb7	-73
95	0xdd	-35
96	0xff	-1
97	0xd5	-43
98	0x31	49
99	0xbb	-69
100	0xc7	-57
101	0xd6	-42
102	0xd7	-41
103	0xd0	-48
104	0x2d	45
105	0xef	-17
106	0x7f	127
107	0xab	-85
108	0x7a	122
109	0x5a	90
110	0x2e	46
111	0x51	81
112	0x18	24
113	0x87	-121
114	0x34	52
115	0xdd	-35
116	0xf6	-10
117	0xaa	-86
118	0x19	25
119	0x65	101
120	0xd5	-43
121	0x07	7
122	0x49	73
123	0xda	-38
124	0x53	83
125	0xd9	-39
126	0x7f	127
127	0xcf	-49
128	0x22	34
129	0xd4	-44
130	0x81	-127
131	0xe0	-32
132	0x6c	108
133	0xfb	-5
134	0x2e	46
135	0xd4	-44
136	0x0a	10
137	0xac	-84
138	0xfb	-5
139	0xf4	-12
140	0xff	-1
141	0xd5	-43
142	0xfb	-5
143	0xec	-20
144	0xcb	-53
145	0x15	21
146	0xfc	-4
147	0x28	40
148	0xeb	-21
149	0xcf	-49
150	0x81	-127
151	0xf1	-15
152	0x0c	12
153	0xe5	-27
154	0xf8	-8
155	0xdb	-37
156	0x0d	13
157	0xeb	-21
158	0x3b	59
159	0x4a	74
160	0xfe	-2
161	0x4f	79
162	0xcd	-51
163	0xe4	-28
164	0x04	4
165	0x3b	59
166	0x33	51
167	0x15	21
168	0xf6	-10
169	0x81	-127
170	0xf6	-10
171	0x17	23
172	0xe4	-28
173	0x01	1
174	0xea	-22
175	0xea	-22
176	0xa9	-87
177	0x7f	127
178	0x64	100
179	0x3c	60
180	0x93	-109
181	0x32	50
182	0x3d	61
183	0x51	81
184	0xc0	-64
185	0x8b	-117
186	0xcf	-49
187	0x36	54
188	0xc1	-63
189	0xcb	-53
190	0x51	81
191	0xc6	-58
192	0x2a	42
193	0xfb	-5
194	0xa4	-92
195	0xe9	-23
196	0xf4	-12
197	0x8f	-113
198	0xcc	-52
199	0x05	5
200	0xdf	-33
201	0xc5	-59
202	0xf4	-12
203	0x81	-127
204	0xd4	-44
205	0xde	-34
206	0xb2	-78
207	0x51	81
208	0x15	21
209	0x6c	108
210	0x9d	-99
211	0x7f	127
212	0xf2	-14
213	0xdb	-37
214	0x35	53
215	0xa0	-96
216	0x61	97
217	0xf9	-7
218	0xb8	-72
219	0xf4	-12
220	0x4e	78
221	0xef	-17
222	0x0e	14
223	0x73	115
224	0xfb	-5
225	0x13	19
226	0x04	4
227	0x11	17
228	0x03	3
229	0x78	120
230	0x7f	127
231	0x0c	12
232	0xb7	-73
233	0xf3	-13
234	0xe2	-30
235	0x59	89
236	0xa8	-88
237	0x57	87
238	0x11	17
239	0x23	35
240	0x53	83
241	0x2d	45
242	0xaa	-86
243	0xfe	-2
244	0xb1	-79
245	0xb7	-73
246	0x81	-127
247	0xe4	-28
248	0xcd	-51
249	0xad	-83
250	0x09	9
251	0x32	50
252	0x05	5
253	0xe0	-32
254	0x0e	14
255	0xfe	-2

model_1/model/block_1_depthwise_BN/FusedBatchNormV3;model_1/model/block_1_depthwise/depthwise i1 [1, 3, 3, 96]
0	0xd4	-44
1	0xcc	-52
2	0x5e	94
3	0xbf	-65
4	0x98	-104
5	0x6b	107
6	0x4d	77
7	0xd1	-47
8	0xea	-22
9	0xc5	-59
10	0x11	17
11	0x08	8
12	0xdc	-36
13	0x7f	127
14	0x6c	108
15	0x3f	63
16	0x29	41
17	0xaa	-86
18	0xb1	-79
19	0xb4	-76
20	0xe4	-28
21	0x81	-127
22	0xc7	-57
23	0xc7	-57
24	0xbc	-68
25	0x70	112
26	0x99	-103
27	0xcf	-49
28	0xe4	-28
29	0x07	7
30	0x48	72
31	0xfc	-4
32	0x9e	-98
33	0xfa	-6
34	0xed	-19
35	0xeb	-21
36	0xd6	-42
37	0x38	56
38	0xd6	-42
39	0x31	49
40	0x25	37
41	0x76	118
42	0xba	-70
43	0x14	20
44	0xa6	-90
45	0x12	18
46	0xdf	-33
47	0x3a	58
48	0xc0	-64
49	0x02	2
50	0x0f	15
51	0xaf	-81
52	0x41	65
53	0x44	68
54	0xe5	-27
55	0xeb	-21
56	0x4b	75
57	0xc2	-62
58	0xea	-22
59	0xb0	-80
60	0x01	1
61	0xde	-34
62	0x81	-127
63	0xff	-1
64	0x2a	42
65	0x32	50
66	0xba	-70
67	0xe2	-30
68	0x30	48
69	0x0a	10
70	0xa6	-90
71	0xc9	-55
72	0x7f	127
73	0x0b	11
74	0x3a	58
75	0x2c	44
76	0x81	-127
77	0xe0	-32
78	0x50	80
79	0x34	52
80	0xe6	-26
81	0xd5	-43
82	0x81	-127
83	0xc8	-56
84	0x2f	47
85	0x07	7
86	0xe6	-26
87	0xb1	-79
88	0x2b	43
89	0x43	67
90	0x1f	31
91	0x2e	46
92	0xf3	-13
93	0xd4	-44
94	0xb0	-80
95	0xc0	-64
96	0x27	39
97	0xe9	-23
98	0x00	0
99	0xab	-85
100	0x0a	10
101	0x44	68
102	0x21	33
103	0x62	98
104	0xba	-70
105	0xea	-22
106	0xc4	-60
107	0x28	40
108	0x81	-127
109	0xa8	-88
110	0x7f	127
111	0x61	97
112	0xd6	-42
113	0xd5	-43
114	0xa3	-93
115	0xe5	-27
116	0x30	48
117	0xe1	-31
118	0xdb	-37
119	0x7f	127
120	0x8e	-114
121	0xa3	-93
122	0x04	4
123	0xbe	-66
124	0x7f	127
125	0x3e	62
126	0x44	68
127	0x4d	77
128	0x09	9
129	0xd7	-41
130	0x23	35
131	0x52	82
132	0x45	69
133	0x77	119
134	0x9f	-97
135	0x39	57
136	0x3d	61
137	0x1c	28
138	0x96	-106
139	0xb7	-73
140	0x28	40
141	0xc7	-57
142	0xcc	-52
143	0x01	1
144	0x81	-127
145	0xa3	-93
146	0x6a	106
147	0x48	72
148	0x09	9
149	0xb6	-74
150	0x95	-107
151	0xa9	-87
152	0x79	121
153	0xd6	-42
154	0x25	37
155	0x22	34
156	0x74	116
157	0x4a	74
158	0xb3	-77
159	0x23	35
160	0x7f	127
161	0xe3	-29
162	0x96	-106
163	0xd0	-48
164	0x42	66
165	0xf6	-10
166	0xad	-83
167	0xe6	-26
168	0x2a	42
169	0x71	113
170	0xf8	-8
171	0xe7	-25
172	0xce	-50
173	0xf1	-15
174	0x32	50
175	0x1a	26
176	0x32	50
177	0xb5	-75
178	0x07	7
179	0xec	-20
180	0x35	53
181	0xe7	-25
182	0x81	-127
183	0x5d	93
184	0x07	7
185	0xb8	-72
186	0xe3	-29
187	0x33	51
188	0x3e	62
189	0xb6	-74
190	0x8e	-114
191	0xe3	-29
192	0x7f	127
193	0xee	-18
194	0x61	97
195	0xcc	-52
196	0x7f	127
197	0x17	23
198	0xfc	-4
199	0xb5	-75
200	0xf8	-8
201	0x18	24
202	0x0a	10
203	0xf9	-7
204	0x01	1
205	0xd7	-41
206	0x54	84
207	0x42	66
208	0x08	8
209	0xd9	-39
210	0xb8	-72
211	0xcc	-52
212	0xf4	-12
213	0x57	87
214	0x16	22
215	0x97	-105
216	0x9e	-98
217	0x0b	11
218	0x12	18
219	0x06	6
220	0xb3	-77
221	0x2f	47
222	0x4c	76
223	0x6d	109
224	0x29	41
225	0xd5	-43
226	0x28	40
227	0x22	34
228	0x75	117
229	0x15	21
230	0x81	-127
231	0xe2	-30
232	0xbf	-65
233	0x1b	27
234	0xb6	-74
235	0x94	-108
236	0x5f	95
237	0xba	-70
238	0x1b	27
239	0xbc	-68
240	0xa9	-87
241	0xd2	-46
242	0xff	-1
243	0x0f	15
244	0xc0	-64
245	0xe6	-26
246	0x39	57
247	0x19	25
248	0x35	53
249	0x4f	79
250	0x22	34
251	0x43	67
252	0x7e	126
253	0x7f	127
254	0xe8	-24
255	0x7f	127

model_1/model/block_1_project/Conv2D i1 [24, 1, 1, 96]
0	0x23	35
1	0xbf	-65
2	0x92	-110
3	0x8e	-114
4	0xc3	-61
5	0x1c	28
6	0x26	38
7	0xd6	-42
8	0xe3	-29
9	0xbc	-68
10	0xf8	-8
11	0xf0	-16
12	0x3f	63
13	0xed	-19
14	0xd1	-47
15	0xe3	-29
16	0xd7	-41
17	0xdb	-37
18	0xdd	-35
19	0x00	0
20	0xe7	-25
21	0xda	-38
22	0xe9	-23
23	0x44	68
24	0xcf	-49
25	0xb3	-77
26	0xba	-70
27	0x35	53
28	0x25	37
29	0x2b	43
30	0xe2	-30
31	0xa6	-90
32	0xb9	-71
33	0xd3	-45
34	0x08	8
35	0x31	49
36	0xf2	-14
37	0xda	-38
38	0xb9	-71
39	0xc8	-56
40	0xfd	-3
41	0xfe	-2
42	0x12	18
43	0xee	-18
44	0x2c	44
45	0x08	8
46	0xae	-82
47	0xc3	-61
48	0x60	96
49	0xe2	-30
50	0x04	4
51	0xed	-19
52	0x27	39
53	0x3a	58
54	0xe6	-26
55	0xd7	-41
56	0x55	85
57	0x94	-108
58	0xdb	-37
59	0x04	4
60	0xbf	-65
61	0xd9	-39
62	0xcd	-51
63	0x1f	31
64	0x08	8
65	0xee	-18
66	0xf3	-13
67	0x42	66
68	0x81	-127
69	0xf5	-11
70	0x03	3
71	0x06	6
72	0x07	7
73	0xf3	-13
74	0x19	25
75	0xb2	-78
76	0x21	33
77	0x76	118
78	0xaf	-81
79	0x1f	31
80	0x08	8
81	0xe1	-31
82	0xc3	-61
83	0x97	-105
84	0xda	-38
85	0x16	22
86	0x49	73
87	0x25	37
88	0x52	82
89	0x00	0
90	0x18	24
91	0xe7	-25
92	0xef	-17
93	0x19	25
94	0xed	-19
95	0xea	-22
96	0xeb	-21
97	0x13	19
98	0x1c	28
99	0xd3	-45
100	0x03	3
101	0x04	4
102	0xbc	-68
103	0x02	2
104	0x99	-103
105	0x09	9
106	0xe1	-31
107	0xe6	-26
108	0xc7	-57
109	0xcc	-52
110	0xe9	-23
111	0x22	34
112	0x81	-127
113	0x14	20
114	0x12	18
115	0x05	5
116	0xfb	-5
117	0xb2	-78
118	0xd3	-45
119	0xc9	-55
120	0x48	72
121	0xd7	-41
122	0xb9	-71
123	0x20	32
124	0xcf	-49
125	0xa6	-90
126	0x1a	26
127	0xed	-19
128	0xb3	-77
129	0x11	17
130	0x24	36
131	0xba	-70
132	0xd8	-40
133	0x40	64
134	0xf4	-12
135	0xd0	-48
136	0xf4	-12
137	0x23	35
138	0x46	70
139	0x1b	27
140	0x00	0
141	0x93	-109
142	0x32	50
143	0x2f	47
144	0xfa	-6
145	0xd8	-40
146	0xc7	-57
147	0x82	-126
148	0xda	-38
149	0xce	-50
150	0x0e	14
151	0x22	34
152	0xd1	-47
153	0xa6	-90
154	0xe1	-31
155	0xc2	-62
156	0xf6	-10
157	0x4f	79
158	0xdd	-35
159	0x19	25
160	0x15	21
161	0xc5	-59
162	0x0a	10
163	0xce	-50
164	0x06	6
165	0x16	22
166	0x2a	42
167	0xbd	-67
168	0xf3	-13
169	0x0e	14
170	0xcc	-52
171	0xeb	-21
172	0xf8	-8
173	0x02	2
174	0x2a	42
175	0xa4	-92
176	0x37	55
177	0x0a	10
178	0xfe	-2
179	0xad	-83
180	0x2c	44
181	0x2c	44
182	0x44	68
183	0x00	0
184	0x17	23
185	0xdb	-37
186	0xd7	-41
187	0xf7	-9
188	0x05	5
189	0xe1	-31
190	0x1f	31
191	0x0f	15
192	0xc8	-56
193	0x3e	62
194	0x2c	44
195	0x19	25
196	0xf1	-15
197	0xfe	-2
198	0xb9	-71
199	0x2e	46
200	0xbe	-66
201	0x06	6
202	0x34	52
203	0x67	103
204	0xd6	-42
205	0x16	22
206	0x07	7
207	0xe1	-31
208	0x1e	30
209	0x9e	-98
210	0x0a	10
211	0x1d	29
212	0x08	8
213	0xdc	-36
214	0xfe	-2
215	0x0e	14
216	0x68	104
217	0x3e	62
218	0xe6	-26
219	0xf4	-12
220	0xff	-1
221	0x06	6
222	0xed	-19
223	0xde	-34
224	0xfc	-4
225	0xef	-17
226	0xf6	-10
227	0x3f	63
228	0x43	67
229	0x27	39
230	0x26	38
231	0xd1	-47
232	0xfb	-5
233	0xcb	-53
234	0x49	73
235	0x5f	95
236	0xef	-17
237	0xcb	-53
238	0x7f	127
239	0x28	40
240	0xf3	-13
241	0xd8	-40
242	0x1e	30
243	0x02	2
244	0xe7	-25
245	0xf5	-11
246	0x18	24
247	0xf8	-8
248	0x3d	61
249	0x15	21
250	0xe1	-31
251	0xde	-34
252	0xd5	-43
253	0xf3	-13
254	0xe3	-29
255	0xdc	-36

model_1/model/block_2_expand/Conv2D i1 [144, 1, 1, 24]
0	0x7f	127
1	0x4c	76
2	0x2d	45
3	0xd3	-45
4	0xe0	-32
5	0xfb	-5
6	0x0f	15
7	0xac	-84
8	0xb8	-72
9	0x3a	58
10	0x13	19
11	0x1c	28
12	0xea	-22
13	0x05	5
14	0x1f	31
15	0x39	57
16	0xe9	-23
17	0x0b	11
18	0x03	3
19	0x2f	47
20	0xdb	-37
21	0xf4	-12
22	0x10	16
23	0xff	-1
24	0x2f	47
25	0x47	71
26	0x06	6
27	0x27	39
28	0x6f	111
29	0xda	-38
30	0x7f	127
31	0xfb	-5
32	0xa0	-96
33	0x4a	74
34	0x15	21
35	0x47	71
36	0xf7	-9
37	0x27	39
38	0xf7	-9
39	0x07	7
40	0x0c	12
41	0x20	32
42	0xfc	-4
43	0xfa	-6
44	0xef	-17
45	0xfb	-5
46	0x2d	45
47	0x20	32
48	0x5c	92
49	0xd9	-39
50	0xc0	-64
51	0x44	68
52	0xe0	-32
53	0xe7	-25
54	0x3c	60
55	0x32	50
56	0x22	34
57	0xbf	-65
58	0x19	25
59	0x2e	46
60	0xef	-17
61	0x23	35
62	0xd2	-46
63	0xe9	-23
64	0xb8	-72
65	0x7f	127
66	0xdd	-35
67	0x52	82
68	0xdc	-36
69	0x1f	31
70	0x4c	76
71	0x08	8
72	0x5d	93
73	0x34	52
74	0xfd	-3
75	0xf2	-14
76	0x03	3
77	0x02	2
78	0x14	20
79	0xca	-54
80	0x0f	15
81	0x22	34
82	0xc1	-63
83	0x2e	46
84	0xd5	-43
85	0x25	37
86	0x35	53
87	0x38	56
88	0x4a	74
89	0x3c	60
90	0x81	-127
91	0xdc	-36
92	0xd9	-39
93	0x34	52
94	0x48	72
95	0x15	21
96	0x28	40
97	0x7f	127
98	0xc7	-57
99	0xbf	-65
100	0x11	17
101	0x10	16
102	0xe8	-24
103	0xf6	-10
104	0x14	20
105	0x11	17
106	0xfd	-3
107	0x39	57
108	0xe0	-32
109	0x00	0
110	0x20	32
111	0x2c	44
112	0x00	0
113	0x02	2
114	0xd5	-43
115	0x27	39
116	0x28	40
117	0x2f	47
118	0xd4	-44
119	0x17	23
120	0xf1	-15
121	0x3b	59
122	0x2b	43
123	0xdc	-36
124	0x4d	77
125	0xc1	-63
126	0xce	-50
127	0x81	-127
128	0x74	116
129	0xa9	-87
130	0xcc	-52
131	0x1d	29
132	0xf4	-12
133	0x49	73
134	0x60	96
135	0xc3	-61
136	0x06	6
137	0x2e	46
138	0xf3	-13
139	0xbc	-68
140	0x34	52
141	0xcf	-49
142	0xf4	-12
143	0x31	49
144	0x07	7
145	0xed	-19
146	0x81	-127
147	0x09	9
148	0xd4	-44
149	0x16	22
150	0xe2	-30
151	0xf5	-11
152	0x25	37
153	0xfe	-2
154	0xce	-50
155	0x08	8
156	0xf9	-7
157	0x2b	43
158	0x4a	74
159	0xaf	-81
160	0xe8	-24
161	0x71	113
162	0xed	-19
163	0x0b	11
164	0x00	0
165	0x2a	42
166	0x10	16
167	0x23	35
168	0x3a	58
169	0x59	89
170	0x44	68
171	0x81	-127
172	0xfb	-5
173	0xcf	-49
174	0xfd	-3
175	0x18	24
176	0x08	8
177	0x01	1
178	0xfc	-4
179	0x10	16
180	0x0e	14
181	0x22	34
182	0x1a	26
183	0x64	100
184	0xf3	-13
185	0xeb	-21
186	0xc6	-58
187	0x1b	27
188	0x23	35
189	0xd7	-41
190	0xf4	-12
191	0xea	-22
192	0x89	-119
193	0x81	-127
194	0x0a	10
195	0x09	9
196	0xa9	-87
197	0x17	23
198	0x96	-106
199	0xfd	-3
200	0x07	7
201	0xda	-38
202	0x47	71
203	0xb6	-74
204	0x54	84
205	0xf5	-11
206	0xdd	-35
207	0xcf	-49
208	0xbe	-66
209	0xf2	-14
210	0x33	51
211	0xcb	-53
212	0x83	-125
213	0x13	19
214	0xf5	-11
215	0xef	-17
216	0x2e	46
217	0x7e	126
218	0x81	-127
219	0x4c	76
220	0x02	2
221	0xca	-54
222	0x1d	29
223	0xdb	-37
224	0xda	-38
225	0x2f	47
226	0x93	-109
227	0x31	49
228	0x0c	12
229	0xd2	-46
230	0x0f	15
231	0xad	-83
232	0x5c	92
233	0xbc	-68
234	0x26	38
235	0x4e	78
236	0xc7	-57
237	0x42	66
238	0x13	19
239	0x03	3
240	0x15	21
241	0xbe	-66
242	0x16	22
243	0xbe	-66
244	0x07	7
245	0x07	7
246	0x6d	109
247	0x34	52
248	0x2d	45
249	0xeb	-21
250	0x18	24
251	0x7f	127
252	0x15	21
253	0xe5	-27
254	0x1e	30
255	0xf8	-8

model_1/model/block_2_depthwise_BN/FusedBatchNormV3;model_1/model/block_2_depthwise/depthwise;model_1/model/block_6_expand/Conv2D i1 [1, 3, 3, 144]
0	0x4c	76
1	0xd0	-48
2	0x53	83
3	0x8a	-118
4	0xa8	-88
5	0xff	-1
6	0x7f	127
7	0x25	37
8	0x90	-112
9	0x47	71
10	0x3a	58
11	0xe2	-30
12	0x89	-119
13	0x87	-121
14	0x7f	127
15	0x23	35
16	0xe8	-24
17	0x0c	12
18	0x0d	13
19	0x81	-127
20	0x8c	-116
21	0x11	17
22	0xb7	-73
23	0x11	17
24	0x81	-127
25	0xb5	-75
26	0x0d	13
27	0xcb	-53
28	0xbe	-66
29	0x46	70
30	0x5c	92
31	0x03	3
32	0xc9	-55
33	0x11	17
34	0x7f	127
35	0x63	99
36	0x02	2
37	0x6a	106
38	0x99	-103
39	0x06	6
40	0xe9	-23
41	0xed	-19
42	0x1b	27
43	0xcd	-51
44	0x05	5
45	0x9a	-102
46	0x19	25
47	0x38	56
48	0x9f	-97
49	0x7f	127
50	0x86	-122
51	0xef	-17
52	0xe8	-24
53	0x57	87
54	0x7f	127
55	0x3e	62
56	0xfb	-5
57	0x24	36
58	0x45	69
59	0xe3	-29
60	0x9c	-100
61	0xbd	-67
62	0x06	6
63	0x43	67
64	0xc7	-57
65	0xa9	-87
66	0x55	85
67	0x7f	127
68	0xc8	-56
69	0xce	-50
70	0x7f	127
71	0xf1	-15
72	0xd0	-48
73	0x38	56
74	0xd0	-48
75	0x60	96
76	0xa0	-96
77	0x8b	-117
78	0x19	25
79	0x96	-106
80	0x28	40
81	0x1a	26
82	0x81	-127
83	0xc4	-60
84	0xc9	-55
85	0xe4	-28
86	0xf1	-15
87	0x44	68
88	0x81	-127
89	0x81	-127
90	0xa9	-87
91	0xbb	-69
92	0xee	-18
93	0xa1	-95
94	0x59	89
95	0x81	-127
96	0x7c	124
97	0x75	117
98	0x7d	125
99	0xd3	-45
100	0x4a	74
101	0xa1	-95
102	0x34	52
103	0xe0	-32
104	0xe1	-31
105	0x6f	111
106	0x2f	47
107	0x4e	78
108	0xe1	-31
109	0x13	19
110	0xda	-38
111	0x26	38
112	0x3c	60
113	0x7f	127
114	0x3d	61
115	0x21	33
116	0xea	-22
117	0x17	23
118	0x2d	45
119	0x36	54
120	0x11	17
121	0x66	102
122	0xef	-17
123	0xe4	-28
124	0x07	7
125	0x19	25
126	0x30	48
127	0x7f	127
128	0x84	-124
129	0x04	4
130	0xa5	-91
131	0x13	19
132	0x20	32
133	0xd0	-48
134	0x28	40
135	0xfa	-6
136	0x7f	127
137	0x27	39
138	0xc9	-55
139	0xda	-38
140	0xeb	-21
141	0xd4	-44
142	0x57	87
143	0xe9	-23
144	0x3f	63
145	0x93	-109
146	0x7f	127
147	0xce	-50
148	0xf0	-16
149	0x91	-111
150	0xc1	-63
151	0xea	-22
152	0x95	-107
153	0x7f	127
154	0x3b	59
155	0xd4	-44
156	0xb1	-79
157	0xf3	-13
158	0xe8	-24
159	0xed	-19
160	0xf9	-7
161	0x7f	127
162	0x18	24
163	0x06	6
164	0xb6	-74
165	0xc1	-63
166	0xbc	-68
167	0x43	67
168	0x76	118
169	0x81	-127
170	0x7f	127
171	0x5b	91
172	0x81	-127
173	0x20	32
174	0x6b	107
175	0x5f	95
176	0xeb	-21
177	0x32	50
178	0xbc	-68
179	0x32	50
180	0xda	-38
181	0x23	35
182	0x98	-104
183	0x81	-127
184	0x95	-107
185	0xf7	-9
186	0xe3	-29
187	0xfb	-5
188	0x7f	127
189	0x99	-103
190	0xf4	-12
191	0x56	86
192	0xe6	-26
193	0x2f	47
194	0x2f	47
195	0x6a	106
196	0x7f	127
197	0xed	-19
198	0xf6	-10
199	0xe9	-23
200	0x22	34
201	0x7f	127
202	0x3e	62
203	0xc5	-59
204	0x46	70
205	0x42	66
206	0xd7	-41
207	0xf3	-13
208	0x81	-127
209	0xc3	-61
210	0x0d	13
211	0x28	40
212	0x81	-127
213	0x04	4
214	0x45	69
215	0xcd	-51
216	0xd8	-40
217	0x33	51
218	0x1a	26
219	0xe0	-32
220	0xb4	-76
221	0xf8	-8
222	0xe8	-24
223	0xd4	-44
224	0xee	-18
225	0xa6	-90
226	0xbd	-67
227	0x00	0
228	0xcf	-49
229	0xc7	-57
230	0xdb	-37
231	0x7e	126
232	0xf0	-16
233	0x9b	-101
234	0x0b	11
235	0xbd	-67
236	0xcf	-49
237	0xbe	-66
238	0x7f	127
239	0xc9	-55
240	0xf9	-7
241	0x33	51
242	0x0c	12
243	0x38	56
244	0x9a	-102
245	0x84	-124
246	0xd6	-42
247	0x25	37
248	0xd9	-39
249	0x1e	30
250	0xab	-85
251	0x7f	127
252	0x7f	127
253	0x71	113
254	0xda	-38
255	0x22	34

model_1/model/block_2_project/Conv2D i1 [24, 1, 1, 144]
0	0xb1	-79
1	0x6c	108
2	0x0e	14
3	0xe7	-25
4	0xc9	-55
5	0xb0	-80
6	0xd8	-40
7	0xd2	-46
8	0x5a	90
9	0xd9	-39
10	0xe3	-29
11	0xf0	-16
12	0xee	-18
13	0xfb	-5
14	0xa6	-90
15	0xb3	-77
16	0x11	17
17	0xf3	-13
18	0x28	40
19	0x0f	15
20	0xec	-20
21	0xd9	-39
22	0x94	-108
23	0x05	5
24	0x42	66
25	0x24	36
26	0xf3	-13
27	0xa4	-92
28	0x1a	26
29	0xb4	-76
30	0xc5	-59
31	0xe1	-31
32	0xe2	-30
33	0x5b	91
34	0xe2	-30
35	0x12	18
36	0xfe	-2
37	0x2e	46
38	0x08	8
39	0x15	21
40	0xf8	-8
41	0x03	3
42	0x9f	-97
43	0xe6	-26
44	0xb7	-73
45	0xd9	-39
46	0x18	24
47	0xd2	-46
48	0x23	35
49	0x39	57
50	0x02	2
51	0x73	115
52	0x46	70
53	0x26	38
54	0xf0	-16
55	0xf7	-9
56	0xbf	-65
57	0x1d	29
58	0x30	48
59	0x4d	77
60	0x2f	47
61	0x2d	45
62	0xbd	-67
63	0x40	64
64	0x2a	42
65	0xa7	-89
66	0x22	34
67	0xa0	-96
68	0x28	40
69	0xfd	-3
70	0xc0	-64
71	0x0d	13
72	0xc6	-58
73	0xd0	-48
74	0x26	38
75	0xd3	-45
76	0xbd	-67
77	0x1b	27
78	0xd8	-40
79	0xe8	-24
80	0x81	-127
81	0x23	35
82	0x49	73
83	0xa7	-89
84	0xf6	-10
85	0xde	-34
86	0x0d	13
87	0xad	-83
88	0x5a	90
89	0xcf	-49
90	0x2d	45
91	0xec	-20
92	0xe0	-32
93	0x04	4
94	0xe6	-26
95	0x38	56
96	0x3c	60
97	0xe9	-23
98	0x47	71
99	0x0e	14
100	0x1a	26
101	0x4d	77
102	0x1c	28
103	0xa5	-91
104	0xef	-17
105	0x43	67
106	0xdb	-37
107	0x42	66
108	0x0b	11
109	0x17	23
110	0xf1	-15
111	0x03	3
112	0x1d	29
113	0x4a	74
114	0x14	20
115	0xdc	-36
116	0x2d	45
117	0xa5	-91
118	0x10	16
119	0xf8	-8
120	0xce	-50
121	0x0b	11
122	0x05	5
123	0xe5	-27
124	0xd9	-39
125	0x64	100
126	0xcf	-49
127	0xd1	-47
128	0xcd	-51
129	0x23	35
130	0xfb	-5
131	0xdf	-33
132	0x2e	46
133	0x51	81
134	0xc1	-63
135	0xb0	-80
136	0x02	2
137	0x5d	93
138	0xc6	-58
139	0x01	1
140	0x46	70
141	0x9d	-99
142	0xd5	-43
143	0xd2	-46
144	0x19	25
145	0x26	38
146	0xe4	-28
147	0xb9	-71
148	0xd4	-44
149	0xde	-34
150	0x06	6
151	0x4f	79
152	0x00	0
153	0x24	36
154	0x22	34
155	0x1e	30
156	0x0c	12
157	0xc7	-57
158	0x22	34
159	0xb7	-73
160	0xde	-34
161	0x2c	44
162	0x1f	31
163	0xaf	-81
164	0xea	-22
165	0x06	6
166	0x2b	43
167	0x1a	26
168	0x87	-121
169	0xf8	-8
170	0xd9	-39
171	0xad	-83
172	0x11	17
173	0x1f	31
174	0x1c	28
175	0xb8	-72
176	0xd4	-44
177	0x03	3
178	0xf2	-14
179	0xe0	-32
180	0x46	70
181	0xeb	-21
182	0x3a	58
183	0xff	-1
184	0xb6	-74
185	0xee	-18
186	0xbb	-69
187	0xe9	-23
188	0xd9	-39
189	0xf5	-11
190	0xfd	-3
191	0x07	7
192	0xde	-34
193	0xab	-85
194	0xbe	-66
195	0xdd	-35
196	0xe0	-32
197	0xca	-54
198	0xfb	-5
199	0xf7	-9
200	0xe8	-24
201	0xab	-85
202	0x08	8
203	0x15	21
204	0xa3	-93
205	0xec	-20
206	0xbd	-67
207	0x05	5
208	0xfd	-3
209	0xe8	-24
210	0xce	-50
211	0x99	-103
212	0xf7	-9
213	0xf5	-11
214	0xfe	-2
215	0x24	36
216	0x45	69
217	0x16	22
218	0x34	52
219	0x9b	-101
220	0x47	71
221	0x43	67
222	0x3d	61
223	0xf3	-13
224	0xef	-17
225	0xe6	-26
226	0x34	52
227	0x7f	127
228	0xcc	-52
229	0xb2	-78
230	0x19	25
231	0xfc	-4
232	0x95	-107
233	0x07	7
234	0x8a	-118
235	0x43	67
236	0xdb	-37
237	0x0f	15
238	0x0f	15
239	0x08	8
240	0xd8	-40
241	0x01	1
242	0xf5	-11
243	0x01	1
244	0xd3	-45
245	0xe3	-29
246	0x14	20
247	0x58	88
248	0xf3	-13
249	0xa6	-90
250	0xc1	-63
251	0x32	50
252	0xd9	-39
253	0xcd	-51
254	0xf1	-15
255	0xe8	-24

model_1/model/block_3_expand/Conv2D i1 [144, 1, 1, 24]
0	0xc2	-62
1	0xf2	-14
2	0x20	32
3	0xda	-38
4	0xcc	-52
5	0xd7	-41
6	0x3b	59
7	0xe0	-32
8	0x39	57
9	0xf7	-9
10	0x36	54
11	0x27	39
12	0xeb	-21
13	0x81	-127
14	0xf8	-8
15	0xeb	-21
16	0xc9	-55
17	0xfb	-5
18	0x17	23
19	0x29	41
20	0xf2	-14
21	0x5f	95
22	0xaa	-86
23	0xeb	-21
24	0x7a	122
25	0xe6	-26
26	0x61	97
27	0xeb	-21
28	0x04	4
29	0x4f	79
30	0x0d	13
31	0xb4	-76
32	0xb1	-79
33	0x02	2
34	0x4c	76
35	0xf0	-16
36	0x00	0
37	0xa8	-88
38	0x0d	13
39	0x81	-127
40	0x4b	75
41	0x3c	60
42	0x39	57
43	0xe5	-27
44	0xc8	-56
45	0x3e	62
46	0xb7	-73
47	0x1c	28
48	0xac	-84
49	0x1e	30
50	0xd4	-44
51	0x23	35
52	0x98	-104
53	0xbd	-67
54	0x2c	44
55	0xb5	-75
56	0xf6	-10
57	0x26	38
58	0x1c	28
59	0xeb	-21
60	0xbd	-67
61	0xad	-83
62	0xf6	-10
63	0x81	-127
64	0x0b	11
65	0xe3	-29
66	0xe9	-23
67	0x1c	28
68	0x0e	14
69	0x6f	111
70	0x93	-109
71	0x30	48
72	0xeb	-21
73	0xeb	-21
74	0xbe	-66
75	0x16	22
76	0x3d	61
77	0xdc	-36
78	0x6f	111
79	0x15	21
80	0x3e	62
81	0xe3	-29
82	0xc6	-58
83	0xe4	-28
84	0xfd	-3
85	0xa6	-90
86	0x3f	63
87	0xf8	-8
88	0xde	-34
89	0x81	-127
90	0x31	49
91	0x6a	106
92	0x5c	92
93	0x52	82
94	0xe5	-27
95	0x5f	95
96	0xe8	-24
97	0x32	50
98	0xb3	-77
99	0x25	37
100	0x7f	127
101	0xe4	-28
102	0x16	22
103	0x0e	14
104	0xe2	-30
105	0xd7	-41
106	0xff	-1
107	0xdd	-35
108	0xce	-50
109	0xa8	-88
110	0x30	48
111	0xa4	-92
112	0xca	-54
113	0x85	-123
114	0xe1	-31
115	0x52	82
116	0x5b	91
117	0xbb	-69
118	0xe4	-28
119	0x2c	44
120	0xff	-1
121	0x0b	11
122	0x09	9
123	0x31	49
124	0xe2	-30
125	0xa3	-93
126	0x3b	59
127	0xd7	-41
128	0xa2	-94
129	0x00	0
130	0xfa	-6
131	0x38	56
132	0xb2	-78
133	0xaa	-86
134	0xf9	-7
135	0x89	-119
136	0x6e	110
137	0x1d	29
138	0x21	33
139	0x21	33
140	0x7f	127
141	0x71	113
142	0xdf	-33
143	0xf2	-14
144	0x20	32
145	0xe9	-23
146	0x39	57
147	0x14	20
148	0xf1	-15
149	0x1e	30
150	0xd8	-40
151	0xda	-38
152	0x18	24
153	0x25	37
154	0xe1	-31
155	0xb4	-76
156	0xe5	-27
157	0xc7	-57
158	0x3b	59
159	0xd2	-46
160	0xe7	-25
161	0x1e	30
162	0x1d	29
163	0x29	41
164	0x34	52
165	0x81	-127
166	0xaf	-81
167	0xf7	-9
168	0x0d	13
169	0xe6	-26
170	0xf9	-7
171	0x0f	15
172	0x47	71
173	0x3e	62
174	0xf5	-11
175	0x03	3
176	0xff	-1
177	0xec	-20
178	0x6d	109
179	0xf4	-12
180	0x0b	11
181	0x0d	13
182	0x0d	13
183	0xc5	-59
184	0x27	39
185	0xee	-18
186	0x3e	62
187	0x0e	14
188	0x37	55
189	0x08	8
190	0x03	3
191	0x7f	127
192	0xec	-20
193	0xa0	-96
194	0x7f	127
195	0xd4	-44
196	0x1e	30
197	0x18	24
198	0xdb	-37
199	0x31	49
200	0x1d	29
201	0xfc	-4
202	0x00	0
203	0x4d	77
204	0xb0	-80
205	0xd7	-41
206	0x0a	10
207	0xf2	-14
208	0x08	8
209	0xf3	-13
210	0xdb	-37
211	0x20	32
212	0x45	69
213	0x17	23
214	0xb8	-72
215	0xd4	-44
216	0xfc	-4
217	0x07	7
218	0xb8	-72
219	0x09	9
220	0x7f	127
221	0x0b	11
222	0xba	-70
223	0x68	104
224	0x4e	78
225	0xec	-20
226	0x13	19
227	0x65	101
228	0xba	-70
229	0xcd	-51
230	0xe7	-25
231	0xd3	-45
232	0x30	48
233	0xa6	-90
234	0x1a	26
235	0x04	4
236	0xfc	-4
237	0xfe	-2
238	0x75	117
239	0x42	66
240	0x74	116
241	0xda	-38
242	0xae	-82
243	0xe3	-29
244	0xb0	-80
245	0x02	2
246	0x5a	90
247	0xff	-1
248	0x1f	31
249	0xe1	-31
250	0x1c	28
251	0xac	-84
252	0x25	37
253	0x1c	28
254	0x4c	76
255	0x77	119

model_1/model/block_3_depthwise_BN/FusedBatchNormV3;model_1/model/block_3_depthwise/depthwise;model_1/model/block_6_expand/Conv2D i1 [1, 3, 3, 144]
0	0xc1	-63
1	0x47	71
2	0xf5	-11
3	0xef	-17
4	0x7f	127
5	0xb0	-80
6	0x23	35
7	0x68	104
8	0xd0	-48
9	0xbf	-65
10	0x07	7
11	0x27	39
12	0xc4	-60
13	0x22	34
14	0x7f	127
15	0x8d	-115
16	0x81	-127
17	0x7f	127
18	0x9b	-101
19	0x2e	46
20	0x84	-124
21	0xc7	-57
22	0x91	-111
23	0xf2	-14
24	0xe1	-31
25	0x2d	45
26	0xe9	-23
27	0x74	116
28	0x4e	78
29	0x7f	127
30	0x02	2
31	0xe0	-32
32	0x59	89
33	0xe7	-25
34	0x29	41
35	0xc0	-64
36	0x28	40
37	0x2f	47
38	0x05	5
39	0x51	81
40	0xf5	-11
41	0xb6	-74
42	0xa2	-94
43	0x3e	62
44	0x46	70
45	0xee	-18
46	0x7f	127
47	0xe5	-27
48	0xce	-50
49	0x74	116
50	0xec	-20
51	0xfc	-4
52	0x7f	127
53	0xfb	-5
54	0xa1	-95
55	0x9c	-100
56	0xf8	-8
57	0xdc	-36
58	0x51	81
59	0xcd	-51
60	0xa9	-87
61	0x81	-127
62	0x77	119
63	0xe1	-31
64	0xf7	-9
65	0x93	-109
66	0x37	55
67	0xb2	-78
68	0xbc	-68
69	0x36	54
70	0x60	96
71	0x05	5
72	0x6d	109
73	0x1f	31
74	0x7f	127
75	0xec	-20
76	0x45	69
77	0x3b	59
78	0x81	-127
79	0xd3	-45
80	0x04	4
81	0xb4	-76
82	0x94	-108
83	0x2b	43
84	0xc9	-55
85	0x7f	127
86	0x09	9
87	0x2a	42
88	0x02	2
89	0x7f	127
90	0x47	71
91	0xcd	-51
92	0x81	-127
93	0x12	18
94	0xb6	-74
95	0x1a	26
96	0x46	70
97	0xd2	-46
98	0x78	120
99	0x74	116
100	0x81	-127
101	0x5d	93
102	0xe5	-27
103	0xf8	-8
104	0xfd	-3
105	0x81	-127
106	0xd5	-43
107	0x43	67
108	0x6e	110
109	0x81	-127
110	0x27	39
111	0xd0	-48
112	0xe1	-31
113	0x5a	90
114	0x81	-127
115	0xaf	-81
116	0x75	117
117	0x99	-103
118	0x41	65
119	0x6a	106
120	0xc9	-55
121	0x6c	108
122	0x81	-127
123	0x9c	-100
124	0x5d	93
125	0xb7	-73
126	0x7f	127
127	0x1e	30
128	0x56	86
129	0x66	102
130	0x57	87
131	0xce	-50
132	0xf6	-10
133	0x34	52
134	0x61	97
135	0xa6	-90
136	0x5c	92
137	0x0d	13
138	0xca	-54
139	0x7f	127
140	0x8f	-113
141	0xcc	-52
142	0x87	-121
143	0x81	-127
144	0x03	3
145	0x3e	62
146	0xfc	-4
147	0x7f	127
148	0xf2	-14
149	0x48	72
150	0x7f	127
151	0x7f	127
152	0x93	-109
153	0xa1	-95
154	0x15	21
155	0x7f	127
156	0xc9	-55
157	0x2a	42
158	0x5a	90
159	0xd3	-45
160	0xb2	-78
161	0x49	73
162	0xe7	-25
163	0x68	104
164	0x90	-112
165	0x81	-127
166	0x99	-103
167	0xb8	-72
168	0xde	-34
169	0x32	50
170	0xb3	-77
171	0x1a	26
172	0x5e	94
173	0x33	51
174	0x7b	123
175	0xf9	-7
176	0x3d	61
177	0x12	18
178	0x2a	42
179	0x81	-127
180	0x3e	62
181	0x2e	46
182	0x81	-127
183	0x6f	111
184	0x7f	127
185	0xad	-83
186	0x81	-127
187	0xb9	-71
188	0x4c	76
189	0xac	-84
190	0x25	37
191	0xd9	-39
192	0x81	-127
193	0x25	37
194	0xa7	-89
195	0x2b	43
196	0x74	116
197	0x06	6
198	0x81	-127
199	0x9a	-102
200	0x00	0
201	0xd0	-48
202	0x7f	127
203	0x8c	-116
204	0xa0	-96
205	0xfb	-5
206	0x7f	127
207	0x93	-109
208	0x81	-127
209	0x47	71
210	0x45	69
211	0x0c	12
212	0x9b	-101
213	0xb8	-72
214	0x7f	127
215	0x20	32
216	0x25	37
217	0x17	23
218	0x5c	92
219	0xea	-22
220	0x42	66
221	0x19	25
222	0xe8	-24
223	0x84	-124
224	0x5a	90
225	0xc2	-62
226	0x81	-127
227	0x7f	127
228	0xf6	-10
229	0x63	99
230	0x51	81
231	0x27	39
232	0xd5	-43
233	0x6b	107
234	0x2f	47
235	0xd8	-40
236	0xb3	-77
237	0x9e	-98
238	0x31	49
239	0x1b	27
240	0xfe	-2
241	0x54	84
242	0x7f	127
243	0x7f	127
244	0xd3	-45
245	0x5e	94
246	0x7f	127
247	0x81	-127
248	0x81	-127
249	0xcc	-52
250	0x8a	-118
251	0x29	41
252	0x5e	94
253	0x99	-103
254	0xfe	-2
255	0xf4	-12

model_1/model/block_3_project/Conv2D i1 [24, 1, 1, 144]
0	0xbc	-68
1	0xef	-17
2	0x12	18
3	0x2a	42
4	0x4b	75
5	0x03	3
6	0xef	-17
7	0x27	39
8	0xe7	-25
9	0x4a	74
10	0xcd	-51
11	0x1c	28
12	0xf4	-12
13	0x0e	14
14	0x04	4
15	0x2e	46
16	0x08	8
17	0xff	-1
18	0x40	64
19	0xd1	-47
20	0xf0	-16
21	0xa9	-87
22	0xf2	-14
23	0x23	35
24	0xc6	-58
25	0x30	48
26	0x2a	42
27	0xc3	-61
28	0xf1	-15
29	0xe4	-28
30	0xee	-18
31	0xed	-19
32	0x8f	-113
33	0x07	7
34	0xef	-17
35	0xe7	-25
36	0x24	36
37	0x44	68
38	0x07	7
39	0xdd	-35
40	0x0a	10
41	0xe5	-27
42	0x2a	42
43	0x0d	13
44	0x12	18
45	0xe0	-32
46	0xec	-20
47	0x2f	47
48	0x7f	127
49	0xe7	-25
50	0x44	68
51	0x1d	29
52	0x51	81
53	0xd3	-45
54	0x1f	31
55	0xa3	-93
56	0xe4	-28
57	0x18	24
58	0xdb	-37
59	0xfa	-6
60	0x14	20
61	0xdc	-36
62	0xcd	-51
63	0x24	36
64	0xae	-82
65	0x07	7
66	0x6f	111
67	0x62	98
68	0xfb	-5
69	0x97	-105
70	0xc9	-55
71	0x10	16
72	0xec	-20
73	0x55	85
74	0xc7	-57
75	0xd4	-44
76	0xd5	-43
77	0x3b	59
78	0xfb	-5
79	0xd5	-43
80	0xdd	-35
81	0x14	20
82	0xe5	-27
83	0x29	41
84	0xea	-22
85	0x52	82
86	0xfb	-5
87	0x0c	12
88	0x19	25
89	0x18	24
90	0xf2	-14
91	0xe1	-31
92	0x0a	10
93	0xbc	-68
94	0xb8	-72
95	0x00	0
96	0x98	-104
97	0x5a	90
98	0xf6	-10
99	0x3d	61
100	0xef	-17
101	0x05	5
102	0x02	2
103	0x54	84
104	0x13	19
105	0x22	34
106	0xe4	-28
107	0xe6	-26
108	0x19	25
109	0xd2	-46
110	0xde	-34
111	0x60	96
112	0xe0	-32
113	0x56	86
114	0xb0	-80
115	0x24	36
116	0xf2	-14
117	0xe3	-29
118	0xf9	-7
119	0x09	9
120	0xf1	-15
121	0xd2	-46
122	0x2e	46
123	0x29	41
124	0x10	16
125	0x2f	47
126	0x2f	47
127	0x06	6
128	0xfa	-6
129	0x37	55
130	0x5b	91
131	0xb6	-74
132	0xf9	-7
133	0xf3	-13
134	0xcd	-51
135	0xf7	-9
136	0x19	25
137	0xe3	-29
138	0x18	24
139	0x5b	91
140	0xe9	-23
141	0x1f	31
142	0x09	9
143	0x63	99
144	0xf6	-10
145	0x18	24
146	0x4a	74
147	0xcd	-51
148	0x30	48
149	0x13	19
150	0x2b	43
151	0x37	55
152	0xf8	-8
153	0x22	34
154	0xfb	-5
155	0x05	5
156	0x31	49
157	0x15	21
158	0x95	-107
159	0xed	-19
160	0xf9	-7
161	0xc2	-62
162	0xe8	-24
163	0x26	38
164	0xe2	-30
165	0x22	34
166	0xe3	-29
167	0x06	6
168	0x10	16
169	0x0a	10
170	0x07	7
171	0x62	98
172	0x15	21
173	0x1f	31
174	0x0e	14
175	0x22	34
176	0x23	35
177	0xf0	-16
178	0x0a	10
179	0xa9	-87
180	0xde	-34
181	0xd8	-40
182	0xb5	-75
183	0xec	-20
184	0xcf	-49
185	0x09	9
186	0xc1	-63
187	0x1b	27
188	0x22	34
189	0xdb	-37
190	0x15	21
191	0x13	19
192	0x94	-108
193	0xd5	-43
194	0x13	19
195	0xea	-22
196	0xf9	-7
197	0xff	-1
198	0xde	-34
199	0x28	40
200	0xf6	-10
201	0x01	1
202	0x49	73
203	0x11	17
204	0xe0	-32
205	0x06	6
206	0x36	54
207	0xde	-34
208	0x3c	60
209	0x09	9
210	0xeb	-21
211	0x12	18
212	0x09	9
213	0x1c	28
214	0xfb	-5
215	0x09	9
216	0xa6	-90
217	0xc0	-64
218	0x2c	44
219	0x0c	12
220	0x57	87
221	0x18	24
222	0xd4	-44
223	0xf2	-14
224	0x3d	61
225	0xe8	-24
226	0x0f	15
227	0xe3	-29
228	0x1a	26
229	0x3a	58
230	0xdf	-33
231	0x00	0
232	0x7f	127
233	0x0a	10
234	0xd0	-48
235	0xf0	-16
236	0xfd	-3
237	0x2e	46
238	0xeb	-21
239	0xdc	-36
240	0xfb	-5
241	0xed	-19
242	0x07	7
243	0xfc	-4
244	0x39	57
245	0xd0	-48
246	0xf0	-16
247	0xce	-50
248	0xd5	-43
249	0x48	72
250	0xa2	-94
251	0xf4	-12
252	0x0f	15
253	0xdc	-36
254	0xff	-1
255	0x20	32

model_1/model/block_4_expand/Conv2D i1 [144, 1, 1, 24]
0	0xdc	-36
1	0x16	22
2	0xc1	-63
3	0xa7	-89
4	0x4e	78
5	0xed	-19
6	0x37	55
7	0x38	56
8	0x06	6
9	0x6a	106
10	0x18	24
11	0x00	0
12	0x0e	14
13	0x53	83
14	0x07	7
15	0x02	2
16	0xda	-38
17	0x09	9
18	0xf0	-16
19	0x0a	10
20	0x2c	44
21	0xd5	-43
22	0x81	-127
23	0x17	23
24	0xfd	-3
25	0xdb	-37
26	0xcf	-49
27	0xa9	-87
28	0x08	8
29	0xc4	-60
30	0xe3	-29
31	0xf8	-8
32	0x7f	127
33	0x1f	31
34	0xaf	-81
35	0xca	-54
36	0xfc	-4
37	0x54	84
38	0x40	64
39	0xa7	-89
40	0xec	-20
41	0x23	35
42	0xf1	-15
43	0x05	5
44	0x31	49
45	0x6d	109
46	0xe7	-25
47	0xde	-34
48	0xfe	-2
49	0x09	9
50	0xd3	-45
51	0x26	38
52	0x05	5
53	0x06	6
54	0x0a	10
55	0x0f	15
56	0x7f	127
57	0xf4	-12
58	0x46	70
59	0xe4	-28
60	0xd7	-41
61	0x06	6
62	0x4d	77
63	0xdd	-35
64	0x5e	94
65	0xc7	-57
66	0x94	-108
67	0xe3	-29
68	0xe6	-26
69	0xec	-20
70	0x62	98
71	0xc5	-59
72	0x04	4
73	0xb5	-75
74	0xe8	-24
75	0xc7	-57
76	0x0c	12
77	0x49	73
78	0x10	16
79	0x37	55
80	0x21	33
81	0x39	57
82	0xd8	-40
83	0x7f	127
84	0xf2	-14
85	0x11	17
86	0xb9	-71
87	0xd3	-45
88	0xfe	-2
89	0x3e	62
90	0x3e	62
91	0x47	71
92	0xd5	-43
93	0x3d	61
94	0xa2	-94
95	0xd9	-39
96	0x4a	74
97	0xaf	-81
98	0xdb	-37
99	0x21	33
100	0xd8	-40
101	0x28	40
102	0x42	66
103	0xab	-85
104	0x5e	94
105	0xdf	-33
106	0x32	50
107	0x81	-127
108	0x49	73
109	0x59	89
110	0x97	-105
111	0xa8	-88
112	0x5c	92
113	0x44	68
114	0xc2	-62
115	0xad	-83
116	0xff	-1
117	0xfb	-5
118	0xdd	-35
119	0x00	0
120	0xeb	-21
121	0xff	-1
122	0xe1	-31
123	0x81	-127
124	0xd9	-39
125	0x3c	60
126	0x13	19
127	0xf8	-8
128	0x55	85
129	0x0d	13
130	0x16	22
131	0xe4	-28
132	0xf5	-11
133	0x07	7
134	0xf4	-12
135	0xcf	-49
136	0x29	41
137	0x3a	58
138	0xdc	-36
139	0x14	20
140	0x09	9
141	0x24	36
142	0xb4	-76
143	0xbe	-66
144	0xa7	-89
145	0x91	-111
146	0xbb	-69
147	0xf9	-7
148	0xa9	-87
149	0xf4	-12
150	0x1c	28
151	0x87	-121
152	0x68	104
153	0x31	49
154	0x3a	58
155	0xe8	-24
156	0xd3	-45
157	0x92	-110
158	0x1e	30
159	0xc1	-63
160	0xd4	-44
161	0xc6	-58
162	0xff	-1
163	0xe9	-23
164	0x7f	127
165	0x38	56
166	0xfd	-3
167	0x05	5
168	0xe2	-30
169	0x84	-124
170	0xa0	-96
171	0x81	-127
172	0xc2	-62
173	0x46	70
174	0x5f	95
175	0xf7	-9
176	0x18	24
177	0x40	64
178	0x1c	28
179	0xc8	-56
180	0xf7	-9
181	0x0b	11
182	0xad	-83
183	0x8c	-116
184	0x42	66
185	0xf1	-15
186	0xe7	-25
187	0xd8	-40
188	0x40	64
189	0x14	20
190	0xef	-17
191	0xdc	-36
192	0x4e	78
193	0xb5	-75
194	0xbd	-67
195	0xcb	-53
196	0xb6	-74
197	0x0f	15
198	0x66	102
199	0x22	34
200	0x7e	126
201	0xfa	-6
202	0xe1	-31
203	0x92	-110
204	0xee	-18
205	0xa5	-91
206	0x65	101
207	0xfa	-6
208	0x37	55
209	0x6f	111
210	0x90	-112
211	0x7f	127
212	0xae	-82
213	0x9a	-102
214	0xef	-17
215	0x55	85
216	0xe8	-24
217	0xc5	-59
218	0x4e	78
219	0x97	-105
220	0x88	-120
221	0x1f	31
222	0x81	-127
223	0x5e	94
224	0xc4	-60
225	0x1a	26
226	0xf2	-14
227	0x19	25
228	0xf4	-12
229	0x06	6
230	0x92	-110
231	0x24	36
232	0x04	4
233	0xb7	-73
234	0xc8	-56
235	0xae	-82
236	0xf2	-14
237	0x98	-104
238	0x81	-127
239	0x27	39
240	0x1c	28
241	0xf5	-11
242	0xdb	-37
243	0xe2	-30
244	0x42	66
245	0xf0	-16
246	0x81	-127
247	0x14	20
248	0x22	34
249	0x0a	10
250	0x25	37
251	0x09	9
252	0xea	-22
253	0x12	18
254	0xee	-18
255	0x10	16

model_1/model/block_4_depthwise_BN/FusedBatchNormV3;model_1/model/block_4_depthwise/depthwise;model_1/model/block_6_expand/Conv2D i1 [1, 3, 3, 144]
0	0x81	-127
1	0x08	8
2	0x4d	77
3	0xc8	-56
4	0xcf	-49
5	0x20	32
6	0x48	72
7	0x7f	127
8	0x8c	-116
9	0x63	99
10	0x04	4
11	0x1a	26
12	0x59	89
13	0x71	113
14	0x4c	76
15	0xda	-38
16	0x99	-103
17	0x7f	127
18	0x7f	127
19	0x3d	61
20	0xd8	-40
21	0x2e	46
22	0xe2	-30
23	0xb6	-74
24	0x6d	109
25	0x20	32
26	0xb0	-80
27	0x79	121
28	0x13	19
29	0xa7	-89
30	0x7f	127
31	0x04	4
32	0x22	34
33	0xc5	-59
34	0xbe	-66
35	0x09	9
36	0x81	-127
37	0x81	-127
38	0xa5	-91
39	0xef	-17
40	0xdf	-33
41	0xb0	-80
42	0x4b	75
43	0x9f	-97
44	0x81	-127
45	0x14	20
46	0x81	-127
47	0x49	73
48	0x7f	127
49	0xf2	-14
50	0x81	-127
51	0xd0	-48
52	0x81	-127
53	0x7f	127
54	0x7f	127
55	0x6d	109
56	0x76	118
57	0xf0	-16
58	0x0a	10
59	0x7f	127
60	0x7f	127
61	0x8a	-118
62	0xcb	-53
63	0x81	-127
64	0x73	115
65	0xd0	-48
66	0x68	104
67	0xc3	-61
68	0x2b	43
69	0x13	19
70	0xf3	-13
71	0x30	48
72	0x44	68
73	0x7f	127
74	0xa6	-90
75	0xb7	-73
76	0xbb	-69
77	0xff	-1
78	0xf9	-7
79	0x12	18
80	0xbb	-69
81	0x33	51
82	0x4d	77
83	0x86	-122
84	0x7f	127
85	0x7f	127
86	0xd1	-47
87	0x7f	127
88	0xa1	-95
89	0xf0	-16
90	0x22	34
91	0xeb	-21
92	0x84	-124
93	0x23	35
94	0xb3	-77
95	0xee	-18
96	0x1a	26
97	0x81	-127
98	0xf8	-8
99	0x89	-119
100	0x81	-127
101	0x7f	127
102	0x7f	127
103	0xab	-85
104	0x01	1
105	0x8b	-117
106	0x81	-127
107	0x9d	-99
108	0xa3	-93
109	0x7f	127
110	0x97	-105
111	0x19	25
112	0x1f	31
113	0x99	-103
114	0x51	81
115	0xc9	-55
116	0x8f	-113
117	0xf4	-12
118	0x84	-124
119	0xf2	-14
120	0x07	7
121	0x85	-123
122	0xd5	-43
123	0x81	-127
124	0x06	6
125	0xa2	-94
126	0x7f	127
127	0xa2	-94
128	0x8d	-115
129	0x81	-127
130	0xf7	-9
131	0x18	24
132	0xeb	-21
133	0x81	-127
134	0xba	-70
135	0xef	-17
136	0x14	20
137	0x16	22
138	0x02	2
139	0xd8	-40
140	0xa5	-91
141	0x82	-126
142	0x7f	127
143	0x7f	127
144	0xc0	-64
145	0xa7	-89
146	0x3f	63
147	0x28	40
148	0x10	16
149	0xf2	-14
150	0xdb	-37
151	0x12	18
152	0xa8	-88
153	0x0b	11
154	0x0b	11
155	0x0a	10
156	0x27	39
157	0x7f	127
158	0x45	69
159	0x6e	110
160	0xad	-83
161	0x41	65
162	0x2e	46
163	0xff	-1
164	0xc8	-56
165	0x7f	127
166	0x81	-127
167	0x4c	76
168	0x7f	127
169	0xf8	-8
170	0xfb	-5
171	0x21	33
172	0x81	-127
173	0xce	-50
174	0xda	-38
175	0x06	6
176	0x2b	43
177	0xfe	-2
178	0x3b	59
179	0x7f	127
180	0x98	-104
181	0xb8	-72
182	0x89	-119
183	0x46	70
184	0xcd	-51
185	0x7f	127
186	0xa8	-88
187	0x81	-127
188	0xbf	-65
189	0xf2	-14
190	0xc0	-64
191	0x0f	15
192	0xf7	-9
193	0x05	5
194	0xd4	-44
195	0x52	82
196	0xfc	-4
197	0x4c	76
198	0xe5	-27
199	0x7f	127
200	0xf6	-10
201	0x3e	62
202	0x8b	-117
203	0x43	67
204	0xf8	-8
205	0xb6	-74
206	0xdb	-37
207	0xde	-34
208	0x09	9
209	0xe7	-25
210	0x4b	75
211	0xf7	-9
212	0x46	70
213	0x3c	60
214	0x81	-127
215	0xed	-19
216	0x98	-104
217	0x4e	78
218	0xff	-1
219	0x8f	-113
220	0x7f	127
221	0x5a	90
222	0xed	-19
223	0x11	17
224	0x00	0
225	0x9f	-97
226	0x7f	127
227	0x81	-127
228	0xfb	-5
229	0xc1	-63
230	0xbe	-66
231	0xf7	-9
232	0xcb	-53
233	0xbe	-66
234	0xe1	-31
235	0xf9	-7
236	0xee	-18
237	0xd6	-42
238	0xd3	-45
239	0xff	-1
240	0x17	23
241	0x31	49
242	0xc9	-55
243	0xec	-20
244	0xa6	-90
245	0x38	56
246	0xff	-1
247	0xf3	-13
248	0x0d	13
249	0xcf	-49
250	0xe1	-31
251	0x8f	-113
252	0xcf	-49
253	0xbc	-68
254	0xa6	-90
255	0xfd	-3

model_1/model/block_4_project/Conv2D i1 [24, 1, 1, 144]
0	0x18	24
1	0xef	-17
2	0x44	68
3	0x0a	10
4	0xef	-17
5	0xee	-18
6	0xf4	-12
7	0xbf	-65
8	0x32	50
9	0x04	4
10	0xee	-18
11	0x46	70
12	0xd9	-39
13	0xba	-70
14	0x15	21
15	0x2c	44
16	0xa3	-93
17	0xe4	-28
18	0xe6	-26
19	0xe6	-26
20	0x09	9
21	0x2e	46
22	0x16	22
23	0x0b	11
24	0x2a	42
25	0x0d	13
26	0xe4	-28
27	0x7f	127
28	0x06	6
29	0xdb	-37
30	0xbb	-69
31	0x22	34
32	0x10	16
33	0x23	35
34	0x51	81
35	0x97	-105
36	0x36	54
37	0x36	54
38	0x48	72
39	0xea	-22
40	0x01	1
41	0x00	0
42	0x48	72
43	0x71	113
44	0x34	52
45	0xf5	-11
46	0xf8	-8
47	0x15	21
48	0x1a	26
49	0xde	-34
50	0x0b	11
51	0xff	-1
52	0xfb	-5
53	0x29	41
54	0x00	0
55	0x4d	77
56	0xfd	-3
57	0xd7	-41
58	0x82	-126
59	0xdd	-35
60	0xe7	-25
61	0xec	-20
62	0xe6	-26
63	0x05	5
64	0xd8	-40
65	0x28	40
66	0xf8	-8
67	0x2d	45
68	0xe6	-26
69	0xd7	-41
70	0xf5	-11
71	0xfb	-5
72	0xe1	-31
73	0x02	2
74	0x1b	27
75	0x26	38
76	0x3b	59
77	0xdf	-33
78	0xe1	-31
79	0x06	6
80	0x17	23
81	0x1d	29
82	0x4e	78
83	0xf6	-10
84	0x09	9
85	0x12	18
86	0xf1	-15
87	0xd7	-41
88	0x09	9
89	0x20	32
90	0x0a	10
91	0xf4	-12
92	0x25	37
93	0xe6	-26
94	0xc0	-64
95	0xeb	-21
96	0xc3	-61
97	0xf3	-13
98	0x15	21
99	0xee	-18
100	0x47	71
101	0x38	56
102	0xe2	-30
103	0x14	20
104	0x04	4
105	0xc1	-63
106	0x2c	44
107	0xbc	-68
108	0x27	39
109	0x31	49
110	0x1f	31
111	0xc3	-61
112	0x1c	28
113	0x38	56
114	0xcb	-53
115	0x00	0
116	0x26	38
117	0x01	1
118	0xfc	-4
119	0xf9	-7
120	0x42	66
121	0x1e	30
122	0xe4	-28
123	0x15	21
124	0xe5	-27
125	0x63	99
126	0x01	1
127	0xef	-17
128	0xee	-18
129	0x2d	45
130	0x16	22
131	0xae	-82
132	0x70	112
133	0x26	38
134	0x3d	61
135	0xde	-34
136	0x2a	42
137	0xd1	-47
138	0x10	16
139	0xf4	-12
140	0x28	40
141	0xfe	-2
142	0xbf	-65
143	0x17	23
144	0xe8	-24
145	0x52	82
146	0x01	1
147	0x26	38
148	0x3c	60
149	0xe2	-30
150	0x19	25
151	0xdb	-37
152	0xe7	-25
153	0x18	24
154	0xe5	-27
155	0xe7	-25
156	0xe2	-30
157	0x0a	10
158	0xb5	-75
159	0x13	19
160	0xeb	-21
161	0x22	34
162	0x28	40
163	0x65	101
164	0xd4	-44
165	0xe0	-32
166	0xb8	-72
167	0xe6	-26
168	0xf4	-12
169	0xdd	-35
170	0x35	53
171	0xed	-19
172	0xba	-70
173	0xc3	-61
174	0x05	5
175	0xd2	-46
176	0xaf	-81
177	0x0a	10
178	0x40	64
179	0xc3	-61
180	0xf7	-9
181	0xeb	-21
182	0xd6	-42
183	0x24	36
184	0x09	9
185	0xde	-34
186	0xce	-50
187	0x22	34
188	0xb4	-76
189	0x30	48
190	0x9f	-97
191	0x04	4
192	0x2d	45
193	0xe3	-29
194	0x07	7
195	0xfd	-3
196	0xda	-38
197	0xdc	-36
198	0xf2	-14
199	0x41	65
200	0xd4	-44
201	0x26	38
202	0x07	7
203	0x2f	47
204	0xb2	-78
205	0xdc	-36
206	0x8d	-115
207	0x04	4
208	0x14	20
209	0xd9	-39
210	0xf4	-12
211	0xdf	-33
212	0x98	-104
213	0x04	4
214	0x11	17
215	0x3b	59
216	0x2e	46
217	0xba	-70
218	0x21	33
219	0xcf	-49
220	0x17	23
221	0x74	116
222	0x23	35
223	0xe3	-29
224	0x3c	60
225	0x81	-127
226	0xbc	-68
227	0x92	-110
228	0x29	41
229	0x16	22
230	0x24	36
231	0xde	-34
232	0x25	37
233	0xe8	-24
234	0x1a	26
235	0x1e	30
236	0x25	37
237	0x0b	11
238	0x1e	30
239	0x26	38
240	0xff	-1
241	0xef	-17
242	0x05	5
243	0x19	25
244	0xf3	-13
245	0x12	18
246	0x28	40
247	0xee	-18
248	0x0a	10
249	0x20	32
250	0xe5	-27
251	0x22	34
252	0x15	21
253	0xb2	-78
254	0x23	35
255	0xbd	-67

model_1/model/block_5_expand/Conv2D i1 [144, 1, 1, 24]
0	0xe3	-29
1	0x7f	127
2	0x68	104
3	0x11	17
4	0x14	20
5	0xa4	-92
6	0x46	70
7	0xd5	-43
8	0xe9	-23
9	0xca	-54
10	0x4b	75
11	0x03	3
12	0x35	53
13	0xdd	-35
14	0x94	-108
15	0x07	7
16	0xd2	-46
17	0x49	73
18	0x4e	78
19	0x16	22
20	0x9e	-98
21	0x76	118
22	0xf7	-9
23	0x2b	43
24	0x81	-127
25	0xe4	-28
26	0xca	-54
27	0x17	23
28	0xd3	-45
29	0x11	17
30	0xcb	-53
31	0xe6	-26
32	0x69	105
33	0xf3	-13
34	0x09	9
35	0xe7	-25
36	0x0f	15
37	0x9b	-101
38	0xe3	-29
39	0x48	72
40	0xe8	-24
41	0x6b	107
42	0x61	97
43	0x50	80
44	0x88	-120
45	0x37	55
46	0x20	32
47	0x1f	31
48	0xe6	-26
49	0xbc	-68
50	0x4a	74
51	0xe1	-31
52	0x22	34
53	0x11	17
54	0xf0	-16
55	0x7f	127
56	0x9b	-101
57	0x2b	43
58	0x1a	26
59	0x07	7
60	0xe6	-26
61	0x3c	60
62	0xff	-1
63	0xfc	-4
64	0xfa	-6
65	0xa4	-92
66	0x15	21
67	0x1c	28
68	0xd5	-43
69	0x30	48
70	0xe2	-30
71	0x07	7
72	0x22	34
73	0xf7	-9
74	0xec	-20
75	0xee	-18
76	0xd6	-42
77	0x19	25
78	0x01	1
79	0x00	0
80	0x1d	29
81	0x7f	127
82	0xf4	-12
83	0x0c	12
84	0x0e	14
85	0xce	-50
86	0xdd	-35
87	0x20	32
88	0x5b	91
89	0xe0	-32
90	0xf8	-8
91	0x1b	27
92	0xcd	-51
93	0xe9	-23
94	0x27	39
95	0x0c	12
96	0x41	65
97	0x53	83
98	0x01	1
99	0x02	2
100	0xe1	-31
101	0x22	34
102	0x05	5
103	0x14	20
104	0xd9	-39
105	0xff	-1
106	0xd8	-40
107	0xd3	-45
108	0xed	-19
109	0xeb	-21
110	0x13	19
111	0x0c	12
112	0xfd	-3
113	0x01	1
114	0xd4	-44
115	0x71	113
116	0x7f	127
117	0xde	-34
118	0x10	16
119	0x33	51
120	0x1c	28
121	0x37	55
122	0xda	-38
123	0x2c	44
124	0xf4	-12
125	0xfb	-5
126	0xa8	-88
127	0x3c	60
128	0x2d	45
129	0x12	18
130	0x69	105
131	0x08	8
132	0x24	36
133	0x1e	30
134	0x7f	127
135	0x01	1
136	0x75	117
137	0xdf	-33
138	0xc0	-64
139	0xf4	-12
140	0xe9	-23
141	0xb3	-77
142	0xcb	-53
143	0xb9	-71
144	0x22	34
145	0x17	23
146	0x03	3
147	0x67	103
148	0x63	99
149	0x26	38
150	0x23	35
151	0xee	-18
152	0xbd	-67
153	0x6e	110
154	0x95	-107
155	0xfd	-3
156	0xf2	-14
157	0xa6	-90
158	0xdd	-35
159	0xce	-50
160	0xe9	-23
161	0x7f	127
162	0x46	70
163	0x6a	106
164	0xe0	-32
165	0xfc	-4
166	0x5d	93
167	0x22	34
168	0xf1	-15
169	0xdf	-33
170	0x57	87
171	0x1f	31
172	0x17	23
173	0xdf	-33
174	0x81	-127
175	0x1b	27
176	0xeb	-21
177	0xfc	-4
178	0xfa	-6
179	0x15	21
180	0x3a	58
181	0xf7	-9
182	0xed	-19
183	0xf5	-11
184	0xe3	-29
185	0x53	83
186	0xf2	-14
187	0x16	22
188	0xa8	-88
189	0xc2	-62
190	0x14	20
191	0x06	6
192	0x81	-127
193	0xfd	-3
194	0x2e	46
195	0x5a	90
196	0xbd	-67
197	0xfe	-2
198	0xdb	-37
199	0xc4	-60
200	0x25	37
201	0x5e	94
202	0xc0	-64
203	0xfe	-2
204	0x18	24
205	0xae	-82
206	0xf8	-8
207	0xf8	-8
208	0xfb	-5
209	0x1a	26
210	0xe7	-25
211	0x3b	59
212	0xe9	-23
213	0x9a	-102
214	0xe6	-26
215	0xb2	-78
216	0x31	49
217	0xdc	-36
218	0xee	-18
219	0xe7	-25
220	0xf3	-13
221	0xe6	-26
222	0xce	-50
223	0xd0	-48
224	0x47	71
225	0xee	-18
226	0xe3	-29
227	0x68	104
228	0x3d	61
229	0x7f	127
230	0xd9	-39
231	0xd7	-41
232	0x50	80
233	0xb5	-75
234	0xe7	-25
235	0xd3	-45
236	0xf2	-14
237	0x0e	14
238	0x10	16
239	0xe4	-28
240	0xd0	-48
241	0x0e	14
242	0x81	-127
243	0x22	34
244	0x33	51
245	0x65	101
246	0x38	56
247	0x14	20
248	0x1d	29
249	0xf1	-15
250	0x3b	59
251	0xc4	-60
252	0xb8	-72
253	0x20	32
254	0x0b	11
255	0xb0	-80
