src/detection/AI/model/model_gomi.tflite (tflite, 1464 bytes, 2 tensors)

sequential/conv2d/Conv2D f4 [32]
0.0 0.0 0.0 0.0 0.0 0.0 0.0 0.0
0.0 0.0 0.0 0.0 0.0 0.0 0.0 0.0
0.0 0.0 0.0 0.0 0.0 0.0 0.0 0.0
0.0 0.0 0.0 0.0 0.0 0.0 0.0 0.0
00000000: 0000 0000 0000 0000 0000 0000 0000 0000
00000010: 0000 0000 0000 0000 0000 0000 0000 0000
00000020: 0000 0000 0000 0000 0000 0000 0000 0000
00000030: 0000 0000 0000 0000 0000 0000 0000 0000
00000040: 0000 0000 0000 0000 0000 0000 0000 0000
00000050: 0000 0000 0000 0000 0000 0000 0000 0000
00000060: 0000 0000 0000 0000 0000 0000 0000 0000
00000070: 0000 0000 0000 0000 0000 0000 0000 0000

sequential/conv2d/Conv2D1 f4 [32, 1, 1, 3]
-0.07606083 0.28521135 0.25737855 -0.23776495 0.3620639 -0.27593458 0.20711562 0.069625914
-0.12025857 0.36968455 -0.00032407045 0.1762962 -0.12022558 0.25703278 0.22789356 -0.041409433
0.25134215 0.19672331 0.35973248 0.19604895 0.29183194 -0.26516962 -0.0015047193 0.20348826
-0.093000084 -0.19172621 -0.106243044 -0.03857571 -0.3866565 0.07538888 -0.116708785 -0.32427928
0.038184226 -0.21415389 0.30404028 -0.27834755 -0.402654 0.3186411 0.03458339 -0.009524882
-0.19243547 -0.2988276 0.19275716 -0.34682316 0.25151107 -0.08391538 0.039370567 -0.38055354
-0.14347526 0.3690627 -0.33115268 -0.22046658 0.056929946 -0.18019336 0.38855568 -0.026708245
0.18101683 0.063039005 -0.39860225 -0.08222863 0.0730063 -0.21649776 0.32658193 0.09939143
-0.10432008 0.09650031 -0.19020244 0.13155892 -0.008786291 -0.07078019 -0.12437871 -0.13974532
-0.3536831 -0.22656992 0.037768424 -0.0352526 0.20556709 -0.2854379 0.22249201 0.0037195683
0.34730825 0.13305852 0.309871 -0.061603397 -0.018115908 0.3836675 0.20424864 0.29665574
0.06176716 -0.39410332 0.22399685 -0.25249583 0.3137413 -0.14240095 0.029239982 0.21240565
00000000: c8c5 9bbd 3907 923e 1fc7 833e a878 73be
00000010: 7160 b93e 4c47 8dbe 1e16 543e 0898 8e3d
00000020: 204a f6bd 4b47 bd3e 00e8 a9b9 fe86 343e
00000030: d438 f6bd cd99 833e ee5c 693e f09c 29bd
00000040: ebaf 803e d671 493e db2e b83e 0ec1 483e
00000050: ff6a 953e 50c4 87be 003a c5ba 3a5f 503e
00000060: d476 bebd e053 44be f495 d9bd 9001 1ebd
00000070: d7f7 c5be 7c65 9a3d 0405 efbd ef07 a6be
00000080: 1067 1c3d 284b 5bbe 2bab 9b3e 9283 8ebe
00000090: aa28 cebe ed24 a33e 50a7 0d3d 400e 1cbc
000000a0: ce0d 45be eeff 98be 2262 453e ce92 b1be
000000b0: 0fc6 803e d4db abbd 0843 213d ead7 c2be
000000c0: 2eeb 12be c9f5 bc3e d88c a9be fec1 61be
000000d0: 602f 693d 9c84 38be c5f0 c63e 40cb dabc
000000e0: 7a5c 393e 981a 813d 9815 ccbe 7c67 a8bd
000000f0: 5484 953d 97b1 5dbe bf35 a73e bc8d cb3d
00000100: c4a5 d5bd f4a1 c53d 6ec4 42be 62b7 063e
00000110: 60f4 0fbc 34f5 90bd 44ba febd 6619 0fbe
00000120: f415 b5be f201 68be 10b3 1a3d 0865 10bd
00000130: 2e80 523e eb24 92be f2d4 633e 00c4 733b
00000140: 63d2 b13e 7e40 083e 69a7 9e3e d853 7cbd
00000150: d067 94bc 1170 c43e 8e26 513e 43e3 973e
00000160: 90ff 7c3d e9c7 c9be 6e5f 653e 2247 81be
00000170: b3a2 a03e 8ed1 11be b088 ef3c de80 593e
